Assets/Objects/Brains/DumbBrainV6.onnx (onnx, 281268 bytes, 8 tensors)

network_body._body_endoder.seq_layers.0.weight f4 [128, 402]
0	0x3c9611b7	0.018318994
1	0xbca79802	-0.020458225
2	0xbda5732e	-0.080786094
3	0x3d9da8b2	0.07698192
4	0x3cf2983f	0.029613612
5	0xbd260c19	-0.04053888
6	0x3cd9911c	0.026558451
7	0x3ce88a5e	0.028386291
8	0xbd2d918d	-0.042375136
9	0x3d6d8e1d	0.057996858
10	0xbbaebe04	-0.00533271
11	0x3bd10114	0.0063783024
12	0xbd016208	-0.03158763
13	0x3d49c1ef	0.049257215
14	0x3c9c81b3	0.019104814
15	0x3deda17b	0.116030656
16	0xbbee32bc	-0.0072692316
17	0xbd960009	-0.073242255
18	0x3d2de5d9	0.042455528
19	0xbc7555b8	-0.01497405
20	0x3b529790	0.0032133795
21	0x3d78f714	0.060782507
22	0xbd0f4efe	-0.034987442
23	0xbc1b0ec1	-0.009463967
24	0xbd2f020a	-0.042726554
25	0xbd6508ff	-0.055916782
26	0xbd1c4b60	-0.03815782
27	0x3d00904b	0.03138761
28	0x3d6e9138	0.05824396
29	0xbcab80e4	-0.020935483
30	0x3d23af00	0.039961815
31	0xbaba2991	-0.0014203062
32	0xbd0b18b5	-0.03395911
33	0x3ad7e661	0.0016471857
34	0x3cfd0648	0.030886784
35	0x3db3237c	0.087470025
36	0xbd4a9645	-0.049459714
37	0xbc99021d	-0.018677766
38	0xbca771ee	-0.020440068
39	0x3dac630c	0.08417329
40	0xbd0257ac	-0.03182189
41	0x3d2cb97d	0.042169083
42	0xbd5e84a0	-0.0543257
43	0x3aaf1382	0.0013357254
44	0x3d4175d3	0.047231507
45	0xbd373633	-0.044729423
46	0xbd0eced0	-0.0348652
47	0xbd80da11	-0.06291593
48	0xbdaa57da	-0.083175376
49	0xbd011fa1	-0.031524304
50	0xbd002a27	-0.0312902
51	0xbabb4a06	-0.0014289028
52	0x3d6fe9b9	0.058572505
53	0x3cc5e943	0.02415908
54	0x3cb6302d	0.022239769
55	0x3bc18160	0.0059053153
56	0x3ccfd1a4	0.02536852
57	0xbd46e91d	-0.048562158
58	0x3d05f1f6	0.032701455
59	0xbb41da7a	-0.0029579685
60	0xbb88d15c	-0.004175348
61	0x3d0925a3	0.03348316
62	0xbc50812f	-0.012726112
63	0xbaf84250	-0.0018940661
64	0x3c8148d4	0.015781797
65	0x3d74a205	0.059724826
66	0x3d4e891e	0.050423734
67	0xbc32101e	-0.0108681
68	0x3d0076c2	0.031363256
69	0xbc698d8e	-0.014254941
70	0x3dac2449	0.08405358
71	0x3cdc8829	0.026920395
72	0xb9d7b095	-0.0004113956
73	0x3c8a5b4b	0.016889235
74	0x3d3f5647	0.04671314
75	0xbacd8977	-0.0015681227
76	0xbc4f819a	-0.012665177
77	0xbdaff7bc	-0.085921735
78	0x3cefd67e	0.029277083
79	0xbd26c9e6	-0.04071989
80	0xbd4ad94c	-0.049523637
81	0x3bb47fc9	0.0055083972
82	0x3d00ec59	0.0314754
83	0xbbd75434	-0.006571317
84	0xbc5903b8	-0.0132455155
85	0xbcec787b	-0.028866043
86	0x3d23b07d	0.039963234
87	0xbd358205	-0.04431345
88	0x3cb32446	0.021867882
89	0x3ad8f7b6	0.0016553316
90	0xbc27b045	-0.010234897
91	0xbbdd9a32	-0.0067627663
92	0xbd2ba47b	-0.041904908
93	0x3d940c3a	0.072288945
94	0xbd019d3d	-0.031644095
95	0xb980bd8e	-0.00024555292
96	0xbda6ad1b	-0.08138486
97	0xbd661820	-0.05617535
98	0x3c0b02ab	0.008484523
99	0x3be4cd19	0.0069824574
100	0xbd9c3b1b	-0.07628461
101	0xbc78e21d	-0.015190628
102	0xbd08d01b	-0.03340159
103	0x3bcb57f8	0.006205555
104	0x3ba16474	0.004925305
105	0xbb6e9978	-0.0036407392
106	0xbe06b20e	-0.1315386
107	0x3cace4f7	0.021105273
108	0x3cf121df	0.029435096
109	0xbcadf554	-0.021235146
110	0xbb88f97e	-0.0041801324
111	0xbcf02698	-0.029315278
112	0x3ce150f6	0.027504425
113	0xbd917d7a	-0.07104011
114	0xbb7c171a	-0.0038465918
115	0xbc051adb	-0.008124079
116	0x3d5380e1	0.05163658
117	0x3c947702	0.018123154
118	0x3d5c4467	0.05377617
119	0xbd91e3ee	-0.07123552
120	0xbd35414b	-0.04425172
121	0xbd27b773	-0.040946435
122	0xbcc4505a	-0.023964096
123	0x3d0dfe16	0.034666143
124	0x3d29eb08	0.04148391
125	0x3c743f0b	0.014907609
126	0x3c0546a8	0.008134522
127	0x3d9ccd6a	0.07656367
128	0xbd1cd2ae	-0.038286857
129	0xbab95b50	-0.0014141593
130	0x3dc0d368	0.094153225
131	0xbd59b1d7	-0.053148117
132	0x3d3d43f4	0.046207383
133	0x3d15209e	0.03640806
134	0x3cb2a7d3	0.02180854
135	0x3be8467a	0.0070884796
136	0x3b0fb004	0.0021924982
137	0xbcb4935d	-0.022042925
138	0xbca70f7b	-0.020393124
139	0xbd45b5b5	-0.048268992
140	0x3bb95af2	0.0056565935
141	0x3da03d8c	0.07824239
142	0x3d8ff799	0.070296474
143	0xbc5614dc	-0.013066497
144	0xbb9f2c52	-0.0048575783
145	0x3cabf15b	0.02098911
146	0xbd6617bb	-0.056174975
147	0xbc088f53	-0.008334952
148	0xbd8f9fc1	-0.070128925
149	0x3d4edbe5	0.050502677
150	0x3aedfd78	0.0018157205
151	0xbd9df107	-0.07711988
152	0x3cfea91a	0.031086493
153	0x3d41816b	0.047242563
154	0xbc78ad3e	-0.015178023
155	0xbc7afda4	-0.015319262
156	0x3bf9eaae	0.007626853
157	0xbd4d0981	-0.05005789
158	0x3b3d43f4	0.0028879615
159	0x3d404e22	0.046949513
160	0xbd4dd1d6	-0.050248943
161	0x3d78a4bc	0.060703978
162	0x3cd20acd	0.025639916
163	0xbda04fc4	-0.07827714
164	0x3d863568	0.06553155
165	0x3db57e78	0.088620126
166	0x3c2e39c3	0.010633889
167	0x3de1f5e8	0.11033231
168	0x3c8bb1b4	0.017052509
169	0x3d3bcc26	0.045848988
170	0x3d1c6ba8	0.038188607
171	0x3b454a78	0.0030104201
172	0x3d7c07ac	0.061530754
173	0x3d525b53	0.051356625
174	0xbc7ba3b7	-0.015358857
175	0x3bdaff88	0.0066832937
176	0x3dbd4c06	0.09243016
177	0x3db40a7e	0.08791064
178	0xbbf9e6ed	-0.0076264055
179	0xbd3582b8	-0.044314116
180	0x3d6695f3	0.056295346
181	0xbd0916fc	-0.033469185
182	0x3d0c0c0a	0.03419117
183	0xbdb543a4	-0.08850792
184	0xbd01c90e	-0.03168588
185	0x3cf4a0d7	0.02986185
186	0xbd19d23c	-0.03755401
187	0xbd8b35c3	-0.067973636
188	0xbc81d203	-0.015847212
189	0x3d9d1933	0.07670822
190	0xbcbe728b	-0.023247978
191	0xba6e43cf	-0.0009089084
192	0xbb21e105	-0.0024700772
193	0xbdc37b0a	-0.09544952
194	0x3d11dabd	0.035608996
195	0x3cc5ab29	0.024129467
196	0xbd14c696	-0.0363222
197	0x3d085651	0.033285443
198	0xbc8a6536	-0.016893964
199	0x3c57aee1	0.013164253
200	0x3bdb6f2a	0.0066966014
201	0x3c6a92b5	0.014317204
202	0xba623104	-0.000862852
203	0x3d89a8c9	0.06721646
204	0x3c3dc17b	0.011581774
205	0x3d1600d7	0.036621895
206	0xbd31ee2e	-0.043440036
207	0x3ddd5fc8	0.108092844
208	0xbb5d180c	-0.0033736257
209	0x3bf73860	0.007544562
210	0x3ca6c7b4	0.020358898
211	0x3de4c61d	0.111705996
212	0xbd752aef	-0.059855398
213	0xbd2b39e3	-0.041803252
214	0xbba52704	-0.0050400514
215	0x3c420bfc	0.011843678
216	0x3cfb5656	0.030680817
217	0x3c9844a8	0.018587425
218	0xbd091580	-0.03346777
219	0xbaff823a	-0.0019493767
220	0xbdf74bff	-0.12075042
221	0xbe0d4b20	-0.13798189
222	0xbc9ebcc5	-0.019377122
223	0xbd8b9a37	-0.068165235
224	0xbcafb87c	-0.021450274
225	0x3aa9facb	0.0012968419
226	0xbd3e8e66	-0.04652252
227	0xbbc33bf9	-0.005958077
228	0xbd87fd4d	-0.0664011
229	0x3ccafaf7	0.024777872
230	0xbd829ea4	-0.063779145
231	0x3d3e7247	0.046495702
232	0x3cd517f1	0.026012393
233	0x3df9c141	0.121950634
234	0xbcb1f338	-0.021722421
235	0xbc382925	-0.011240278
236	0x3cc9e5fe	0.024645802
237	0x3e19a723	0.15005164
238	0x3cbe18fc	0.023205273
239	0x3cd33ae5	0.025784919
240	0x3cedbab3	0.02901969
241	0x3e219981	0.15781213
242	0xbd2b190d	-0.041771937
243	0xbd87dd47	-0.06634002
244	0x3d053d68	0.032529265
245	0xbd41c092	-0.04730279
246	0xbdca0e58	-0.09866017
247	0xbd06c234	-0.03290005
248	0x3c0a2c17	0.008433363
249	0x3c9dccd6	0.019262712
250	0xbc428a4d	-0.011873794
251	0x3d2dbcd0	0.042416394
252	0x3ce7c186	0.028290521
253	0xbd0e7146	-0.034775995
254	0xbc666882	-0.014063003
255	0xbca2df50	-0.019881874

network_body._body_endoder.seq_layers.0.bias f4 [128]
0	0x3a99e408	0.0011740932
1	0x3bcca815	0.006245623
2	0xbb158f36	-0.0022820956
3	0x3bebd921	0.0071975146
4	0x3bc320b8	0.005954828
5	0x3b581504	0.003297151
6	0x3b539b23	0.0032288514
7	0x3a9e38f9	0.0012071423
8	0xbc084ad2	-0.00831862
9	0x3bde7eff	0.0067900415
10	0x3b8dbc66	0.0043254374
11	0xbba98105	-0.005172851
12	0xb92ff57d	-0.00016780752
13	0x3adf8f35	0.0017056229
14	0xbbd06383	-0.006359519
15	0xbb7181e3	-0.00368511
16	0xbad69619	-0.0016371637
17	0x3b8781f5	0.004135365
18	0xbb6113cd	-0.0034344078
19	0xbbaf9863	-0.005358742
20	0xbb141319	-0.002259439
21	0xbb8fa069	-0.004383136
22	0x3b8335d6	0.0040042205
23	0x3acdba56	0.0015695791
24	0xb9a4bcd6	-0.0003142121
25	0x3b6c3a2c	0.0036045415
26	0xbaa8467d	-0.001283839
27	0x3bad59bd	0.0052902387
28	0xbad248d2	-0.0016043431
29	0x3bf10117	0.0073548662
30	0x3baa45d3	0.005196312
31	0xbb383670	-0.002810862
32	0x3b4dc751	0.003139932
33	0xbaac2a1e	-0.001313511
34	0xbc23ce83	-0.009997967
35	0xbbdfec08	-0.006833557
36	0x3ab2f6ac	0.0013653836
37	0xbb88ae60	-0.0041711777
38	0x3a90253d	0.0010997426
39	0x39bd0f77	0.0003606041
40	0x39fa9532	0.00047794875
41	0xbaf4634d	-0.0018645317
42	0xbb50523f	-0.0031787304
43	0x3aa6ed1a	0.0012735457
44	0xbb1d0992	-0.0023962003
45	0x3b151c47	0.002275245
46	0x3b426217	0.0029660517
47	0x3c506a89	0.012720712
48	0xbbac1e01	-0.0052526
49	0xbb77a69b	-0.0037788514
50	0x3be4885e	0.006974264
51	0x38c59aeb	9.422548e-05
52	0x3c2383de	0.00998017
53	0xb982eca3	-0.0002497184
54	0x3b46cfa5	0.0030336168
55	0x3c002075	0.007820238
56	0xbb2e9a02	-0.0026642089
57	0xb9cad543	-0.00038687335
58	0x3ba2b30b	0.0049651912
59	0xbb07a604	-0.0020698318
60	0xbb98c0e1	-0.004661665
61	0xbb2d4d64	-0.0026443833
62	0xba02e51e	-0.00049932476
63	0xb80c52ff	-3.3455897e-05
64	0xbb946821	-0.0045290147
65	0x3bee5194	0.0072729085
66	0x3a26ef14	0.0006368023
67	0xbb8d00d4	-0.0043030772
68	0x3b9ea72b	0.0048417053
69	0x3c07dcf4	0.008292425
70	0xbbc01ef5	-0.0058630654
71	0xbb826377	-0.0039791423
72	0x3b3f37d7	0.002917757
73	0x3bb84aac	0.005624136
74	0x3b121d64	0.002229535
75	0xbc0de518	-0.008660577
76	0x3bc34f86	0.0059604077
77	0xbbe0f358	-0.0068649463
78	0xbb8d7fa7	-0.004318196
79	0x3b8898c5	0.004168602
80	0x3b560b06	0.003266038
81	0x3c21ef57	0.009883723
82	0x3c6d2b9c	0.014475729
83	0x3bad949e	0.0052972576
84	0x3b203aae	0.0024449038
85	0xba9e64b2	-0.0012084453
86	0x3c14c916	0.009081146
87	0x3be94558	0.007118862
88	0xbab316fd	-0.0013663467
89	0x3b1d3201	0.0023986103
90	0xbb1d9e44	-0.0024050632
91	0x3b590ac1	0.0033117982
92	0x3af03413	0.0018326066
93	0x3b9b9d24	0.004748957
94	0x3a530496	0.00080496946
95	0xbb440e66	-0.0029915809
96	0x3c1afd4f	0.009459808
97	0xbb1a679b	-0.0023560289
98	0x3b769116	0.00376231
99	0x3c0fae37	0.008769563
100	0x3c006676	0.007836929
101	0x3a8a62c8	0.0010558004
102	0xb9cfaba2	-0.00039609993
103	0xbb5928d7	-0.0033135915
104	0x3a9193a1	0.0011106619
105	0xba8b4b82	-0.0010627361
106	0xb9aa6eb6	-0.00032507413
107	0x3b93256d	0.0044905455
108	0x3bd0b506	0.006369236
109	0x3acfd935	0.001585758
110	0xb8a18b28	-7.702998e-05
111	0xbb5f73ef	-0.0034096201
112	0x3c5649da	0.013079131
113	0x3c0c917e	0.00857961
114	0xbb4cda5b	-0.003125808
115	0x3b7d4935	0.003864837
116	0x3be19c42	0.0068850825
117	0xbaa0e80a	-0.0012276184
118	0x3bae72d5	0.0053237476
119	0xbbb32043	-0.0054664924
120	0x3aff35d7	0.0019471002
121	0xbc244623	-0.0100264875
122	0x392ea024	0.0001665359
123	0xba8eb78f	-0.0010888445
124	0x3c5bff06	0.013427502
125	0xbb5f3ca9	-0.0034063256
126	0xbbef68e7	-0.0073062065
127	0x3b8406a3	0.0040291115

network_body._body_endoder.seq_layers.2.weight f4 [128, 128]
0	0xbc15fd10	-0.009154573
1	0xbcd4cadc	-0.025975637
2	0xbc9529fb	-0.018208494
3	0x3d80b4b9	0.0628447
4	0xbc2f1f91	-0.010688678
5	0x3e370066	0.17871246
6	0x3ca49ca9	0.020094233
7	0xbda6c258	-0.08142537
8	0xbdbedc6f	-0.09319388
9	0x3c3c55bd	0.011495051
10	0x3daaa927	0.083330445
11	0xbe18ff0b	-0.14941041
12	0xbdc567e0	-0.09638953
13	0xbd35530a	-0.044268645
14	0x3d8c6dc1	0.068568714
15	0x3d000fda	0.031265117
16	0xbd221fef	-0.039581235
17	0x3c35745c	0.0110751055
18	0xbce6cc13	-0.028173482
19	0xbd112b8c	-0.03544192
20	0xbe4d10f6	-0.20026001
21	0x3dcc9701	0.09989739
22	0x3d51c72f	0.051215347
23	0xbe2e74b1	-0.17036702
24	0xbd906a05	-0.070514716
25	0xbba15085	-0.0049229288
26	0x3c77024d	0.015076232
27	0xbd8114e9	-0.063028164
28	0x3c8495a6	0.01618464
29	0xbcd5afe4	-0.026084848
30	0xbd632001	-0.055450443
31	0xbd97614c	-0.07391605
32	0xbe1201cd	-0.142585
33	0x3dcaa49c	0.09894678
34	0xba2558fa	-0.0006307509
35	0x3e244162	0.16040567
36	0xbc089377	-0.00833594
37	0xbd3b2c74	-0.04569669
38	0x3cfe404a	0.031036515
39	0xbdba1a15	-0.09087006
40	0x3d0933ca	0.033496656
41	0x3c479e7f	0.0121837845
42	0x3e09c276	0.13453087
43	0xbd01af07	-0.03166106
44	0xbba5b3ee	-0.0050568497
45	0xbc1a0e27	-0.009402788
46	0x3d2b76ed	0.041861463
47	0x3d0ebea1	0.034849767
48	0xbd945486	-0.07242684
49	0xbd2bf5a8	-0.041982323
50	0x3deef566	0.116679
51	0x3d729860	0.059227347
52	0xbdcce1e3	-0.10004022
53	0xbd233aba	-0.039850928
54	0xbd70f237	-0.058824744
55	0x3d0b0f4b	0.03395013
56	0x3d9d902b	0.076935135
57	0xbd20a774	-0.039222196
58	0x3d536f14	0.051619604
59	0x3dc1589e	0.094407305
60	0xbe0f17e0	-0.13973951
61	0x3d88db97	0.066825084
62	0x3d872cd5	0.06600348
63	0xbdbf054d	-0.09327183
64	0x3db5a6d2	0.08869709
65	0x3e3e6f36	0.18597111
66	0xbe0ec7cc	-0.13943404
67	0x3da514cc	0.08060607
68	0x3d457654	0.04820855
69	0x3d2972ef	0.041369375
70	0x3bc30a17	0.0059521305
71	0x3cc99680	0.024607897
72	0xbddf8114	-0.109132916
73	0xbd1c281e	-0.038124196
74	0x3e2383ea	0.1596829
75	0x3cf20459	0.029543089
76	0xbcaddf27	-0.021224571
77	0xbbafca9a	-0.005364728
78	0x3d252f7b	0.040328484
79	0x3e2643e3	0.16236834
80	0xbe508758	-0.2036413
81	0x3dda1667	0.10648804
82	0x3cd2277a	0.02565359
83	0x3c173291	0.009228365
84	0xbe0842f5	-0.13306792
85	0x3cc1ab33	0.023641204
86	0x3c1d7718	0.009610914
87	0x3aef39e8	0.001825151
88	0xbd86583c	-0.06559798
89	0x3cb3ca89	0.021947162
90	0xbe128486	-0.14308366
91	0x3e1fd233	0.15607528
92	0xbcb5de69	-0.02220078
93	0x3dc8926b	0.09793552
94	0x3e130528	0.14357436
95	0xbad7200c	-0.0016412749
96	0xbd9f3956	-0.07774608
97	0xbdd6ee57	-0.104946785
98	0x3dbacbf6	0.09120934
99	0x3cf9bd06	0.030485641
100	0xbcaad2cd	-0.02085247
101	0x3da2045f	0.0791099
102	0x3e0f1d6d	0.13976069
103	0xbdd72cb4	-0.10506573
104	0xbe2c33b9	-0.16816606
105	0xbc2a7ae4	-0.010405276
106	0xbd4907e3	-0.049079787
107	0xba8079a4	-0.0009801877
108	0x3d88bdd7	0.06676834
109	0xbe063545	-0.13106258
110	0x3d01f1e5	0.03172483
111	0x3e15d709	0.1463281
112	0x3d09b766	0.033622168
113	0x3e3a6596	0.18202814
114	0xbe17db80	-0.14829826
115	0x3d3392d4	0.043841198
116	0x3d811bca	0.063041285
117	0xbd819c77	-0.063286714
118	0x3e292f73	0.16522007
119	0x3d3e5eef	0.046477254
120	0xbd82de9a	-0.06390114
121	0xbd219dc1	-0.039457086
122	0x3bad23ef	0.0052838246
123	0xbd6e7fb7	-0.058227267
124	0x3d18ba54	0.03728707
125	0xbd7a4002	-0.0610962
126	0xbd21bab0	-0.03948468
127	0x3c9079b5	0.01763616
128	0xbd32759d	-0.043569196
129	0xbd659c5b	-0.056057315
130	0x3d51f65f	0.05126035
131	0xbd30d111	-0.04316813
132	0x3c373b3c	0.011183556
133	0x3de98922	0.11403109
134	0xbcc7d145	-0.02439178
135	0xbd5689aa	-0.05237738
136	0xbd8a6b91	-0.06758798
137	0x3c32f73b	0.010923202
138	0xbdd0af62	-0.101897016
139	0x3b9c96ba	0.00477871
140	0x3defb394	0.11704174
141	0xbde81a70	-0.113331676
142	0xbe117f90	-0.14208817
143	0xbdab1f75	-0.08355609
144	0x3e3faa2d	0.1871726
145	0x3b169b83	0.0022980876
146	0xbd84550c	-0.06461534
147	0x3d4b4f39	0.0496361
148	0x3cbe5a36	0.023236375
149	0xbdffe176	-0.12494175
150	0xbd8bc57f	-0.06824779
151	0x3c88e743	0.016711837
152	0x3d1fb6c6	0.038992666
153	0xbd89a237	-0.06720393
154	0x3daf6f52	0.085661545
155	0xbc9c2d56	-0.019064587
156	0x3d74e293	0.05978639
157	0x39f834b8	0.00047341525
158	0x3e148139	0.1450242
159	0xbd413431	-0.047168914
160	0x3d09d4b4	0.033650115
161	0x3d24181a	0.040062048
162	0x3c67f58a	0.014157662
163	0xbc88e151	-0.016709002
164	0xbc5ab636	-0.013349107
165	0x3a42d437	0.0007432135
166	0x3babdfa8	0.0052451678
167	0xbd2013af	-0.03908127
168	0xbd95402c	-0.072876304
169	0xbd209801	-0.039207462
170	0x3d8bd78e	0.06828223
171	0xbd2d61bc	-0.042329535
172	0xba74b0d6	-0.0009334212
173	0x3bc7b54e	0.0060946112
174	0xbd158b46	-0.036509775
175	0x3bd50ab5	0.0065015205
176	0xbd5f5ce9	-0.054531965
177	0xbdbb8587	-0.09156328
178	0x3ccd6b68	0.02507563
179	0xbe1c16c7	-0.15243064
180	0xbe175f2f	-0.14782403
181	0xbe0ed511	-0.13948466
182	0xbd4e7bbf	-0.050410982
183	0xbe53ef65	-0.2069679
184	0xbd310c41	-0.043224577
185	0x3d825aef	0.063650005
186	0x3e1b3ab6	0.15159115
187	0xbce8ee7e	-0.028434034
188	0x3b8ea8f1	0.0043536355
189	0x3d9831fd	0.074314095
190	0xbde015d5	-0.10941664
191	0xbcfe5f1c	-0.031051211
192	0xbe07c344	-0.13258082
193	0xbdbe0722	-0.09278704
194	0xbcf55888	-0.029949442
195	0xbdfaa508	-0.122385085
196	0xbe819794	-0.25310957
197	0x3dbdeaab	0.09273275
198	0xbd9a0de2	-0.07522179
199	0xbdfdf614	-0.12400451
200	0xbcc24cee	-0.023718324
201	0xbdf31c3c	-0.1187062
202	0x3cc45a62	0.02396888
203	0x3dc9c482	0.09851934
204	0xbe17412b	-0.14770953
205	0x3c3b236b	0.0114220185
206	0xbd0fc0b6	-0.035095893
207	0x3d80fac4	0.0629783
208	0x3da49b9e	0.08037494
209	0x3e45f51f	0.19331788
210	0x3dcb9228	0.099399865
211	0x3d935857	0.07194584
212	0xbc17ccb3	-0.009265113
213	0xbc3ae945	-0.011408155
214	0x3d1388f2	0.036019273
215	0x3da5e588	0.0810042
216	0xbdd7e863	-0.10542371
217	0x3cac7c87	0.021055473
218	0xbe36d492	-0.17854527
219	0x3da17b18	0.078848064
220	0x3d44551e	0.047932737
221	0xbe00b079	-0.12567319
222	0xbe19319d	-0.14960332
223	0x3cfa8a48	0.030583516
224	0x3c15ecb7	0.0091506755
225	0x3d3c5f82	0.04598952
226	0xbd821ba6	-0.0635293
227	0x3c92f26b	0.01793786
228	0x3dbfb00e	0.09359752
229	0xbe01bfb3	-0.12670784
230	0x3d671586	0.05641701
231	0xbc00909d	-0.0078469785
232	0x3d0ca5ee	0.03433793
233	0xbcbfc1b1	-0.023407789
234	0xbcd815e8	-0.026377633
235	0xbb391295	-0.0028239836
236	0x3d1081cb	0.03528003
237	0x3df17735	0.11790315
238	0x3d245ac5	0.040125627
239	0x3d553692	0.052053995
240	0x3d76b5fd	0.06023215
241	0xbd22aa11	-0.03971297
242	0xbd9d3a7b	-0.0767717
243	0x3dc21beb	0.09477981
244	0x3caa2398	0.020768926
245	0xbd88c17f	-0.066775315
246	0x3c5f2d22	0.0136216
247	0x3d9bfd7f	0.0761671
248	0x3d97e6f0	0.07417095
249	0x3d2d08f3	0.042244863
250	0xbc8a54a1	-0.016886057
251	0xbd79fdc8	-0.06103304
252	0xbc2c8345	-0.010529344
253	0x3d9e2a87	0.07722955
254	0xbc3db809	-0.011579522
255	0x3d4bc5bd	0.049749125

network_body._body_endoder.seq_layers.2.bias f4 [128]
0	0x3bdb00d2	0.0066834474
1	0xbafb7b57	-0.0019186538
2	0xb9020734	-0.0001240045
3	0xbb9e025a	-0.0048220577
4	0x3b867946	0.0041038124
5	0xbb08e085	-0.0020885777
6	0x3b5aa403	0.0033361919
7	0xbba12767	-0.004918027
8	0x39c7ace7	0.0003808506
9	0xbbb870fb	-0.0056287027
10	0xb8a36582	-7.791353e-05
11	0x3c16eecc	0.009212207
12	0x38891c88	6.5379834e-05
13	0xbac6d0b4	-0.00151684
14	0xbb040804	-0.002014638
15	0x39f7d8ab	0.0004727294
16	0x3b4309ff	0.0029760597
17	0x3abe3bcd	0.0014513672
18	0xbb9cc298	-0.0047839396
19	0x3a8d3dd2	0.001077587
20	0xbb09ba6a	-0.0021015652
21	0xbb0a5c03	-0.0021111972
22	0xbb838b08	-0.0040143766
23	0x3bbe033e	0.0057987263
24	0x3bd10310	0.006378539
25	0x3bcdc881	0.0062800054
26	0xbb868457	-0.0041051316
27	0x3bce3517	0.00629295
28	0x3be3fe5a	0.0069578113
29	0x3ba62046	0.0050697653
30	0x3bd3c823	0.006463067
31	0xbba7cda3	-0.0051209494
32	0xbbab906c	-0.0052357223
33	0x3b7175b3	0.0036843836
34	0xbaf2dbc3	-0.0018528629
35	0xbbba504d	-0.005685842
36	0xbb474000	-0.0030403137
37	0x392d377c	0.00016519235
38	0xbbc9ec89	-0.0061622304
39	0x3bd55ec8	0.006511543
40	0x3b910e8c	0.004426783
41	0xb98f7619	-0.00027363075
42	0x3b249034	0.0025110366
43	0xbbba2576	-0.005680735
44	0x3b7769d1	0.003775228
45	0xbae4c5b6	-0.0017453942
46	0x3c0f38bc	0.008741554
47	0xbabd449a	-0.001444
48	0x3b6549ad	0.003498654
49	0xbb92273e	-0.0044602444
50	0x3b804421	0.0039143716
51	0x398cfd00	0.0002689138
52	0x3af8f524	0.0018993956
53	0x3a00de66	0.00049159524
54	0x3b0864bf	0.0020812002
55	0xb850bda2	-4.9767674e-05
56	0x3c1034e2	0.008801671
57	0xb99a3cfb	-0.00029418603
58	0x3be36656	0.0069396896
59	0x3bfac8bb	0.0076533235
60	0x3b9f6b44	0.004865082
61	0x3be76430	0.007061504
62	0x3ab7e73f	0.0014030709
63	0xb8ce066b	-9.824041e-05
64	0xbb52cec2	-0.0032166694
65	0x3aecb418	0.0018059043
66	0x3b8d25c3	0.00430748
67	0xbb9ed924	-0.0048476625
68	0x3b2cc6c9	0.0026363602
69	0xbb91a109	-0.0044442457
70	0x3be2d7ab	0.0069226823
71	0xbb62137d	-0.003449648
72	0x3bf70536	0.007538463
73	0x3a1baf70	0.0005938923
74	0x3bb1a349	0.0054210764
75	0x3ae9540a	0.0017801535
76	0xba22c106	-0.00062085723
77	0x3abaed7e	0.0014261452
78	0xbb781e98	-0.0037860032
79	0x3ab03863	0.0013444539
80	0xbbac41d1	-0.0052568694
81	0x3b82ee47	0.00399569
82	0x3a06eaec	0.00051467004
83	0x3b445dba	0.0029963092
84	0x3c08126e	0.008305175
85	0x3ba32e1e	0.004979863
86	0xb95b5782	-0.00020918067
87	0xbb434d4c	-0.0029800711
88	0xbb320748	-0.0027164984
89	0x3b215d62	0.002462231
90	0x3bc8da90	0.0061295703
91	0x3b958a83	0.004563631
92	0x3b655e94	0.0034999
93	0xbb85ed06	-0.0040870933
94	0x3b973dd7	0.004615526
95	0x3b4b7122	0.0031042774
96	0xbb51eb1c	-0.0032031005
97	0x3b7e181c	0.0038771695
98	0xbb19cf8f	-0.0023469662
99	0xb8fc1a5a	-0.00012021205
100	0x3a16b52d	0.0005749043
101	0xbb070cd8	-0.002060702
102	0xbb3f8439	-0.0029223098
103	0x389ea2f2	7.564378e-05
104	0x3b9417fd	0.004519461
105	0x3b10358a	0.0022004568
106	0x3b82d718	0.0039929263
107	0xb99b1b5b	-0.00029584285
108	0x3bb88e3b	0.0056321896
109	0x3bdd2e11	0.0067498763
110	0x3af48dce	0.0018657984
111	0xba43a467	-0.00074631575
112	0x3bd5c49a	0.006523681
113	0xbbb5b793	-0.0055455654
114	0xbb2451b4	-0.0025073113
115	0xbb9492d7	-0.0045341062
116	0x398fe3f4	0.00027444924
117	0x398b7912	0.0002660235
118	0x3a3c75a4	0.00071891607
119	0x3b3cf6b3	0.0028833568
120	0x3bc397f7	0.0059690434
121	0xbb3086bd	-0.002693578
122	0xbb6ed158	-0.0036440697
123	0xbb305a1d	-0.002690918
124	0xbabbff8f	-0.001434313
125	0x3a2ef3bb	0.0006673892
126	0xbbaccabf	-0.0052731927
127	0xbb5fa345	-0.0034124416

action_model._continuous_distribution.log_sigma f4 [1, 2]
0	0xbb71c547	-0.0036891268
1	0xbc3373cd	-0.010952902

action_model._continuous_distribution.mu.weight f4 [2, 128]
0	0xbce82e4d	-0.02834239
1	0x3ba10b01	0.004914642
2	0x3c16d295	0.00920548
3	0x3cd026b2	0.025409076
4	0xbc2e34c9	-0.010632702
5	0x3c229867	0.009924031
6	0xbc0ce289	-0.008598932
7	0x3cd84a94	0.02640275
8	0x3bb68fa2	0.0055713216
9	0x3ce141c5	0.027497182
10	0x3b8b10e3	0.0042439564
11	0xbd3c20ba	-0.045929648
12	0xbbae309d	-0.0053158537
13	0x3bd982d3	0.00663791
14	0x3cbd5303	0.023110872
15	0x3b3deec4	0.0028981427
16	0xbc44d316	-0.012013217
17	0xbbe5a2e7	-0.007007945
18	0x3c5c5b6a	0.013449529
19	0xbc25c93b	-0.010118778
20	0x3c4a8943	0.012361827
21	0x3c63149e	0.013859896
22	0x3d46caba	0.04853318
23	0x3a657d36	0.00087543146
24	0xbc71334b	-0.014721702
25	0xbcc1cea9	-0.023658114
26	0x3d0e84b6	0.03479453
27	0xbce937dc	-0.028469019
28	0xbd04a3d2	-0.032382794
29	0xbca24a7a	-0.019810904
30	0xbd634d2f	-0.05549353
31	0x3afdeb99	0.0019372582
32	0x3c48d683	0.012258175
33	0xbc6bb684	-0.014386777
34	0xbb283f50	-0.0025672503
35	0x3c0e4b08	0.008684881
36	0x3d318b43	0.0433457
37	0x3c5e4309	0.013565787
38	0x3ca0cd4f	0.019629149
39	0xbd65b638	-0.05608198
40	0xbc983ef4	-0.018584706
41	0xbc0ad0ff	-0.00847268
42	0xbc4bc1e0	-0.01243636
43	0x3c9e8753	0.019351637
44	0xbcb3a0e0	-0.021927297
45	0x3d204333	0.039126586
46	0xbd456039	-0.04818747
47	0x3b007547	0.0019601153
48	0xbc4a5fb6	-0.012351921
49	0x3d16679a	0.036719896
50	0xbc1f63c7	-0.009728379
51	0xbb878e84	-0.0041368622
52	0x3c144944	0.009050671
53	0x3c6bc544	0.0143902935
54	0xbc19b559	-0.009381616
55	0x3c9be204	0.019028671
56	0xbd10bf34	-0.035338596
57	0x3c74cec3	0.014941874
58	0xbc9b76d9	-0.01897757
59	0xbd1ebd23	-0.038754594
60	0xbcfbad32	-0.030722234
61	0xbd1e79c4	-0.038690343
62	0xbc18bc9a	-0.00932231
63	0x3b55ac16	0.0032603792
64	0x3c57753f	0.013150512
65	0xbace9e1b	-0.0015763672
66	0xbca49c29	-0.020093994
67	0x3c8e7775	0.017390946
68	0xbba36631	-0.0049865474
69	0x3c208e49	0.009799548
70	0xbc8341b4	-0.01602254
71	0x3ce53a92	0.02798203
72	0xbcb8de7b	-0.022567024
73	0x3946a18c	0.00018942932
74	0xbcbd1f75	-0.023086289
75	0x3bb09b11	0.005389579
76	0xbbdba9a3	-0.006703572
77	0xbc5a934a	-0.0133407805
78	0x3d3705e5	0.044683356
79	0xbb51bb16	-0.003200238
80	0x3a79c911	0.00095285574
81	0xbc2f72af	-0.010708495
82	0xbb16358a	-0.0022920095
83	0xbb71f780	-0.0036921203
84	0xbd18a717	-0.037268724
85	0xbcda62af	-0.026658384
86	0x3c423cb6	0.011855295
87	0x3cfd172a	0.030894835
88	0x3b6b4df8	0.0035904627
89	0xbad08200	-0.0015907884
90	0xbd0437b5	-0.03227969
91	0xbc3b74f1	-0.011441455
92	0xbcd27683	-0.025691276
93	0x3c4d1ba5	0.012518798
94	0x3a80091a	0.0009768337
95	0xbcd9f972	-0.026608203
96	0x3d7a2a80	0.061075687
97	0xbc8729a4	-0.016499348
98	0x3b25183d	0.002519145
99	0x3bde7e34	0.006789947
100	0x3c5e20ea	0.013557652
101	0x3bd0a0d9	0.006366831
102	0x3c24030a	0.01001049
103	0xbc38fc96	-0.01129069
104	0xb7f8e4ec	-2.9670504e-05
105	0xbb96aceb	-0.00459825
106	0xbcc0cf0c	-0.023536228
107	0x3ccff244	0.025384076
108	0xbc6c0ee6	-0.014407849
109	0xbc8395a4	-0.016062565
110	0xbba1f203	-0.00494218
111	0x3b532335	0.003221703
112	0xbd0ab5da	-0.033864833
113	0x3cdd4dc3	0.027014619
114	0x3cd1c29b	0.02560549
115	0x3cb67253	0.02227131
116	0x3b50abb1	0.0031840617
117	0xbab0293e	-0.0013440026
118	0xbc0b2dbe	-0.0084947925
119	0xbc447940	-0.011991799
120	0xbc55d4ac	-0.013051193
121	0x3d423a4d	0.04741888
122	0x3cd46ca6	0.025930714
123	0x3ba0fdc3	0.0049130633
124	0xbc255351	-0.010090665
125	0x3a628b5d	0.00086419826
126	0x3c64ab8e	0.013956917
127	0x3d1302ee	0.035891466
128	0x3a7f1968	0.0009731264
129	0x3bb8e46b	0.005642464
130	0x3c7ae58b	0.015313516
131	0xbb047d7d	-0.0020216398
132	0x3ab591c9	0.0013852651
133	0x3c8e3b7b	0.017362347
134	0xbc6c496a	-0.0144218
135	0x3bb11cbd	0.005405037
136	0xbcf32b1b	-0.02968364
137	0x3bacb553	0.005270639
138	0x3cfe4c1c	0.031042151
139	0x3ca47189	0.020073669
140	0x3ca33408	0.019922271
141	0xbce42f10	-0.027854472
142	0xbc7c883f	-0.015413343
143	0x3d0af79a	0.033927538
144	0xbc17d597	-0.009267232
145	0xbcf23233	-0.029564952
146	0x3c2f412d	0.010696691
147	0xbc766493	-0.015038627
148	0xbcbfd994	-0.023419179
149	0xbd00420a	-0.03131298
150	0x3ae55294	0.0017495924
151	0xbbf701b1	-0.0075380434
152	0x3c2b8916	0.010469696
153	0x3bec2b78	0.0072073303
154	0x3d03c01b	0.032165628
155	0x3d1e2460	0.03860891
156	0x3cc30a1a	0.023808528
157	0x3c8711e0	0.016488016
158	0xbb2615e2	-0.0025342633
159	0x3bb510e1	0.0055256938
160	0xb902344a	-0.00012417245
161	0x3c34e282	0.011040332
162	0xbc9564e2	-0.018236581
163	0x3b944f53	0.0045260577
164	0xb92376ae	-0.00015589103
165	0xbcefad6c	-0.029257499
166	0xbb97480b	-0.0046167425
167	0xbc8ada26	-0.016949724
168	0xbb1d3ad3	-0.002399136
169	0xb8cc9e42	-9.756956e-05
170	0x3bf9024a	0.00759915
171	0xbc85afd3	-0.016319191
172	0xbcfabb01	-0.030606749
173	0xbc8391b5	-0.01606069
174	0x3c1d8e4c	0.009616446
175	0xbca756da	-0.020427156
176	0x3baf07b2	0.0053414935
177	0xbc8236f9	-0.015895354
178	0x3bd82d95	0.0065972307
179	0xbb8a6ffc	-0.0042247754
180	0x3c37c0cd	0.011215401
181	0xbcc756d4	-0.024333395
182	0xbc5b7216	-0.013393899
183	0x3d05be05	0.03265192
184	0xbc14e362	-0.009087415
185	0x3b2586b0	0.0025257282
186	0xbc0685ef	-0.008210643
187	0x3b9ccb45	0.004784974
188	0xbb44f470	-0.0030052923
189	0xbc5cda71	-0.013479815
190	0xbcd0651c	-0.025438838
191	0x3ce3343e	0.027734872
192	0x3bf8aad5	0.007588724
193	0xbc1e0067	-0.009643651
194	0x3bce70b9	0.0063000587
195	0xbc4c0984	-0.012453441
196	0xbd123b81	-0.03570128
197	0xbc900afa	-0.017583359
198	0x3b5a1197	0.0033274645
199	0x399211d3	0.0002786057
200	0x3c94ea1f	0.018178044
201	0x3cee8f18	0.029120967
202	0xbc9184ee	-0.017763581
203	0x3c667afc	0.014067408
204	0xbcba2901	-0.02272463
205	0xbc28e822	-0.010309251
206	0xbd2ac990	-0.04169613
207	0x3b863500	0.0040956736
208	0xbbc090f9	-0.005876657
209	0xbc5c45f8	-0.013444416
210	0xbc9d08a7	-0.019169165
211	0xbce5c8e7	-0.0280499
212	0x3c2e35ac	0.010632914
213	0xbd004251	-0.031313244
214	0xbceec4da	-0.0291466
215	0xbca83872	-0.020534728
216	0x3c798792	0.015230076
217	0x3cbf6dbe	0.023367759
218	0x3cb5c7b7	0.022189958
219	0xbb16c5ba	-0.0023006038
220	0x3d40eb22	0.04709924
221	0x3c4e3b37	0.01258736
222	0xbcc10d42	-0.023565892
223	0xbcb9a8d8	-0.022663519
224	0xbca999f7	-0.020703299
225	0xbcc84b64	-0.024450012
226	0x3c213a09	0.009840497
227	0xbce3a1b5	-0.027787069
228	0x3d11de5c	0.03561245
229	0xbb985b3c	-0.004649548
230	0xbcc4bc2f	-0.024015514
231	0x3c67cd3e	0.014148055
232	0xb854226f	-5.0576808e-05
233	0xbcd0a0d2	-0.02546731
234	0xbb7c27ac	-0.0038475795
235	0xbd479a17	-0.048730936
236	0xbbc7de4a	-0.006099497
237	0x3cc5fbe2	0.024167959
238	0xbc385d75	-0.011252751
239	0x3c50c026	0.012741124
240	0x3ceb9c55	0.028761068
241	0xbb5a93de	-0.0033352296
242	0xba007c4a	-0.0004901333
243	0x3be81556	0.0070826216
244	0x3d17a8e5	0.037026305
245	0xbd40a9ee	-0.047037058
246	0xbcb6dd27	-0.02232225
247	0x3d0a2ab0	0.033732116
248	0xbc08f5ad	-0.008359355
249	0x3c4eb3cf	0.012616112
250	0xbce1312a	-0.027489264
251	0xb6e168b2	-6.7177107e-06
252	0x3ca2844d	0.019838477
253	0x3d352ffd	0.04423522
254	0x3b893430	0.0041871294
255	0x3cce53fb	0.02518653

action_model._continuous_distribution.mu.bias f4 [2]
0	0xbbbc2224	-0.0057413746
1	0xb85520a3	-5.0813553e-05

action_model._discrete_distribution.branches.0.weight f4 [1, 128]
0	0x3c315b58	0.010825001
1	0x3b028984	0.0019918391
2	0x3b8308e7	0.003998864
3	0x3c329f1b	0.0109021915
4	0x3abc2303	0.0014353696
5	0xbc244a2f	-0.010027452
6	0xbb5ec832	-0.0033993837
7	0x3c6ecfb0	0.014575884
8	0xbc9a0cd9	-0.018804954
9	0x3bb31e9a	0.0054662945
10	0xbbf1dbaa	-0.0073809223
11	0x3c2ca71d	0.01053789
12	0x3c801f14	0.01563982
13	0x3c7aa1f3	0.015297401
14	0x3bdd5a4a	0.006755148
15	0x3c5868df	0.013208597
16	0xbbeae733	-0.0071686744
17	0xbb934a76	-0.0044949604
18	0x3b540ba2	0.0032355567
19	0x3b1229ba	0.0022302703
20	0xbbba44a1	-0.0056844507
21	0xbc21db9d	-0.00987902
22	0xbb690005	-0.003555299
23	0xbb66456d	-0.0035136596
24	0xb9318af0	-0.00016931794
25	0x3b513877	0.0031924525
26	0xbc19b8d9	-0.00938245
27	0x3b0df2e5	0.002165967
28	0x3b20d495	0.0024540771
29	0x3c30a25f	0.0107809
30	0xbc099312	-0.008396881
31	0x3c395a33	0.011313009
32	0x3cc49cc2	0.02400053
33	0x3b837c50	0.004012622
34	0xb9d19ed7	-0.0003998193
35	0x3c032aff	0.008005857
36	0x3c0596e8	0.008153655
37	0xbb4e0717	-0.0031437331
38	0xb9c5a197	-0.00037695162
39	0xbc1fad3e	-0.009745894
40	0xb9d0b50a	-0.00039807736
41	0xbb031047	-0.0019998716
42	0x3b51a518	0.0031989273
43	0x3aae7820	0.0013310947
44	0x3c4892ab	0.012242
45	0x3c18465c	0.009294119
46	0x38fba56a	0.000119994234
47	0x3c46e5af	0.012139722
48	0xbc94556b	-0.018107137
49	0x3c0571ea	0.008144835
50	0x3b225e5d	0.0024775483
51	0x3a9779df	0.0011556706
52	0x3b3beb78	0.0028674286
53	0xbbd1c140	-0.006401211
54	0xbc940610	-0.018069297
55	0x3ba919b2	0.005160534
56	0x3c673a80	0.014113069
57	0xba9694d0	-0.0011488441
58	0x3a9f898d	0.0012171731
59	0xbbab0bf9	-0.005219933
60	0xbc8a0dcd	-0.016852284
61	0x3c8a5c27	0.016889645
62	0x3a8371da	0.0010028437
63	0xbc08d3ce	-0.008351279
64	0xbc1c1080	-0.009525418
65	0xbc0a1ed3	-0.008430201
66	0x3cb73bdf	0.022367416
67	0x3be34fbf	0.0069369967
68	0xbc358ae3	-0.011080476
69	0xbc020efd	-0.007938144
70	0x3c4ea285	0.01261199
71	0x3bb5660b	0.005535846
72	0x3b4facd2	0.0031688702
73	0xbc07cd61	-0.008288712
74	0x3a3f9692	0.00073085085
75	0x3a1878cf	0.0005816342
76	0x3b878d60	0.0041367263
77	0x3bb909a8	0.005646903
78	0xbc99085c	-0.018680744
79	0x3b902417	0.0043988335
80	0x3b22a9d7	0.002482047
81	0x39ccae8a	0.00039039954
82	0x3c073eaf	0.008254691
83	0x3bf8cbe5	0.0075926655
84	0xbc96bd1a	-0.018400718
85	0xbbd6bc0f	-0.00655318
86	0xbb986884	-0.004651131
87	0xbc1edf13	-0.00969674
88	0x3c874d1f	0.016516266
89	0x3b96f3e0	0.004606709
90	0x3c88ab27	0.016683174
91	0xbb9229bb	-0.004460541
92	0xba83e927	-0.0010063992
93	0xba62e475	-0.00086552586
94	0x3baf27a8	0.0053453036
95	0xbc06be15	-0.00822403
96	0xbbb75b07	-0.005595568
97	0x3b50034b	0.0031740244
98	0x3baca5df	0.005268797
99	0x3bba2e9b	0.0056818253
100	0x3c60303b	0.013683374
101	0x3c4051e6	0.011738276
102	0x3c6f62fa	0.014611
103	0x3b7f44db	0.0038950953
104	0x3bae35c6	0.005316469
105	0xb9cb5983	-0.0003878587
106	0xbbb876d3	-0.0056293993
107	0x3c89e6bb	0.016833654
108	0x3b9df7bf	0.0048207934
109	0xba42b42a	-0.0007427359
110	0x3c11d1c7	0.0089001125
111	0x3ae94797	0.0017797825
112	0xbc1ba068	-0.009498693
113	0x3ac78f51	0.0015225207
114	0x3975f7ca	0.0002345733
115	0xbb882cf4	-0.0041557495
116	0x39961511	0.00028625925
117	0x39f0d7ed	0.00045937244
118	0xbc552c0d	-0.013010991
119	0xbae333aa	-0.0017334123
120	0xbc7df513	-0.015500325
121	0xbbd3299b	-0.0064441687
122	0x3abba220	0.0014315285
123	0xba2a1872	-0.0006488628
124	0xbb42f185	-0.0029746008
125	0x3a75a4cb	0.00093705644
126	0xb9761aca	-0.00023470368
127	0xbbe073ad	-0.006849727
