Assets/Objects/Brains/DumbBrainV2.onnx (onnx, 252010 bytes, 8 tensors)

network_body._body_endoder.seq_layers.0.weight f4 [128, 345]
-0.08791904 0.11624983 -0.05478327 -0.048640117 0.07767943 0.035633136 0.15494098 -0.029876675
-0.026442952 0.040528107 0.08442236 0.05516202 0.07826684 0.00018208366 -0.011386075 0.0059431125
0.047133733 0.023637446 -0.12982696 0.036736593 0.015884819 0.03843095 -0.021936877 -0.043028433
0.029406887 -0.0061390726 -0.02310492 -0.045539837 0.06937597 0.015529767 -0.034636665 0.076772146
0.0770772 0.09943079 0.0034675295 -0.06813687 -0.03791943 0.03832432 -0.037709124 -0.0010133173
-0.0228026 -0.020624164 -0.015332919 -0.05056734 0.003829453 -0.14882743 0.012525518 -0.038837634
0.06190516 0.042270143 0.14848572 0.061682418 -0.028216695 0.032860104 0.053122666 0.018423846
-0.043157518 0.061734244 -0.020156445 -0.020119946 -0.13220671 -0.056303583 0.018617205 0.041830834
0.033827666 -0.024054142 -0.05970105 0.033810057 -0.09933161 0.015965184 -0.030373525 -0.037554793
-0.066029996 -0.13960919 -0.029426632 0.07563982 -0.029296244 0.031162454 0.034887157 -0.04274221
-0.021434804 0.061681997 -0.049378075 -0.065195166 -0.013273497 -0.06996274 0.11938744 0.08124489
-0.0150108095 -0.037318252 0.027751971 -0.006092975 0.077173375 -0.0026390709 0.0421199 -0.013929197
-0.10195364 -0.041376736 0.01121158 0.05658426 0.04512371 -0.074612044 -0.123244636 0.04819781
0.030122763 -0.02646025 -0.02956604 0.023926182 0.066422 -0.06249134 -0.05274807 -0.07446979
-0.062451676 0.08759171 -0.06019995 -0.084163 -0.041821018 -0.028129218 0.09584754 0.02313782
0.018306717 -0.06846478 0.066333674 -0.005500989 0.01573193 0.061662044 -0.016202154 0.016564572
-0.07923879 -0.043155603 0.06495307 0.08185459 -0.091752775 -0.05977655 -0.06829735 -0.029200332
0.030857643 -0.0399874 0.05879133 0.0013432417 -0.00047854567 -0.008135893 0.0019158389 0.046753913
-0.044275925 -0.07919841 0.02023859 -0.0064095273 -0.00048805604 0.011099249 -0.105540365 0.01819564
-0.04238455 -0.053398587 0.014512361 -0.097101934 0.07995871 0.019132277 -0.042069703 -0.047173265
-0.082605295 -0.043410856 0.08484993 0.07274547 0.04729927 0.015420641 0.030274043 0.019567447
0.056409158 -0.038277995 -0.025732584 -0.10693744 -0.027102709 0.026271483 -0.03612485 -0.009152049
-0.025678398 -0.021500656 0.05367869 -0.007052737 -0.10179895 -0.027794028 -0.021990567 0.026927352
0.082890816 0.049640972 0.032297418 -0.112022586 -0.08091838 -0.038017605 0.0035591517 -0.0454828
-0.0707992 -0.026347194 -0.063448645 -0.021654587 0.05931316 -0.008396416 -0.09661186 -0.07311372
-0.0062270374 0.044501357 -0.039237805 0.011165935 0.022811402 0.01053427 0.07903363 -0.05226236
-0.08167176 0.02019951 0.014094812 0.086340055 -0.0356485 0.08642753 -0.04075481 -0.13217583
-0.017666329 0.0027386306 -0.06277682 -0.116182365 0.04488524 0.011570112 0.006620541 0.0513652
0.08294678 -0.09993611 0.018234875 -0.011304487 -0.020147974 -0.004388606 0.075927325 0.08864601
-0.05796896 -0.13614124 -0.11983761 -0.05490393 -0.006485694 -0.0066469726 0.034442652 -0.076175995
-0.05153339 0.009765014 0.13732138 0.0069858395 0.026633715 -0.06273854 0.042460915 0.020422837
-0.05301429 0.04739362 0.09265997 -0.09907269 0.0029652661 0.11084066 0.0034113084 0.015577742
00000000: e60e b4bd 6414 ee3d 6c64 60bd dc3a 47bd
00000010: 6516 9f3d 0df4 113d d9a8 1e3e eebf f4bc
00000020: e49e d8bc cd00 263d a1e5 ac3d 92f1 613d
00000030: 5d4a a03d b6ed 3e39 a98c 3abc 71be c23b
00000040: 4d0f 413d 51a3 c13c 5cf1 04be 1c79 163d
00000050: e120 823c c669 1d3d f7b4 b3bc 953e 30bd
00000060: b6e6 f03c 462a c9bb 8746 bdbc fb87 3abd
00000070: fd14 8e3d 9070 7e3c 2ddf 0dbd b73a 9d3d
00000080: a7da 9d3d 5fa2 cb3d 7e3f 633b 588b 8bbd
00000090: 6751 1bbd f6f9 1c3d e274 1abd 49d1 84ba
000000a0: 85cc babc 02f4 a8bc ec36 7bbc b31f 4fbd
000000b0: 8ff7 7a3b 3866 18be d537 4d3c 3614 1fbd
000000c0: 4490 7d3d 7523 2d3d a40c 183e b4a6 7c3d
000000d0: b326 e7bc 5198 063d 2797 593d 9bed 963c
000000e0: f0c5 30bd 0cdd 7c3d 211f a5bc 96d2 a4bc
000000f0: 3261 07be 969e 66bd 1c83 983c cf56 2b3d
00000100: e18e 0a3d 310d c5bc 1789 74bd 6a7c 0a3d
00000110: 5f6e cbbd 6bc9 823c e6d1 f8bc 0ed3 19bd
00000120: bc3a 87bd b6f5 0ebe 1f10 f1bc 0de9 9a3d
00000130: adfe efbc 6748 ff3c d6e5 0e3d 7512 2fbd
00000140: 0b98 afbc 43a6 7c3d aa40 4abd 0b85 85bd
00000150: 1579 59bc a048 8fbd 6781 f43d b963 a63d
00000160: e6ef 75bc 06db 18bd 1a58 e33c 94a7 c7bb
00000170: 130d 9e3d 43f4 2cbb eb85 2c3d 4937 64bc
00000180: 12cd d0bd a77a 29bd c6b0 373c e6c4 673d
00000190: a4d3 383d 33ce 98bd af67 fcbd 116b 453d
000001a0: 03c4 f63c 2bc3 d8bc 7b34 f2bc d700 c43c
000001b0: 4208 883d ebf6 7fbd 5c0e 58bd 9e83 98bd
000001c0: 54cd 7fbd 4863 b33d 3994 76bd a75d acbd
000001d0: 844c 2bbd 3f6f e6bc b74b c43d 878b bd3c
000001e0: f8f7 953c 4337 8cbd f3d9 873d a441 b4bb
000001f0: 40e0 803c 5791 7c3d 61ba 84bc 6db2 873c
00000200: f247 a2bd eec3 30bd 1d06 853d 61a3 a73d
00000210: e1e8 bbbd 41d8 74bd 7bdf 8bbd 8935 efbc
00000220: 2bc9 fc3c d4c9 23bd 2dcf 703d b60f b03a
00000230: 50e5 fab9 694c 05bc e31c fb3a 0881 3f3d
00000240: ac5a 35bd c732 a2bd 66cb a53c 0307 d2bb
00000250: c6e1 ffb9 a0d9 353c 8c25 d8bd 060f 953c
00000260: 6c9b 2dbd 7ab8 5abd 41c5 6d3c 61dd c6bd
00000270: 64c1 a33d 4bbb 9c3c 4851 2cbd c138 41bd
00000280: f72c a9bd 95cf 31bd cdc5 ad3d 94fb 943d
00000290: e1bc 413d dba6 7c3c 4501 f83c e94b a03c
000002a0: 4a0d 673d 63c9 1cbd 24cd d2bc 0402 dbbd
000002b0: 8006 debc 4b37 d73c a7f7 13bd 7af2 15bc
000002c0: 815b d2bc 2522 b0bc 30de 5b3d a51a e7bb
000002d0: f87b d0bd 4db0 e3bc 9025 b4bc c096 dc3c
000002e0: a9c2 a93d 5554 4b3d 4c4a 043d 196c e5bd
000002f0: 89b8 a5bd 59b8 1bbd a840 693b 2c4c 3abd
00000300: 2cff 90bd 12d6 d7bc 5df1 81bd f664 b1bc
00000310: 5bf2 723d 1f91 09bc 70dc c5bd a5bc 95bd
00000320: 2d0c ccbb 0e47 363d d2b7 20bd 53f1 363c
00000330: fade ba3c ee97 2c3c 62dc a13d 0e11 56bd
00000340: 8643 a7bd 7179 a53c eded 663c 0ed3 b03d
00000350: 2904 12bd eb00 b13d 84ee 26bd 1a59 07be
00000360: fab8 90bc 997a 333b 2291 80bd 05f1 edbd
00000370: 96d9 373d 9190 3d3c 20f1 d83b 5164 523d
00000380: 00e0 a93d 4eab ccbd 4e61 953c 7436 39bc
00000390: 5d0d a5bc 4cce 8fbb c97f 9b3d 0a8c b53d
000003a0: dc70 6dbd 9c68 0bbe 6c6d f5bd f1e2 60bd
000003b0: f285 d4bb d9ce d9bb bd13 0d3d 2902 9cbd
000003c0: ad14 53bd 70fd 1f3c fa9d 0c3e 78e9 e43b
000003d0: f32e da3c 107d 80bd 7feb 2d3d cb4d a73c
000003e0: 8325 59bd d01f 423d 83c4 bd3d 9fe6 cabd
000003f0: e954 423b 6e00 e33d 4290 5f3b c939 7f3c

network_body._body_endoder.seq_layers.0.bias f4 [128]
-0.0043587903 0.006867548 0.005064999 -0.001022954 0.0020939002 0.0036927795 -0.005560676 0.0035718156
0.0029057853 0.0066381968 0.004599965 0.00054807024 0.0052426877 -0.0073316433 0.00078514114 0.008979401
-2.9614936e-05 -0.006024403 0.005119094 -0.0065212473 -0.005566684 0.0011962542 -0.0023199287 -0.004474878
0.00745673 0.008224426 -0.005936901 -0.004329613 0.0044773407 0.005255697 0.0032974095 0.004970048
-0.007326456 0.005847827 0.0031006264 0.008303314 -0.003253051 0.006875455 0.004753676 0.0028268904
0.0027138581 0.014214655 0.007150359 0.003387757 0.004644292 -0.0049307374 -0.0034973947 -0.002559967
0.0042275875 0.0026885958 -0.006884298 0.0056747408 0.008208345 0.005069782 -0.0010830059 -0.0024420873
-0.0021480112 0.0074601476 0.0071023954 -0.0049054394 -0.004463976 -0.005445676 0.0044756313 -0.0045829597
0.0064088153 0.0055207917 -0.0032808639 -0.0044870167 0.0063103605 0.0033319634 0.0064930343 -0.0061305095
0.0068307114 0.0013942531 -0.0056923027 -0.009538105 0.0026801797 -0.0023300233 0.0025275247 0.0066622323
-0.0013646835 -0.0021667243 0.003726184 0.0012401437 0.005596599 0.0074082264 0.0041381144 0.0007457878
0.0019094498 -0.007913225 -0.0023314643 0.0015211805 -0.00010208104 -0.0051250285 0.003987353 -0.0032996936
0.007927897 0.007292995 0.0033453843 0.0018282799 0.002150088 0.0075010946 0.008198904 -0.0030778383
-0.0006295229 -0.0034650755 -0.0017501595 -0.002598808 0.002786947 0.0024094803 -0.0034848975 0.005706651
-0.0023544421 -0.0003944433 0.005102973 0.006442081 -0.008522691 0.0041273055 -0.005042032 0.0015233996
0.00492227 0.007977918 0.008693439 0.0020122658 0.0050225 -0.0011917105 0.0027222228 -0.0019830735
00000000: 2fd4 8ebb 2b09 e13b 4bf8 a53b a414 86ba
00000010: d139 093b 8f02 723b 5536 b6bb 1f15 6a3b
00000020: fd6e 3e3b 3b85 d93b 4ebb 963b 5fac 0f3a
00000030: daca ab3b 483e f0bb eed1 4d3a 561e 133c
00000040: 976d f8b7 5b68 c5bb 13be a73b 30b0 d5bb
00000050: bb68 b6bb a1cb 9c3a f209 18bb ffa1 92bb
00000060: 9657 f43b bebf 063c 568a c2bb 6ddf 8dbb
00000070: a8b6 923b fb37 ac3b 5a19 583b c9db a23b
00000080: c412 f0bb 219f bf3b e133 4b3b a00a 083c
00000090: 2431 55bb 7f4b e13b b9c4 9b3b 5a43 393b
000000a0: fcda 313b 96e4 683c 8f4d ea3b 2205 5e3b
000000b0: 252f 983b 0692 a1bb 8c34 65bb 1fc5 27bb
000000c0: 9387 8a3b 2733 303b ad95 e1bb 2df3 b93b
000000d0: 4b7c 063c 6a20 a63b a6f3 8dba 6d0b 20bb
000000e0: a6c5 0cbb 4174 f43b 36bb e83b cfbd a0bb
000000f0: 8b46 92bb a471 b2bb 51a8 923b a72c 96bb
00000100: 0a01 d23b c2e7 b43b c303 57bb d307 93bb
00000110: 24c7 ce3b 125d 5a3b 85c3 d43b 71e2 c8bb
00000120: 29d4 df3b 5fbf b63a 7f86 babb b645 1cbc
00000130: f4a5 2f3b 4eb3 18bb d4a4 253b db4e da3b
00000140: 2edf b2ba 9aff 0dbb fe32 743b 518c a23a
00000150: ad63 b73b b5c0 f23b 0599 873b f980 433a
00000160: 8146 fa3a 79a6 01bc 7bcb 18bb 5962 c73a
00000170: 5714 d6b8 dbef a7bb 57a8 823b ac3f 58bb
00000180: 03e4 013c 14fa ee3b 3c3e 5b3b e5a2 ef3a
00000190: 7ee8 0c3b becb f53b b254 063c 8fb5 49bb
000001a0: 9106 25ba 5216 63bb 9c65 e5ba c350 2abb
000001b0: 36a5 363b 5fe8 1d3b e162 64bb dcfe ba3b
000001c0: fc4c 1abb 49cd ceb9 d736 a73b 1818 d33b
000001d0: c2a2 0bbc 593e 873b a137 a5bb cfac c73a
000001e0: fe4a a13b d0b5 023c ed6e 0e3c 38e0 033b
000001f0: c993 a43b 2b33 9cba 5267 323b 74f6 01bb

network_body._body_endoder.seq_layers.2.weight f4 [128, 128]
0.09656831 0.1630389 -0.07358868 0.06863237 0.045802258 -0.06001339 -0.020990249 -0.0359844
-0.071255475 -0.11012268 0.035555273 0.0078109526 -0.09350544 0.1995545 0.09033018 0.061770182
-0.114371754 -0.06501221 0.024857327 -0.09577903 0.016849939 -0.061953116 0.19152857 0.06461513
-0.02588059 -0.13134477 0.03824734 -0.11488468 -0.059627723 -0.08737906 0.12345317 -0.06225527
-0.040383957 -0.019787623 -0.0004452197 -0.08574719 0.008366013 -0.033432774 0.0010879517 0.0056441682
0.025673391 -0.010375035 0.022734083 -0.06759592 0.09456127 0.066825785 0.062397733 0.09245705
0.19638139 -0.12999289 -0.03342989 0.0024031622 -0.1254215 0.021402853 -0.068267785 -0.07677664
0.05034083 -0.079695635 0.04678777 -0.16849779 0.015849361 -0.14057395 -0.016133497 0.1009906
0.1331442 -0.016829344 -0.16466299 -0.040878493 -0.01882944 0.044218205 -0.13570426 0.083942495
0.1508206 -0.06855303 0.1915224 -0.12590116 0.1350799 0.010241987 -0.04015164 -0.07650395
0.067153975 -0.024290236 -0.1654611 0.08731168 -0.0025805817 -0.052771304 -0.026557228 0.045201067
-0.1081123 0.04594034 -0.121006936 -0.04697479 -0.24749902 -0.0118017495 0.039616704 0.056954537
0.025260607 -0.050894946 0.11007297 -0.000875535 0.045572374 -0.13052183 -0.06498207 -0.09144664
0.03181561 -0.018149685 0.04677141 -0.0628754 -0.042435944 -0.11279686 -0.022245275 0.017334772
0.083493054 -0.105591774 0.027199673 -0.04977644 0.08329387 0.10431832 0.04691558 0.052999537
0.07059338 0.08815106 0.009852326 -0.057325177 0.16239089 0.13167456 -0.11816353 0.039121825
0.029229306 0.03642877 0.10396369 0.0786534 0.043472245 -0.08594077 -0.040161427 -0.0050041396
-0.13171773 0.05607333 -0.05083433 -0.008176094 0.17594387 0.2271348 0.04027573 0.023363855
-0.013914553 0.013392144 0.13404939 -0.075826615 0.031404205 -0.10482837 -0.10397297 0.112427846
0.14210248 0.02853411 0.016406873 -0.034367364 -0.1386361 -0.06047437 0.11723794 0.04744414
0.012286832 -0.15500472 -0.076104015 0.04810411 0.0019746975 -0.045652572 0.08184285 0.085777774
-0.025827719 0.13110454 0.05031931 0.10917658 0.1725425 -0.040177234 -0.12779742 0.100965954
-0.031368725 0.022266228 -0.00010985279 0.113878846 -0.0015595043 -0.050516516 0.13318127 0.14985946
-0.14298646 -0.07162653 -0.08434135 0.12155005 -0.01670876 -0.03169823 -0.014538463 -0.04293014
-0.053681806 -0.011282443 -0.08667332 0.017790379 0.027281852 -0.111539744 0.06858884 -0.014269869
0.11546361 -0.0792133 0.08670126 -0.046244975 0.12321172 -0.0910374 -0.030107625 0.0055181016
0.014869551 -0.06007899 -0.014296146 -0.042922284 0.12293021 0.051760405 0.014923073 -0.116449594
-0.0938937 -0.014779899 0.053799544 0.07146092 0.17581743 0.07441713 0.11742398 0.11110887
-0.04639639 0.030078584 -0.11012185 -0.008724541 -0.061563816 -0.007750532 0.037657637 0.032578938
0.0073282323 0.053653244 0.003180751 -0.0544405 -0.15278164 -0.21998456 -0.005258949 0.030486977
-0.058015786 -0.06063727 0.068068475 0.061731547 0.0074452856 0.08584046 -0.09230313 0.019256396
0.124469675 -0.16346025 0.03794 -0.013164946 -0.09201482 -0.004515803 -0.11304469 -0.13494378
00000000: 9bc5 c53d abf3 263e a9b5 96bd 218f 8c3d
00000010: 269b 3b3d 9ad0 75bd bef3 abbc 6164 13bd
00000020: 64ee 91bd 0088 e1bd 68a2 113d 05f3 ff3b
00000030: c87f bfbd 0458 4c3e 08ff b83d bb02 7d3d
00000040: bd3b eabd 1f25 85bd 98a1 cb3c cc27 c4bd
00000050: e208 8a3c 8dc2 7dbd 1120 443e f054 843d
00000060: 8803 d4bc 3e7f 06be 3ea9 1c3d a948 ebbd
00000070: 333c 74bd cbf3 b2bd 04d5 fc3d 62ff 7ebd
00000080: a669 25bd a719 a2bc 606c e9b9 399c afbd
00000090: 9a11 093c cef0 08bd 9a99 8e3a b7f2 b83b
000000a0: 0151 d23c 0dfc 29bc d43c ba3c bb6f 8abd
000000b0: 57a9 c13d f5db 883d c494 7f3d 1f5a bd3d
000000c0: 3418 493e db1c 05be c8ed 08bd 5f7e 1d3b
000000d0: 7e6e 00be 0955 af3c fbcf 8bbd 123d 9dbd
000000e0: 3032 4e3d 7737 a3bd 88a4 3f3d af8a 2cbe
000000f0: 85d6 813c 9ef2 0fbe 652a 84bc 29d4 ce3d
00000100: f456 083e b1dd 89bc 6a9d 28be 3570 27bd
00000110: 3340 9abc 261e 353d 0ff6 0abe 0bea ab3d
00000120: b770 1a3e 8865 8cbd 731e 443e 3cec 00be
00000130: 6352 0a3e 02ce 273c 0c76 24bd 1aae 9cbd
00000140: 0688 893d 51fc c6bc a26e 29be 77d0 b23d
00000150: fa1e 29bb b926 58bd 8b8e d9bc c124 393d
00000160: fb69 ddbd f02b 3c3d 7cd2 f7bd a368 40bd
00000170: 6270 7dbe 205c 41bc 2045 223d 2949 693d
00000180: 55ef ce3c 3877 50bd f06d e13d 2984 65ba
00000190: 19aa 3a3d 84a7 05be 5215 85bd 6048 bbbd
000001a0: 1651 023d a6ae 94bc 6193 3f3d d1c4 80bd
000001b0: 50d1 2dbd 0a02 e7bd b93b b6bc a701 8e3c
000001c0: 68fe aa3d 8040 d8bd d9d1 de3c 61e2 4bbd
000001d0: fa95 aa3d d8a4 d53d 8d2a 403d 0b16 593d
000001e0: 4393 903d 8b88 b43d a66b 213c cecd 6abd
000001f0: cc49 263e b2d5 063e b9ff f1bd 353e 203d
00000200: 4c72 ef3c 5536 153d eaea d43d 0915 a13d
00000210: f40f 323d b701 b0bd 4f80 24bd c4f9 a3bb
00000220: 03e1 06be 26ad 653d a937 50bd 06f5 05bc
00000230: a12a 343e 0696 683e 2af8 243d 8e65 bf3c
00000240: def9 63bc b96a 5b3c 3e44 093e fc4a 9bbd
00000250: b2a1 003d 42b0 d6bd c8ef d4bd 9240 e63d
00000260: 5083 113e 5ec0 e93c b567 863c cbc4 0cbd
00000270: 9ff6 0dbe f9b3 77bd 721a f03d c954 423d
00000280: b54e 493c 8fb9 1ebe 6cdc 9bbd d108 453d
00000290: ed69 013b 31fe 3abd 399d a73d 42ac af3d
000002a0: a794 d3bc 4540 063e 9f1b 4e3d f997 df3d
000002b0: fbae 303e e290 24bd 54dd 02be 3dc7 ce3d
000002c0: 7e7c 00bd aa67 b63c c460 e6b8 5039 e93d
000002d0: 4868 ccba 68ea 4ebd ac60 083e c274 193e
000002e0: 0b6b 12be eeb0 92bd 28bb acbd 3cef f83d
000002f0: cfe0 88bc 01d6 01bd bc32 6ebc 84d7 2fbd
00000300: 74e1 5bbd ffd9 38bc c881 b1bd 21bd 913c
00000310: 317e df3c f36e e4bd 4e78 8c3d 2bcc 69bc
00000320: 2f78 ec3d 953a a2bd 6e90 b13d 5f6b 3dbd
00000330: 6d56 fc3d d171 babd 44a4 f6bc 31d1 b43b
00000340: 6b9f 733c 6315 76bd 623a 6abc 47cf 2fbd
00000350: d5c2 fb3d b802 543d e87f 743c 207d eebd
00000360: 574b c0bd 6427 72bc e95c 5c3d 1a5a 923d
00000370: 7c09 343e 0268 983d fc7b f03d 0c8d e33d
00000380: 240a 3ebd 5d67 f63c 9187 e1bd 61f1 0ebc
00000390: 572a 7cbd 2df8 fdbb e53e 1a3d 7e71 053d
000003a0: ab21 f03b 81c3 5b3d 2674 503b 00fd 5ebd
000003b0: ca72 1cbe a243 61be 4353 acbb d3bf f93c
000003c0: f6a1 6dbd c95e 78bd 7c67 8b3d 38da 7c3d
000003d0: 95f7 f33b 20cd af3d 6c09 bdbd 97bf 9d3c
000003e0: f5e9 fe3d 2062 27be f966 1b3d c9b1 57bc
000003f0: 4472 bcbd 4df9 93bb f983 e7bd b42e 0abe

network_body._body_endoder.seq_layers.2.bias f4 [128]
-0.0056850826 -0.0071259043 -0.0060635083 0.0023004992 0.0066372533 -0.000961852 0.007553742 -0.0010187235
-0.0017930269 -0.005419681 0.010374979 0.008912915 0.0055369823 0.0072388356 0.0070034624 -0.0032156594
0.008518075 0.0007166131 -0.0067776646 0.0016210906 0.010192981 8.5841864e-05 -0.00618241 -0.005664308
-0.0011107253 0.0011070666 -0.007662588 0.008820099 -0.003925372 -0.0053204335 0.003243066 0.0069696372
-0.003877374 -0.00530631 0.007976578 0.0006545764 -0.006277227 0.0034471904 0.005164521 0.0066953604
-0.004298734 0.0013782699 -0.00040036396 0.0039428165 0.0033196828 -0.0034044697 0.0071209646 -0.007781236
0.0026882445 -0.0019789427 0.0031277395 0.0074933157 0.004689072 0.00031155781 -0.00456276 -0.0037748974
-0.0040848837 0.006025885 0.0076731388 -0.000134505 0.006962503 -0.0014212719 -0.00445936 0.001506669
0.003884152 0.0031926064 -0.00044712189 -0.0058475262 -0.0064621535 0.0069857263 0.008093557 0.006832686
-0.006027701 0.004246477 -0.006068638 0.0073820576 0.0050507938 -0.0015279324 0.0028657333 -0.0051391823
0.0051363762 0.0066793766 0.0072267624 0.0071045957 0.0037693114 0.0076694144 0.00022725252 0.0077799433
0.006645734 -0.0070505333 0.0075887144 0.0057862625 0.0075650187 -0.004490177 0.006880719 -0.00052332337
-0.0036397758 0.0010140258 -0.006128551 0.0011627821 -0.0035386719 -0.0020097203 0.0054118824 -0.007391313
-0.0046014567 -0.0031980057 0.0067777126 0.00412436 -0.00663212 -0.0036115297 -0.006068 -0.0064067384
0.0042318823 -0.0011858732 -0.002907646 0.0022611215 0.004865962 0.0007650912 0.0011717922 0.00035442435
0.007040055 0.008239919 0.0020376893 -0.0080149975 -0.0048888368 0.0043988735 0.0068286345 -0.005204113
00000000: ee49 babb 6b80 e9bb 65b0 c6bb f9c3 163b
00000010: 517d d93b cc24 7cba 6185 f73b b086 85ba
00000020: 0004 ebba 9497 b1bb d1fb 293c 7a07 123c
00000030: 936f b53b c133 ed3b 4d7d e53b d0bd 52bb
00000040: 658f 0b3c 17db 3b3a 2c17 debb c67a d43a
00000050: 7600 273c 0006 b438 d095 cabb a99b b9bb
00000060: c295 91ba fe1a 913a 7216 fbbb 2d82 103c
00000070: 68a0 80bb 0857 aebb 9e89 543b 8e61 e43b
00000080: 8b1b 7ebb 8ee0 adbb 31b0 023c e197 2b3a
00000090: 32b1 cdbb 42ea 613b 243b a93b c164 db3b
000000a0: 65dc 8cbb 10a7 b43a f1e7 d1b9 be32 813b
000000b0: 098f 593b 861d 5fbb fb56 e93b bdf9 febb
000000c0: 422d 303b 26b1 01bb c3fa 4c3b 7d8a f53b
000000d0: c9a6 993b 9558 a339 3483 95bb 4564 77bb
000000e0: 7dda 85bb ca74 c53b f46e fb3b e909 0db9
000000f0: b525 e43b f949 baba d31f 92bb 6c7b c53a
00000100: 428d 7e3b 0c3b 513b af6b eab9 9b9c bfbb
00000110: 79c0 d3bb 85e8 e43b d79a 043c b9e4 df3b
00000120: 0584 c5bb 0826 8b3b 6ddb c6bb 30e5 f13b
00000130: 2181 a53b e744 c8ba 07cf 3b3b 9666 a8bb
00000140: 0c4f a83b acde da3b 7ace ec3b abcd e83b
00000150: 8d06 773b b64f fb3b a24a 6e39 e5ee fe3b
00000160: 75c4 d93b 2908 e7bb c0aa f83b b09a bd3b
00000170: fae3 f73b 5622 93bb a877 e13b a32f 09ba
00000180: 4e89 6ebb 0fe9 843a 03d2 c8bb 7e68 983a
00000190: 10e9 67bb 83b5 03bb 2956 b13b d432 f2bb
000001a0: d1c7 96bb a295 51bb 9317 de3b a425 873b
000001b0: 4152 d9bb 6aaf 6cbb 13d6 c6bb 9eef d1bb
000001c0: 9aab 8a3b 4d6f 9bba 348e 3ebb 532f 143b
000001d0: a672 9f3b 6790 483a d296 993a 08d2 b939
000001e0: 43b0 e63b ba00 073c c18a 053b 5651 03bc
000001f0: 8932 a0bb 6d24 903b bdc2 df3b 4487 aabb

action_model._continuous_distribution.log_sigma f4 [1, 2]
-0.019506687 -0.017242936
00000000: 7dcc 9fbc 0f41 8dbc

action_model._continuous_distribution.mu.weight f4 [2, 128]
-0.017716087 0.0026323937 -0.034938417 -0.013800479 -0.008541903 -0.008139986 0.02867418 -0.048869856
-0.012765704 -0.032691203 0.03471129 0.024551412 0.01369207 0.027019484 0.01946582 -0.020896355
0.032012694 -0.020016622 -0.017549107 -0.0071249125 0.0058151605 0.009366788 -0.01846821 -0.03654956
-0.02700289 0.00826736 -0.029331865 0.018640768 -0.016836792 -0.042431645 0.006264505 0.020356359
-0.0035689573 -0.00069599185 0.017615778 0.011467743 -0.015008357 0.016734825 0.012415661 0.012087924
-0.007841202 0.009127205 -0.012312347 0.01616428 -0.0051975967 -0.0060977335 0.020285603 -0.014169639
0.02211445 -0.024670077 -0.015292869 0.015535532 -0.0020961524 0.0040417537 -0.013949273 -0.008670745
-0.005256902 0.024684343 0.031756084 0.001602053 0.017463768 -0.009639114 -0.014467867 0.009634984
0.014312989 0.011270145 0.0039107986 -0.031963974 -0.007330641 0.021860102 0.014438378 0.036625292
-0.014284437 0.007290479 -0.017817551 0.027609559 0.015740113 -0.010965493 0.02329235 -0.0334515
0.01799541 0.023831362 0.032837532 0.012894225 0.009845004 0.02446624 -0.013998677 0.03146349
0.012828902 -0.03252094 0.044119924 0.012685597 0.026415078 -0.022175279 0.03911535 -0.009953276
-0.004847007 -0.0028715804 -0.018022755 -0.000106585394 -0.0067183673 -0.039251857 0.030774925 -0.01472446
-0.010705496 -0.03052116 0.03139476 0.0008037735 -0.027237821 -0.0017676585 -0.056790538 -0.03282378
0.0042402185 0.0011615237 -0.03704756 0.013715816 0.011982901 -0.011010081 0.014872557 -0.014351522
0.0018214165 0.031530943 -0.005834831 -0.0054893172 -0.029463194 0.0050362363 0.035771325 -0.026983323
-0.010127367 0.0065537794 0.013773873 -0.025383128 -0.021876102 -0.015311021 0.020711351 -0.04613479
-0.03346486 -0.008677364 -0.0032380195 -0.001470256 0.01753868 0.0120284725 -0.008062406 -0.003163375
-0.0007662966 0.0534329 -0.0025698494 -0.04159071 -0.0045859795 0.03330407 0.009055187 -0.014485855
-0.037378162 0.052421547 -0.0038175236 -0.029784016 -0.017069058 0.014221056 -0.024434343 0.00709966
-0.009726988 0.011645656 0.0029355895 0.015038083 0.0024412794 0.015668407 -0.0079366155 -0.015155157
0.013924773 0.02614949 0.041751157 0.014806483 -0.025322136 -0.008684506 0.014721413 -0.0059823385
0.037417304 -0.028088689 -0.003159728 -0.017854514 -0.017303435 -0.009213602 0.0034060515 -0.0035116097
0.02507273 0.0039695604 -0.030915122 -0.023120005 0.01917178 -0.009267906 -0.004606533 -0.02827169
0.03669011 0.018004222 0.009559551 0.0011523023 0.0064693424 0.006256375 0.0064056357 0.022873702
0.018981928 -0.04302403 0.005507451 -0.012084113 -0.012430726 -0.012845126 0.03163521 -0.021770054
0.0051116426 0.011530587 -0.001962477 -0.029630827 -0.028194591 -0.022104241 -0.00065214885 0.007608304
0.003582534 -0.0063661034 0.02155386 0.023680057 0.009316569 0.022580838 -0.028183816 -0.029708643
0.015792036 0.020302545 -0.015852293 -0.027020156 0.017416835 -0.010807613 -0.031610545 0.005231545
-0.0014214348 -0.04004201 -0.03628428 -0.023365814 -0.011172363 0.016827477 -0.013657735 -0.008669308
0.030629385 0.032489017 -0.03797344 0.01256483 0.005653749 -0.008235658 0.030601062 -0.015959082
-0.009898159 -0.010830108 0.0023952809 0.004917198 -0.01669627 -0.008535118 -0.040097106 0.025936326
00000000: 5421 91bc 3d84 2c3b 961b 0fbd 671b 62bc
00000010: 57f3 0bbc 935d 05bc 1de6 ea3c c22b 48bd
00000020: 3e27 51bc 36e7 05bd 6d2d 0e3d 0b20 c93c
00000030: b454 603c f757 dd3c c976 9f3c d52e abbc
00000040: be1f 033d e6f9 a3bc 25c3 8fbc 1978 e9bb
00000050: 1a8d be3b 2877 193c a54a 97bc feb4 15bd
00000060: 2a35 ddbc d273 073c 6149 f0bc 86b4 983c
00000070: 50ed 89bc cecc 2dbd 7a46 cd3b 61c2 a63c
00000080: 2be5 69bb 3973 36ba f74e 903c 33e3 3b3c
00000090: 9de5 75bc 7917 893c 0e6b 4b3c 6e0c 463c
000000a0: 6378 00bc 468a 153c bab9 49bc f46a 843c
000000b0: 9a50 aabb 7fcf c7bb fe2d a63c c627 68bc
000000c0: 5d29 b53c e718 cabc f18e 7abc be88 7e3c
000000d0: 9a5f 09bb b070 843b 7e8b 64bc be0f 0ebc
000000e0: 1742 acbb d236 ca3c ab12 023d fafb d13a
000000f0: 2d10 8f3c 60ed 1dbc a20a 6dbc 0ddc 1d3c
00000100: 0781 6a3c 6aa6 383c 2826 803b a8ec 02bd
00000110: e035 f0bb f513 b33c f28e 6c3c 6704 163d
00000120: 4509 6abc f8e4 ee3b 1df6 91bc 712d e23c
00000130: 69f1 803c 9ca8 33bc 99cf be3c 7104 09bd
00000140: 1c6b 933c fd39 c33c a680 063d 4d42 533c
00000150: f14c 213c 6d6d c83c b55a 65bc dcdf 003d
00000160: 5130 523c ad34 05bd 18b7 343d 40d7 4f3c
00000170: 6f64 d83c eea8 b5bc 6b37 203d 1113 23bc
00000180: a4d3 9ebb 2031 3cbb 75a4 93bc 9986 dfb8
00000190: c025 dcbb 8ec6 20bd b21b fc3c dd3e 71bc
000001a0: 1b66 2fbc 8307 fabc cb97 003d 54b4 523a
000001b0: da21 dfbc c7b0 e7ba 329d 68bd 3a72 06bd
000001c0: 88f1 8a3b 453e 983a 2fbf 17bd 4db8 603c
000001d0: ee53 443c a063 34bc 06ac 733c a522 6bbc
000001e0: 99bc ee3a 9726 013d 1c32 bfbb bbdf b3bb
000001f0: cc5c f1bc 0307 a53b f484 123d 210c ddbc
00000200: 42ed 25bc 16c1 d63b d0ab 613c 47f0 cfbc
00000210: 8335 b3bc 14db 7abc daaa a93c d5f7 3cbd
00000220: 7312 09bd 812b 0ebc f434 54bb 9bb5 c0ba
00000230: 47ad 8f3c 1213 453c 2f18 04bc a050 4fbb
00000240: 4be1 48ba 75dc 5a3d eb6a 28bb 055b 2abd
00000250: fc45 96bb d969 083d 355c 143c 1456 6dbc
00000260: d819 19bd fab7 563d 6b2f 7abb 9cfd f3bc
00000270: 69d4 8bbc 6fff 683c 882a c8bc 44a4 e83b
00000280: f25d 1fbc 6ccd 3e3c 0563 403b 4b62 763c
00000290: dffd 1f3b 085b 803c 9408 02bc 564d 78bc
000002a0: bb24 643c 7537 d63c 4303 2b3d e496 723c
000002b0: 5e70 cfbc 7549 0ebc 1532 713c 7e07 c4bb
000002c0: e342 193d 401a e6bc 7013 4fbb a143 92bc
000002d0: efbf 8dbc a6f4 16bc 1038 5f3b 0923 66bb
000002e0: 5365 cd3c 1613 823b b641 fdbc 2a66 bdbc
000002f0: 230e 9d3c 6ad8 17bc 66f2 96bb 089a e7bc
00000300: 5e48 163d 977d 933c aa9f 1c3c d908 973a
00000310: c7fc d33b 4702 cd3b 5ee6 d13b a161 bb3c
00000320: fd7f 9b3c f739 30bd d977 b43b 72fc 45bc
00000330: 3eaa 4bbc 5d74 52bc ec93 013d 1d57 b2bc
00000340: 917f a73b caea 3c3c e79c 00bb 59bc f2bc
00000350: 58f8 e6bc f413 b5bc f8f4 2aba 144f f93b
00000360: f2c8 6a3b bf9a d0bb b891 b03c aefc c13c
00000370: 86a4 183c 73fb b83c bfe1 e6bc 8a5f f3bc
00000380: 4d5e 813c 8651 a63c abdc 81bc 6059 ddbc
00000390: c0ad 8e3c 6a12 31bc 0f7a 01bd 616d ab3b
000003a0: 704f baba 1703 24bd d39e 14bd aa69 bfbc
000003b0: 490c 37bc c7d9 893c b1c4 5fbc b709 0ebc
000003c0: 7aea fa3c 3413 053d 0a8a 1bbd b7dc 4d3c
000003d0: 1643 b93b daee 06bc 14af fa3c 9fbc 82bc
000003e0: e32b 22bc c470 31bc 25fa 1c3b 7220 a13b
000003f0: 9ec6 88bc e1d6 0bbc dd3c 24bd 6b78 d43c

action_model._continuous_distribution.mu.bias f4 [2]
0.007913747 -0.0016312842
00000000: a9a8 013c d1d0 d5ba

action_model._discrete_distribution.branches.0.weight f4 [1, 128]
-0.0074559646 0.018420612 0.0073839785 -0.003081143 -0.0063412036 0.0021310558 0.0008305732 0.0005298372
-0.0013038755 -0.0039809467 0.0078279255 0.0019101158 0.002199836 0.0029286358 0.00088164007 0.0015936801
-0.0019142631 0.007135668 -0.00019639514 -0.0032408063 0.0018996533 0.009005343 -0.0074467505 0.008814421
-1.5170609e-06 -0.020410342 -0.004573608 -0.01170896 -0.001266321 -0.012421917 0.0058255796 0.0066943164
0.0056948126 0.014961745 -0.025510285 -0.0028256483 -0.010382086 0.0009074579 -0.0048851655 0.0152914915
-0.0014788416 0.024067879 -0.005830239 0.0014671185 -0.005082487 -0.00038622002 -0.013040912 -0.0035444282
0.0033812837 -0.0023621318 0.00554988 0.01206869 -0.012636644 0.00014129703 -0.00023165099 -0.00062521204
-0.007511187 -0.012786611 -0.0032402861 0.00080470054 -0.001909051 0.017959334 0.003201376 -0.0122566875
-0.01066478 -0.003169562 0.008444849 0.0026061505 0.0058214334 0.00019810184 0.014447488 0.019029189
0.0014202602 0.008416547 0.0052434388 -0.017826278 -0.004031694 0.009625307 -0.013003212 -0.0044049653
0.0065538147 0.0071945996 0.0004945156 0.0137048215 0.0125598265 -0.001155399 -0.0034582352 0.0015398248
-0.0008377493 -0.012932493 0.009548628 0.01096614 -0.0019437124 0.009307309 -0.013676967 0.0070986883
0.0064588017 0.024295868 -0.007358782 -0.00895824 -0.014139625 0.015685637 -0.008086509 0.00590788
-0.006393107 -0.0016225375 -0.0113360565 0.009721095 -0.009610534 -0.0046108677 0.0048725554 -0.0027083454
0.0017465383 -0.0032617457 -0.006801896 0.0009470693 0.014745134 -0.015813692 0.0015444256 -0.0010856468
-0.0048516616 -0.0043201842 0.0046059946 -0.018842077 0.000740854 0.00141967 0.0057057533 0.00072220725
00000000: 2a51 f4bb d3e6 963c 4df5 f13b 00ed 49bb
00000010: dfc9 cfbb 2fa9 0b3b d3ba 593a c6e4 0a3a
00000020: cde6 aaba 9a72 82bb b340 003c da5c fa3a
00000030: 202b 103b 5bee 3f3b dd1d 673a 08e3 d03a
00000040: 03e8 faba 52d2 e93b 6bef 4db9 b563 54bb
00000050: cafd f83a 258b 133c df03 f4bb 5c6a 103c
00000060: d19d cbb5 9733 a7bc 34de 95bb f0d6 3fbc
00000070: affa a5ba 4c85 4bbc 81e4 be3b ff5b db3b
00000080: 8d9b ba3b 1b22 753c f2fa d0bc 832e 39bb
00000090: a019 2abc 78e2 6d3a bd13 a0bb 2a89 7a3c
000000a0: b1d5 c1ba 002a c53c 970b bfbb 544c c03a
000000b0: fe8a a6bb 937d cab9 8da9 55bc a349 68bb
000000c0: 8798 5d3b ffcd 1abb c5db b53b c1bb 453c
000000d0: ed09 4fbc 2229 1439 57e7 72b9 45e5 23ba
000000e0: 6720 f6bb ef7e 51bc fb5a 54bb 8af2 523a
000000f0: 1f39 faba 741f 933c 2dce 513b 46d0 48bc
00000100: 54bb 2ebc 6db8 4fbb 445c 0a3c f3cb 2a3b
00000110: b9c1 be3b 8fb9 4f39 28b5 6c3c 1ae3 9b3c
00000120: 0628 ba3a 8fe5 093c 27d1 ab3b 6a08 92bc
00000130: 4d1c 84bb 77b3 1d3c 6d0b 55bc 8757 90bb
00000140: 62c1 d63b adc0 eb3b 61a2 013a 308a 603c
00000150: bbc7 4d3c c270 97ba 8fa3 62bb f2d3 c93a
00000160: 679c 5bba cfe2 53bc d971 1c3c 53ab 333c
00000170: 2ac4 feba af7d 183c 5b15 60bc 1d9c e83b
00000180: 5ba4 d33b 2108 c73c f021 f1bb 95c5 12bc
00000190: e3a9 67bc 2a7f 803c 477d 04bc e496 c13b
000001a0: 457d d1bb 53ab d4ba deba 39bc 3a45 1f3c
000001b0: 8075 1dbc c316 97bb f5a9 9f3b 7f7e 31bb
000001c0: 1aec e43a 03c3 55bb 70e2 debb bf44 783a
000001d0: 9395 713c b78b 81bc 536e ca3a 434c 8eba
000001e0: b0fa 9ebb 5590 8dbb e2ed 963b b35a 9abc
000001f0: df35 423a 3814 ba3a 54f7 ba3b 8252 3d3a
