Assets/Objects/Brains/DumbBrainV5.onnx (onnx, 281268 bytes, 8 tensors)

network_body._body_endoder.seq_layers.0.weight f4 [128, 402]
00000000: 2eb5 bbbc d214 953d f651 f3bc 8c32 593d
00000010: 4b18 84bc 4400 65bd 3c81 3e3c 6411 0c3c
00000020: d3cf c83d c9cb d43d 1684 98bd 3669 82bd
00000030: bef1 6c3d 2f8e ddbd 1233 053b 8f6a 65bd
00000040: 92e5 6e3c de98 b73d 50e3 153d 28b6 a53b
00000050: c658 9cbc 49cd 62bd 441f 263d beb9 b0bc
00000060: 5126 0cbe a1c2 3e3c 5cfe 2fbc 4085 31bc
00000070: 0149 77bd 7ad5 903c ef23 b53d 5a0f b93d
00000080: 497a 84bc c485 523d 9cef a03d a2fb bcbb
00000090: d5e0 9d3d 7db5 42bd 6384 8a3c 0d03 0abd
000000a0: 9e79 313c f935 0bbb 45c4 023d 2f3f 66bc
000000b0: aa08 423d 30b6 64bd 1b75 3d3d 018e d13c
000000c0: 257a 9cbc 2bed 87bd 6eb8 9b3d a1d1 f83c
000000d0: bb8a 1b3b 9092 633c f7cc b63d d3b3 da3c
000000e0: 9c2e f33d 8e51 4a3d 712b d03b c4c8 283d
000000f0: 1381 1b3c 43ae df3b 185c cc3b eedf 223d
00000100: 42f3 ccbc c972 df3d e14c 913d 4790 87bc
00000110: 52bc 053d 717e dcbc 7876 4c3d 7f10 85bc
00000120: 171c 3abd 601c 7abc c7d8 553c 326b 2c3d
00000130: 6867 a93d 650b aabc bc8e b23b 2751 5abd
00000140: 328b 35bd 3fc5 a93c 7ec7 d63c c409 913a
00000150: 03fe 483c f73d 4bbd 61ba 1d3d c9e4 d1bc
00000160: f92c e93d 2639 043d be01 363d bdec 333d
00000170: d782 b13d 067d 67bc 4e0c d4bc d094 01bc
00000180: 76ad aebb 3651 193a 1bdb 343d 76fe e3bc
00000190: 1818 723d 15c8 4ebc 11e2 383d 4671 933d
000001a0: eb26 02bd 0dbc 9fbc b934 1e3c 4b50 b3ba
000001b0: aa41 9abd 5203 89bb 2353 b03d 6be2 a63c
000001c0: 424b be3d 0e01 463d 1307 bb3c 1fa1 01bd
000001d0: e59d 4bbd 65a2 ecbc c1cf 8b3b acc8 da3c
000001e0: fb99 583c 4aed d93c 5493 2fbd e717 8cbc
000001f0: 2fe6 53bb aed7 563c ad20 52bd d313 c2bd
00000200: ac16 dfbd 3def 3bbd 0a35 833d 6c4e 0f3d
00000210: c37c 3a3d e03b 04bd f1c6 63bd e08d 9d3c
00000220: 3277 093c bdb7 30ba 1964 763d 9118 d33c
00000230: 5f54 743c a66a 82bd f875 f7bb 4334 a43d
00000240: 8f7d 6abd 16c2 47bd df7a 58bc 4d59 a23d
00000250: 70da 73ba 1d2a 07bb a5ee 513d ba38 0abd
00000260: f918 3dbd c2e0 58bd 4b7a 1dbb 8b52 96bd
00000270: d494 6bbc d0fb 30bd 940c c3bd d402 efbc
00000280: efc2 30bd 6d95 173c d6e3 acb9 1eac 05bc
00000290: bc38 23bc 519e 09bc 0e78 0a3d e081 f23c
000002a0: b2c2 69bd b6c9 e4bc bf2e 813d b610 c83d
000002b0: d166 253d 268e b1bc 1e35 393d 50f9 a93d
000002c0: b7bf 5dbc 407e f23b 988e 19bd bfb9 243d
000002d0: 5da4 093e 44d3 e1bb 9f3f 463c 5288 833c
000002e0: e418 80bc 6685 70bd a89c c43c cdc0 123d
000002f0: 6689 593d 6937 0e3d f9eb 213d 7b1b 19bb
00000300: 969f 183c 399c 53bd b787 013d e563 59bd
00000310: 735b 4dbd 827b 583c 1f30 2a3b 3367 9e3c
00000320: 1f36 9c3d e1e3 603b 5165 5b3c ae57 9abd
00000330: 8f27 873b 39b1 b13c d076 87bd 3e7d 75bc
00000340: 9d0e 24bd fbaa 9f3c 9ced 8dbd cb75 e13c
00000350: 01bf 2f3d 0e51 a93c e9ba 07bc 83ae 3c3d
00000360: 4ecb 773d e690 bb3c 2730 04bc 7a42 8d3d
00000370: cdea ee3c 86f7 533d c391 bdbb 7f66 5c3d
00000380: bb65 debc 11ca 7fbc 5ee9 b237 5670 22bb
00000390: b824 913c b1f7 e33c e6ce 693d 243c 573d
000003a0: ecc6 033d c89c 563d 1b41 19bc 2c82 cabc
000003b0: 74df c23c b59e d0ba ae01 523d f33e 743d
000003c0: 5998 68bd ee1f a2bd da01 24bd 3f36 d5bd
000003d0: 1eca a1bc 6b26 a0bc d703 6c3b 8c0a eabc
000003e0: 68c6 a33c fed7 7ebd 6fee 45bd 6368 acbc
000003f0: aae4 313d d876 5fbb 9e7a d7bd eb65 8dbd
-0.022913542 0.07279362 -0.029702168 0.05302672 -0.016124865 -0.055908456 0.011627492 0.008549068
0.09805264 0.103904314 -0.074470684 -0.06367724 0.05784773 -0.10818135 0.002032463 -0.056009825
0.014581101 0.08964704 0.036593735 0.005057115 -0.0190853 -0.055371556 0.04055716 -0.021572944
-0.13686492 0.011643083 -0.010741796 -0.010834992 -0.060372356 0.017679919 0.088447444 0.09036131
-0.016171591 0.0513971 0.07858202 -0.0057673017 0.07708899 -0.047536362 0.01690883 -0.033694316
0.010832218 -0.0021241887 0.03192546 -0.01405315 0.047371544 -0.05583781 0.04625426 0.025580408
-0.019101212 -0.06637033 0.076035365 0.030373396 0.0023733813 0.013889924 0.08925813 0.026697075
0.118741244 0.049394183 0.006352835 0.04120709 0.009491223 0.0068261935 0.0062365644 0.039764337
-0.025018338 0.109105654 0.070947416 -0.016548289 0.0326503 -0.02691576 0.049917668 -0.016243218
-0.045436945 -0.015265554 0.013052172 0.042094417 0.08271676 -0.020757386 0.005449144 -0.05330005
-0.0443222 0.020723937 0.026218172 0.0011065532 0.012267592 -0.04961964 0.038507823 -0.025621789
0.11385531 0.032281063 0.044435255 0.043926943 0.08667534 -0.014128929 -0.025884774 -0.007909015
-0.0053307367 0.0005848588 0.044154268 -0.027831297 0.05910501 -0.012620945 0.04513747 0.071993396
-0.031775396 -0.01949885 0.009656125 -0.0013680545 -0.07532056 -0.004181304 0.08609607 0.020371636
0.09291698 0.04834085 0.022830522 -0.031647798 -0.049711127 -0.02888603 0.0042667096 0.026707016
0.013220306 0.026602406 -0.042865112 -0.017101241 -0.0032333245 0.0131129455 -0.051300693 -0.094764374
-0.10892996 -0.045882452 0.06406601 0.0349869 0.04552914 -0.032283664 -0.055609647 0.01923269
0.008390235 -0.00067412463 0.060154054 0.02576855 0.014912694 -0.06367998 -0.007551905 0.08017781
-0.05724865 -0.04876908 -0.0132128885 0.07927189 -0.0009302264 -0.0020624467 0.05125298 -0.033745505
-0.046166394 -0.05294872 -0.002402919 -0.073399626 -0.014378745 -0.043208897 -0.095238835 -0.029176153
-0.043154653 0.0092519345 -0.00032976147 -0.008158712 -0.009962257 -0.008399562 0.0338059 0.029602945
-0.05707044 -0.027928215 0.06307744 0.09768812 0.040381256 -0.021674227 0.045216672 0.08299506
-0.013534478 0.007400304 -0.037489504 0.040216204 0.13441606 -0.00689164 0.012100129 0.016056214
-0.015636869 -0.05872097 0.02400048 0.0358284 0.05310955 0.034720812 0.03953168 -0.0023362327
0.009315392 -0.051662657 0.03162357 -0.053073782 -0.05013604 0.01321304 0.0025968624 0.019336319
0.0762751 0.0034315514 0.013390855 -0.07536255 0.004124589 0.021690952 -0.066144586 -0.014983473
-0.040053 0.01949071 -0.06930086 0.027521988 0.042906765 0.020668533 -0.008284309 0.046064865
0.06049662 0.022896241 -0.008068121 0.06897445 0.029164696 0.05174973 -0.0057851984 0.053808685
-0.027148118 -0.015612141 2.1327924e-05 -0.0024786196 0.017717704 0.02782807 0.05708208 0.05254759
0.03217213 0.052395612 -0.009353901 -0.024720274 0.023788191 -0.0015916439 0.051271133 0.059630346
-0.056785915 -0.07916246 -0.04004083 -0.10410737 -0.019749697 -0.01954957 0.003601303 -0.028569482
0.019992068 -0.062217705 -0.04832309 -0.02104587 0.04343096 -0.0034097936 -0.10521434 -0.06904205

network_body._body_endoder.seq_layers.0.bias f4 [128]
00000000: 0a5f 3aba 953d a2bb 5078 c13a 693c 893b
00000010: b9c8 043c 60cf 133c 305a 52bb ada3 82bb
00000020: a978 3b3b a2e2 263b 5996 973a 6ab2 303b
00000030: 79a1 bfbb 4564 ff3b 642d 21ba 3303 233c
00000040: 0864 ca3b 81c0 f43b f79f bb3b 8daf d6b9
00000050: 522c ab3b 4df7 263c 2359 503a 2ca9 233b
00000060: e652 153b 9b4e 453c 180f dd3b 17a5 ae3b
00000070: bf83 5f3b 2285 003a 8c35 243c ac9d 99ba
00000080: fa99 5f3b ec04 dd3b 0360 0c3b 3630 603a
00000090: 28d1 6b3c 4903 8c3a c8d5 33bb bf57 c9b9
000000a0: b000 193b 95d5 1cba 53b4 61ba 2149 c83a
000000b0: 86a4 dcba b491 a43b a2e5 7e3b 8234 a0ba
000000c0: ebcb b539 cb54 55bb 0ecf 11bb af4f 613b
000000d0: a671 e83b 2b3e 7cbb 5778 8bbb 0299 1d3c
000000e0: 28b9 003a bbcd 28bb 1908 28bb fa3f 3c3c
000000f0: 5f81 663b c0cc 703a 36a9 20bb 133a 5cbb
00000100: 20c8 9d3b 6362 4fbb c260 73bb 7c7c 97ba
00000110: 291b 85bb a96d 05bb 04f8 bd3a f9a2 8dba
00000120: d779 71ba 94ad aeb7 47d2 22b9 85c6 b4ba
00000130: 2cf9 0dbc 5b97 233b c27d 543b 5cda 443b
00000140: e2b0 393b a4c4 32ba f192 3b3b 414d a439
00000150: d9b9 063c 1795 613b e05f 903b 64f1 c13b
00000160: 76e6 cb3a 3ca0 3cbb 70dc 68ba 2ce5 d638
00000170: e68c 0f3c d37c f6b6 c4aa 123c 05cf 9b3b
00000180: a419 923a f650 a3bb 4478 1fba ec2b 44bb
00000190: 97d3 5abb 6c7e 823b 5564 9c3b 479d d9bb
000001a0: a7a7 c33b c698 0abb 9c86 063b 2c4c 94b9
000001b0: 972a 013c ff05 893c b071 6c3a 8163 be3b
000001c0: 9980 46bb 37e4 1d3b ae1b c739 e159 69bb
000001d0: 8a0f e03b e240 ae3b 41e0 8d3b 2533 49bb
000001e0: 13de f3bb db0d 683a 69a3 fb3a 6869 4fbb
000001f0: e37a cf3b d360 443b 83ed bfba 6320 fc3a
-0.0007109499 -0.004951189 0.0014760587 0.0041881097 0.008104497 0.00902161 -0.0032097213 -0.003986797
0.0028605855 0.0025464674 0.0011565193 0.0026961812 -0.0058481065 0.0077939355 -0.00061484263 0.009949493
0.0061764754 0.0074692373 0.0057258564 -0.00040948056 0.0052237893 0.010190797 0.0007947853 0.002497266
0.0022785007 0.012042667 0.006746184 0.005329739 0.0034105626 0.0004902651 0.010022532 -0.0011719964
0.0034118877 0.0067449715 0.0021419532 0.0008552106 0.014393128 0.0010682131 -0.0027440656 -0.00038403083
0.0023346357 -0.0005982754 -0.0008609939 0.0015280583 -0.00168337 0.005022252 0.0038894196 -0.001222268
0.0003467494 -0.0032551761 -0.0022248658 0.003437977 0.007093626 -0.0038489203 -0.004256289 0.009618999
0.0004910403 -0.002575739 -0.0025639592 0.011489863 0.0035172326 0.00091857836 -0.002451492 -0.003360395
0.0048151165 -0.0031644336 -0.003713653 -0.0011557485 -0.0040620756 -0.0020359552 0.001449347 -0.0010806016
-0.0009211576 -2.0823245e-05 -0.00015527858 -0.0013792074 -0.008665364 0.002496204 0.003242359 0.003003738
0.002833419 -0.0006819463 0.002862152 0.00031338076 0.0082230205 0.003442114 0.0044059604 0.0059186686
0.0015556354 -0.002878203 -0.00088829454 0.00010247002 0.00876162 -7.3459028e-06 0.0089518465 0.0047549033
0.0011146558 -0.0049840165 -0.00060832896 -0.0029933406 -0.0033390278 0.003982356 0.0047727027 -0.0066410634
0.0059709135 -0.002114819 0.002052701 -0.00028285512 0.007883689 0.016726492 0.00090196263 0.0058102016
-0.0030289053 0.0024092325 0.0003797686 -0.003560655 0.00683779 0.005317793 0.0043297117 -0.003070065
-0.007442245 0.0008852162 0.001919848 -0.003164852 0.006331788 0.0029964938 -0.0014642928 0.0019235726

network_body._body_endoder.seq_layers.2.weight f4 [128, 128]
00000000: 3494 bebd 8347 90bc 133b 0cbe 028d 31be
00000010: 6325 31bd e7ff b83d 7114 5a3e 6d55 19bd
00000020: 2450 e33d 87b9 f03c a889 103e fa62 0b3e
00000030: 5f76 98bd 0bbc 10be 99ba 6dbd ee53 87bc
00000040: 872a 56bd c604 3cbd cf68 203e e647 abbc
00000050: cb70 1f3d 14c6 49bd 18c7 4e3d 2a53 b6bc
00000060: 6c74 943e 0e62 313d bddd e13c c022 f03d
00000070: e155 8abb 328b 5abc 3d42 d93d 7f8a ac3d
00000080: e5e4 78bd eb40 a33d dd52 62bc ea8f 5ebd
00000090: 3848 f43b 40c0 203e e79e 73bd 379f 363d
000000a0: 86d0 fcbd e3cd a43d 51cc c5bc f262 923c
000000b0: 9f8d bc3d fd9e 09bd 013f ecbd e194 123d
000000c0: c92c 51bd 2ce4 663d 7ed4 bdbd 9637 22be
000000d0: fd74 b03d 2bd0 3e3d ae84 c43c 9342 013d
000000e0: 54df 32bd c7f4 303d 2a72 673c 366a 3f3d
000000f0: 651d 89bc f5b3 85bd 8392 f5bd e67f dfbc
00000100: a1aa ec3d 00c9 3abd 0cfc 25bc 9499 083e
00000110: 96bd 523c 9435 4abe d69f d13d 4b90 bb3d
00000120: d6b5 fcbd 5e5d dbbd 0b33 5c3d b3d0 2a3d
00000130: 43d4 b4bd d4dd c23d 36e9 b7bd 4b8d 663d
00000140: 8ba3 febd eb05 303d edf7 eb3c 6b5e 713d
00000150: b01d d93d 8d22 e23a 7b91 e0bc c164 c83d
00000160: ef52 7dbd 3fbd 0b3e f1ae a4bc 6183 4d3d
00000170: 7f1e ae3c be77 113e 9eb3 933d bbeb 7c3c
00000180: 4390 723d 549b 2e3d d975 84be e47b 21bd
00000190: 5e90 19be 14ea a9bd c81a 30bd 9c76 633c
000001a0: 0a0d 86bd 81cd 913d f0ed 523d b37c e5bd
000001b0: e766 403d b419 9338 88b8 4bbb 8cab c23d
000001c0: bc6e 36bd f996 d0bd 88cc aabc edd9 6bbd
000001d0: 2231 403c e51c 9f3c 3d05 e7bd 926e 873d
000001e0: 95a7 793d 89f9 d2bd 8c0e 0bbd c06e 0bbe
000001f0: d249 d9bc fe0e 8bbd 1b24 553d a5d5 acbc
00000200: eb42 683a 55c7 a5bc d3f8 193b 96a7 a8bd
00000210: f0ba 8a3d ff13 653d 61d8 3b3e c28e 40bd
00000220: 8229 31bc 8850 04be af53 4a3d 96a5 5bbd
00000230: da98 aebd ee76 68ba 27b9 d6bd 8d17 753d
00000240: 65c1 2f3d b7e8 cd3b 666d 7c3d 3dfd abbc
00000250: 5a6d bbbc c777 063e 8726 92be e5eb c5bd
00000260: f325 40bc ad94 153e a1b9 c6bc 580c 893e
00000270: 59f9 81bd 894f a4bc 7812 22bc 9337 d7bc
00000280: d8d6 9cbb 7da5 36bd 1c2a 97bb cd55 693d
00000290: 8f10 70bc 3eae 9bbd 1051 d83c f033 d03c
000002a0: 2fc3 a8bd a1e9 cbbd b25b b1bd 3ced dcbb
000002b0: 6cff c83d a52c 6abd c16e 0a3e 2f79 6f3c
000002c0: 0332 e13c a437 8bbe a75c 963d e4a3 093d
000002d0: 59df 303d 2404 c5bd f883 fe3d 9ad1 42bc
000002e0: ea27 093c 58db 89bc 8bce 453c 2c63 403d
000002f0: 3273 123b f951 193d dc40 183e 381d 643b
00000300: e431 cdbd 8e62 81bd 00ca 8b3d a5a3 ccbd
00000310: 934a a73c 0cf1 d9bd e40d af3d 38dc 1c3d
00000320: fb06 03be eaf5 a63d 0191 f53c 2dd8 8ebe
00000330: 0aa5 73bd 326a 50bd 18cc d5bd b312 03bc
00000340: 7e1e e53c 3e1e 1d3e 0f0a c7ba 7c2a dcbd
00000350: ac8a 863d 8b6a a1bd aa08 a53d a840 283e
00000360: 683c 00be dbb9 8d3d 5f3a 8e3d b5cc a73c
00000370: 559f b73d 3bc4 873c 09f6 a7bd 68ec 0bbd
00000380: f082 cebc 25eb 14be fa61 1ebd 1df4 0bbd
00000390: 03fe ffbd 2cba 4f3e e906 423d 9542 0bbe
000003a0: e549 c5bd fc86 b8bd acff b73c c877 e13d
000003b0: 630b 293b fc8d 0d3e 686f 2fbe 45f2 4b3c
000003c0: 073b 973d 5895 3ebd 8f26 5a3d 69e2 0ebe
000003d0: bc8c 36bc c3e6 93bc 85f4 633d d446 76bc
000003e0: 25c8 6bbd 1988 163d 77e3 553d d58d be3d
000003f0: 38bd c33d 192a 11be 5b5a 0fbd 6178 bdbd
-0.09305611 -0.017612224 -0.1369441 -0.17338946 -0.043248545 0.090331845 0.2129686 -0.037434984
0.1109927 0.029385341 0.14115012 0.13611975 -0.074444525 -0.14134233 -0.05803928 -0.016519513
-0.05228665 -0.04590299 0.15664981 -0.020908307 0.038925927 -0.049261168 0.05048284 -0.022256453
0.28995073 0.043306403 0.027571553 0.11725378 -0.0042216633 -0.013338851 0.10608337 0.084248535
-0.060765166 0.079713665 -0.013813701 -0.054336466 0.007454898 0.15698338 -0.059477713 0.044585433
-0.1234446 0.08047082 -0.024145277 0.017869446 0.092066996 -0.03359889 -0.115354545 0.035786513
-0.0510681 0.056369945 -0.09269045 -0.15841517 0.08616064 0.046585243 0.023989048 0.03155763
-0.043670014 0.043202188 0.01412634 0.04673215 -0.01673765 -0.06528465 -0.119908355 -0.027282666
0.115559824 -0.045601845 -0.010130893 0.13339835 0.012862584 -0.19747001 0.102355644 0.09158381
-0.1233937 -0.10711168 0.053759616 0.041702937 -0.08829548 0.095149666 -0.08980028 0.05628709
-0.12433537 0.042974394 0.028804744 0.058927935 0.106013656 0.0017252729 -0.02741312 0.09784842
-0.06184667 0.1364641 -0.02010295 0.05017412 0.021254776 0.14205834 0.07211994 0.015437062
0.05921961 0.0426286 -0.2587116 -0.039424792 -0.14996478 -0.082966 -0.04299429 0.013883259
-0.06545456 0.07119275 0.051496446 -0.11205425 0.046973135 7.014294e-05 -0.003108533 0.09505376
-0.0445392 -0.10185046 -0.020849481 -0.057580877 0.011730464 0.019422958 -0.11280296 0.066128865
0.060950834 -0.10301501 -0.03394942 -0.13616467 -0.026524458 -0.06789969 0.052036386 -0.021097967
0.0008860069 -0.02023665 0.0023494258 -0.082350895 0.06773937 0.055927273 0.18344261 -0.047011144
-0.010813119 -0.12921345 0.049396213 -0.053624712 -0.08525248 -0.00088678196 -0.10484534 0.059836913
0.042909045 0.0062838453 0.061627768 -0.020994777 -0.022879291 0.13131629 -0.2854502 -0.09664134
-0.011727798 0.14607497 -0.024258437 0.2676723 -0.063463874 -0.020057457 -0.009892099 -0.026271617
-0.0047863536 -0.044591416 -0.004613174 0.05696659 -0.014652385 -0.076015934 0.026405841 0.02541539
-0.08240353 -0.099566706 -0.086600676 -0.0067421477 0.09814343 -0.057171483 0.13518812 0.014616295
0.027489668 -0.27190888 0.07341891 0.033603564 0.04318175 -0.096199304 0.12427515 -0.011890793
0.008371333 -0.016828224 0.012073169 0.046969578 0.0022346494 0.03743169 0.14868492 0.0034807455
-0.100192815 -0.06317626 0.06825638 -0.0999215 0.020421302 -0.10641679 0.08547571 0.038295954
-0.12795632 0.08152373 0.02997637 -0.27899304 -0.059483565 -0.050882526 -0.104393184 -0.008000064
0.027968641 0.15343568 -0.0015185493 -0.10750291 0.06569418 -0.078816496 0.08058293 0.16430914
-0.12523043 0.06920215 0.06944727 0.020483354 0.08965937 0.016573062 -0.08201224 -0.034161
-0.02520892 -0.14542826 -0.038667656 -0.03416835 -0.12499621 0.20285863 0.04736987 -0.13599618
-0.09633235 -0.09010121 0.022460781 0.110091746 0.002579414 0.13823694 -0.17132342 0.012447898
0.073843054 -0.046529144 0.05325943 -0.13953556 -0.011141952 -0.018054372 0.055653114 -0.015031535
-0.05756392 0.036750887 0.05221888 0.09304396 0.09557575 -0.14176215 -0.03499828 -0.09251476

network_body._body_endoder.seq_layers.2.bias f4 [128]
00000000: 8321 c73b 3f00 143c d233 96ba 7cd8 233b
00000010: 5ce5 7c3b eaba 5b3a 3ba1 983b 9196 93bb
00000020: 1f5b aaba 81b3 93b9 b242 9bba 839e 81ba
00000030: 0d35 25ba c837 483b 1946 62bb 233b 9a3a
00000040: a2c5 3bbb a31e 5c3b 7132 963b 1136 043b
00000050: 05c8 96ba 118e d63b 16b8 66b9 ce1b 95ba
00000060: a650 823b 5d43 e33b 2d3b 973b be6e e53b
00000070: e6bb 39bb 68c0 283b d114 f0ba 8cbf 6c3b
00000080: feb0 78ba db5b 2ebb adb3 053c a7e0 ffba
00000090: 47c0 883b abbb 963a 7f9d 8939 921f 1f3b
000000a0: 38e2 a6ba 3d9a 123a 53b5 f6b9 5d5e c63b
000000b0: d91e 63bb 5f36 47bb bd2d 353c b356 8bb9
000000c0: 9f7c 4bbb 958b 483b 857d f3ba 1f88 59bb
000000d0: d0c4 213b 430f 073c 7006 123b 3094 2dbb
000000e0: 5fe7 aa3b 41fc 01bb 9c19 123b c255 21bb
000000f0: 17fd b23b 4714 b23b c292 d4ba 4726 89bb
00000100: 795c acba ed01 01bb 5f91 823b 409a b039
00000110: cda9 5a3b 451b 4f3b 83d2 713b 9367 b43b
00000120: 4033 a03b a4fb 5ebb 3f82 983a d817 2cbb
00000130: 6e5d 303a ad0d b439 c6ea dd3b 1137 b93b
00000140: 2251 4abb 052e ca3b ed05 1a3c 2a5a 17ba
00000150: b1c9 3639 8b74 03bb 3d9e d8b8 f8e9 fbba
00000160: eeed 19ba 42b0 953a 3bc9 8f3b 5c40 b33b
00000170: 3dc9 0f3b 9a8d 7dbb 01cb f73b 5ebe e23a
00000180: 919e 2cbb 3321 883b ebaa deba dd6d 95ba
00000190: 1f98 a93a b313 baba 29ff 13bb edc5 803b
000001a0: 9415 913a 4d50 c0ba da2f 44bb dc30 40bb
000001b0: 7db4 b33a 0c44 14ba 8104 313b 7f17 95bb
000001c0: 7fdb 943b 2afa c8b8 deb8 98bb b8a3 f039
000001d0: aad7 143b 5c8c 843b a283 893b a677 2ebb
000001e0: 0b17 0e39 ed85 0fbb 9427 b73a 488d 9b3b
000001f0: cde4 2abb 63ea 1a3a 086b 0e3a e2e9 953b
0.006076993 0.009033262 -0.0011459535 0.002500086 0.0038588857 0.00083820394 0.004657892 -0.004504033
-0.0012997127 -0.00028171766 -0.0011845438 -0.0009889159 -0.00063021557 0.0030550826 -0.0034526645 0.0011766892
-0.0028651734 0.0033587597 0.00458365 0.0020173828 -0.0011503702 0.0065476974 -0.00022003087 -0.0011376084
0.003976899 0.0069355206 0.0046152086 0.007001727 -0.0028340756 0.0025749449 -0.0018316751 0.0036124913
-0.0009486823 -0.0026605043 0.008160514 -0.0019521908 0.004173312 0.0011500021 0.0002624802 0.0024280292
-0.0012732213 0.00055924413 -0.00047055873 0.0060537294 -0.0034655838 -0.0030397398 0.011058268 -0.00026576742
-0.0031049622 0.0030600775 -0.0018576836 -0.0033192707 0.002468396 0.008243385 0.002228167 -0.0026486032
0.00521557 -0.0019834193 0.0022293096 -0.0024617766 0.0054622996 0.005434546 -0.0016218054 -0.004185471
-0.0013150118 -0.0019684986 0.0039846147 0.0003368426 0.003336537 0.0031601947 0.0036899156 0.005505511
0.004888922 -0.0034024501 0.0011635496 -0.002625933 0.00067277893 0.00034342465 0.006772372 0.0056523164
-0.0030871113 0.0061700367 0.009400827 -0.00057736284 0.00017432008 -0.0020058479 -0.00010329157 -0.0019219508
-0.0005871941 0.0011420327 0.004388002 0.0054703187 0.0021940016 -0.0038689137 0.0075620417 0.0017299165
-0.002633963 0.0041543483 -0.0016988193 -0.001140054 0.0012939012 -0.0014196545 -0.0022582507 0.0039298446
0.0011069053 -0.0014672369 -0.0029935748 -0.0029325997 0.0013710406 -0.0005655892 0.0027010741 -0.00454992
0.0045427675 -9.58334e-05 -0.0046607098 0.00045898347 0.0022711554 0.0040450525 0.0041966 -0.002662161
0.0001355076 -0.0021899894 0.0013973587 0.0047470666 -0.0026076317 0.000590956 0.0005432819 0.004575

action_model._continuous_distribution.log_sigma f4 [1, 2]
00000000: fdc2 b23b ccc9 e8bb
0.0054553733 -0.007104134

action_model._continuous_distribution.mu.weight f4 [2, 128]
00000000: 9634 04bd e3b6 12bc b742 963c b367 f0b9
00000010: 9a19 103c 47cc b53c 11ab 56bc 7c91 9f3c
00000020: 1b81 89ba 9e33 333c 13e4 b9bb 3f52 023c
00000030: 298e 48bc a5ba 87bc e006 803c 2690 3fbc
00000040: 3e7f 233d 5191 f7bc fb48 0cbd a274 6d3c
00000050: e8b5 1e3d 63a4 f1bb 6c61 353d 31a3 19bd
00000060: 8ea7 81bc 5251 88bc 24dc 6b3b 0ff3 20bd
00000070: 0220 133a 23bc 97bb 9c9e 3e3c d8a4 293b
00000080: 4d9f 073c ef2a 733c 875a dbbc 64c7 573c
00000090: bac7 0fbd de67 9e3a aa38 58bc f8eb 01bd
000000a0: 6314 5139 5657 873c c70f 6a3c af48 26bd
000000b0: ac29 6f3c 6bd6 8d3c b67c a4bc 2d6c 733b
000000c0: 23df 443c 94d3 d0bb cf1a ba3c 3e97 49bb
000000d0: c36d 05bc 8058 e9bc feee 8bbc 7450 d83c
000000e0: 784a fcb9 bb0e abbb 4e1a dabc 1e20 663c
000000f0: d2b9 ecba 0ee2 03bd 9433 a23c a31f ec3c
00000100: c67b 353d 8f68 0e3d 1881 22bc 004d bebc
00000110: d5d3 92bc 87a1 7fbd 9874 59bc a194 43bd
00000120: 6c74 8ebb 5f7a a53c 351d 98bc 7734 423c
00000130: 7d19 563a cc76 b2bc 4268 f9bc e0e0 beba
00000140: 2d68 993b b6ca 01bd 1c8f d6bc 3a3a fa3c
00000150: a2a1 283d 6583 823c d156 1a3c 659b a53c
00000160: b3d0 b53c f16b a33c ced7 bfbc dc2c c7bc
00000170: 63e6 05bd 8fa0 823c 1ddb c8bc 2891 6cbb
00000180: 10e3 e03c 658d adbb 6029 ab3b 7bbe 843c
00000190: 444e 863b 3da9 8cbb 1321 873c d91d 4bbc
000001a0: 8b94 dfbc 4610 2a3d 339c c33b 5be9 a03c
000001b0: 00e4 1fbb c30e 543c 5c09 efbc 430b c03c
000001c0: 20c2 95bc 3dc6 b0ba ce8d a23b cf18 db3c
000001d0: 544d 8fbc e74f 90bc 3a77 3abd 0393 b43c
000001e0: e9f7 383d 208c 7eba 63bd 28bd 550f 9dbb
000001f0: 8531 22bc c669 a0bc 8dd7 72bc 48af 0ebd
00000200: 0977 393c ecf1 903c 8db5 433b 1bc9 783c
00000210: fb35 133d 97ec 49bd a508 563c 765a 5cbc
00000220: 96f7 cfbc 955d ba3c 7727 8cbc e3ed ffbc
00000230: 00d5 0dbc 03fa c5bb 396f 85bc 4f42 02bd
00000240: 50c5 26bc 5b32 5c3b 57c7 4ebc dce2 743c
00000250: f305 d13c 0b98 383d ff74 0ebd 93ae 4abc
00000260: 5008 253c 77bb a53b 87f7 173d c869 013d
00000270: d684 86bc bdfb 6fbb 4fc2 36bd cba4 3f3c
00000280: ad63 aabc ed73 05bc 1258 d53c b9c7 5bbc
00000290: 0bfd 633a 6404 0e3c e52b 91bc fc19 88bb
000002a0: 80cd 1bbc 26d9 1d3d cdfc 93bb a7da 963c
000002b0: b0d5 69bc f7ad 9f3b 4c5c 293d 750a f53b
000002c0: 5e96 79bc 3fd7 f83b 2269 41bc 53c3 aabc
000002d0: 2446 623c 67b2 d63c 7fb0 e5ba ea04 6ebc
000002e0: 581e ff3b 8cb8 b3bc 5ae3 cf3a 95ad 71bc
000002f0: 4d95 403d 738b 8f3c 96e7 693b 2999 ebbb
00000300: 5250 6c3c 1044 02bd 9e94 f53c f722 81bc
00000310: 1250 a6ba a9e6 9cbc b555 603c 612d 9c3c
00000320: 5636 ec3c 71f7 a8bc 62f5 21bc 0e92 47bc
00000330: 0f4e 7f3c 97ae 07bd b177 f23c fece 4f3d
00000340: c11a 02bd 6406 933c b10d ea3c 6e37 643c
00000350: f4d6 883c 104f 4e3b e2c2 d6bc 9890 363c
00000360: 1d2f 943c 2457 143d b70d 1a3c 3ebd 033c
00000370: 413a f2bc e603 adbc ee79 ca3c 041b 8fbc
00000380: a324 72bd f68c 503c f690 25bc 3658 4fbb
00000390: 6d97 1dbd 90e6 7ebc 48d3 57bd 99b2 c93c
000003a0: 1988 13bd 088c dabc 4e41 2d3b 6de6 10bd
000003b0: 5851 d33b fb7e b0bb 76cd 98bc c672 6bbc
000003c0: c573 e33b 727d c63b 0cb8 cd3a f2a8 213d
000003d0: 492c a4bc 1db1 173c 250c afbc ca4a 683c
000003e0: 520c 8aba 6885 70bc 3d53 cabc 2001 0f3c
000003f0: cc7d 31bc 1d37 15bd 0a92 f0bc 95e1 e3bb
-0.032276712 -0.008954736 0.018342359 -0.0004585363 0.008795166 0.022192134 -0.013102309 0.019478552
-0.0010490747 0.010937599 -0.0056729405 0.007954179 -0.012240925 -0.016568491 0.015628278 -0.0116920825
0.03991627 -0.03022066 -0.034249287 0.014493139 0.038747698 -0.0073743328 0.044282362 -0.037509147
-0.015826967 -0.016640339 0.0035989368 -0.0392943 0.00056123745 -0.004630582 0.011634495 0.0025885608
0.008277726 0.014841779 -0.026776565 0.013170097 -0.035102583 0.0012085398 -0.0131971035 -0.031719178
0.00019939388 0.016521137 0.014285988 -0.04059666 0.014597338 0.017314157 -0.020078998 0.0037143335
0.012016091 -0.0063728783 0.022717861 -0.0030760313 -0.008143845 -0.028484583 -0.017081734 0.02640555
-0.0004812067 -0.005220262 -0.026623871 0.014045743 -0.001806075 -0.032198004 0.019799985 0.02882368
0.044307493 0.034767684 -0.009918474 -0.023230076 -0.017923275 -0.062409904 -0.013272427 -0.047749165
-0.0043473747 0.020199953 -0.018568614 0.011853329 0.000816725 -0.021785162 -0.030445222 -0.0014562868
0.004681608 -0.03168746 -0.026191287 0.030545343 0.04116977 0.015931794 0.009420113 0.0202157
0.022194242 0.019948931 -0.023418333 -0.024313383 -0.032690417 0.0159457 -0.024518544 -0.0036097262
0.027452022 -0.0052963966 0.005223438 0.01620411 0.0040986855 -0.0042926357 0.016495263 -0.012397253
-0.02729251 0.041519426 0.005969548 0.019642523 -0.0024397373 0.012942973 -0.029179268 0.02344287
-0.018281043 -0.0013486814 0.004960752 0.026745228 -0.017492928 -0.017616225 -0.04552386 0.022042757
0.0451583 -0.00097102113 -0.04119624 -0.0047930875 -0.009899502 -0.019581687 -0.014821899 -0.03483513
0.011319884 0.017693482 0.0029862851 0.015184666 0.03594015 -0.049297895 0.013063584 -0.013449302
-0.025386613 0.022749702 -0.017108662 -0.031241363 -0.00865674 -0.0060417666 -0.016288387 -0.031801518
-0.010178879 0.003359935 -0.0126207685 0.014946666 0.025515532 0.045066874 -0.034779545 -0.012370723
0.010072783 0.005057748 0.037101295 0.03159502 -0.016420763 -0.0036618554 -0.0446189 0.011697005
-0.020799482 -0.008145315 0.026042972 -0.013414317 0.0008697069 0.008668039 -0.017721126 -0.004153488
-0.009509444 0.038537167 -0.00451622 0.018414808 -0.0142721385 0.004873033 0.041347787 0.007478053
-0.015233604 0.0075940187 -0.011804851 -0.020845091 0.013810668 0.026208116 -0.0017523913 -0.014527539
0.0077855997 -0.021938585 0.0015860603 -0.014750858 0.047017384 0.01752255 0.0035691014 -0.007189889
0.014423447 -0.03180319 0.029978093 -0.015763743 -0.0012688658 -0.019152956 0.013692309 0.019064607
0.028834503 -0.020625802 -0.009885164 -0.012180818 0.015582575 -0.033125486 0.029598089 0.050734513
-0.031763796 0.017947383 0.028570982 0.013929231 0.01670406 0.003148023 -0.026215974 0.011142872
0.018088872 0.036215916 0.009402684 0.008040724 -0.029568793 -0.021120023 0.024716344 -0.017468937
-0.05911697 0.01272892 -0.010105362 -0.0031638271 -0.03847449 -0.0155579 -0.052691728 0.024621295
-0.036018465 -0.0266781 0.002643663 -0.035376 0.006448906 -0.005386231 -0.018652659 -0.014370626
0.006941291 0.0060574347 0.0015695109 0.03946776 -0.020040648 0.009258536 -0.021368096 0.014177987
-0.0010532236 -0.014680244 -0.024697894 0.008728296 -0.010833215 -0.036429513 -0.029366512 -0.0069543817

action_model._continuous_distribution.mu.bias f4 [2]
00000000: 5828 38bb 91f7 3a3b
-0.0028100219 0.0028528909

action_model._discrete_distribution.branches.0.weight f4 [1, 128]
00000000: 1529 d73b 923d 75bc 9d1f 0c3b 8053 583c
00000010: 14ee 1abb cb60 2f3b c3b6 e0bb 638d 113b
00000020: 93f8 a23b ed6d 553c e7b7 bb39 6a7e a63b
00000030: 53e2 113b 9049 d33b a7e9 45bb a505 233c
00000040: 60e6 aebb 8a05 d63a e269 6d3c dcfb 0dbb
00000050: 890b 1f3c 6de8 6dbc 0a1c d1ba 8ec3 35bc
00000060: cf9f 76bc 0963 cbbb ba95 2bbc cc9c 943b
00000070: 84c2 06bc d5ff 3ebc cc6c 4abb 6700 4ab9
00000080: b847 be3a b5f9 673c b012 06b9 ccd7 a4bc
00000090: 079c 55bb 8ced b1bc 4e5a 3ebc 83eb a43b
000000a0: 33be 91bb 9bde b3bb d137 3039 58fa 57bc
000000b0: d3ce e4ba 6380 573b 7e6c 41bb 892c 9eba
000000c0: f3ca 13bb dfd1 d4bb 1ba9 953b 4099 b1bb
000000d0: 5251 f43b 737d a63b b386 133c 58b5 daba
000000e0: 2437 0cbc fa19 e939 416c 193b 838b 11ba
000000f0: 8ff7 bdbb 7b8b 3f3c 3f06 0cbc ef51 8c3a
00000100: d3a1 02bc b199 983a 21c2 39bc 93f2 87bb
00000110: fd56 89bb f708 5a3c d30d 853c d5b4 d3bb
00000120: d376 1bbc 2179 003b 6beb 82bb 0778 07bc
00000130: cb5e d43b 1f70 85bb e544 63bb 1241 223b
00000140: 139c 113c 325a 413b 7528 fa3a f38d 25bc
00000150: 77fb 6aba 8cb5 cc37 7070 673b be66 90bc
00000160: ab83 0bbc 5b6b f7bb 972e a4ba 22a1 e73b
00000170: 8a6d 763b 5df9 0a3c 8bbb 80bb 5a2e b63a
00000180: 32bf 50bc b51a 713b 9bb3 58bb 1184 3a3c
00000190: 6afe fb3b b3a2 213c c40d 1abc 9292 20bc
000001a0: d3a3 75bb 0956 19bc 55f6 f4bb 9fee fdbb
000001b0: a9ef 9f3c ed37 34b6 c09c dabb 8f8f 253c
000001c0: a091 a43a 3d91 c13b 7a95 6f38 63a3 06ba
000001d0: 5a79 223c 8ade 86bb 88fe 95bb 87ad 923b
000001e0: 839f bc3a f5c8 2e3b 7ade 0dbc cff7 51bc
000001f0: 60aa 533c 2f3d db3b 8ddd 493c 61d2 233c
0.0065661767 -0.014968293 0.0021381148 0.013203502 -0.002364044 0.0026760574 -0.0068577244 0.0022209517
0.00497348 0.013026697 0.00035804437 0.0050809877 0.0022260144 0.0064479783 -0.0030199082 0.009950076
-0.0053375214 0.0016328555 0.014490576 -0.0021665012 0.00970734 -0.014520747 -0.0015953791 -0.011093987
-0.01505275 -0.0062068743 -0.010472709 0.004535293 -0.008225087 -0.011657675 -0.0030887602 -0.00019264371
0.0014517223 0.014158656 -0.00012786197 -0.020122431 -0.003259422 -0.021719716 -0.01161821 0.005032958
-0.0044477223 -0.005489183 0.00016805461 -0.013182245 -0.0017456658 0.003288292 -0.002951413 -0.0012067716
-0.0022551387 -0.006494745 0.004567278 -0.00541988 0.007455983 0.0050808727 0.009004283 -0.0016686125
-0.008558068 0.00044460577 0.0023410472 -0.00055521 -0.0057973335 0.01169097 -0.008546411 0.001070557
-0.007973152 0.0011642483 -0.011337788 -0.00414879 -0.004191278 0.013307801 0.016241943 -0.006460766
-0.009488779 0.0019603448 -0.003995349 -0.008268363 0.0064810268 -0.0040722038 -0.0034678516 0.0024758023
0.008887309 0.0029503223 0.0019085543 -0.010104644 -0.0008963863 2.4403234e-05 0.003531482 -0.017627116
-0.008515279 -0.0075506396 -0.0012526092 0.007068769 0.0037601911 0.008482304 -0.003928607 0.0013899312
-0.012740897 0.00367896 -0.0033066038 0.011384026 0.0076902406 0.009865451 -0.009402696 -0.00980057
-0.003748168 -0.009358891 -0.007475654 -0.007749393 0.019523459 -2.6854643e-06 -0.006671518 0.010105028
0.0012555607 0.0059072063 5.712125e-05 -0.0005136041 0.009916628 -0.004115884 -0.0045774616 0.0044762525
0.00143908 0.0026670073 -0.008659 -0.01281543 0.0129190385 0.0066906433 0.012320888 0.009998889
