Assets/Objects/Brains/DumbBrainV1.onnx (onnx, 208490 bytes, 8 tensors)

network_body._body_endoder.seq_layers.0.weight f4 [128, 260]
000000 05 c5 28 3e 9b df 45 3b 84 7e b1 bd 10 8e a2 bc
       0.16481407 0.0030193094 -0.08666709 -0.019843131
000010 19 e2 70 3d 41 1b 80 bd ce 29 c4 3d ec 00 17 bd
       0.058809374 -0.06255198 0.09578286 -0.036866114
000020 95 9f 1b 3e 02 76 bc bd 56 19 03 3d c2 49 6e bc
       0.15197594 -0.09202196 0.032006584 -0.014543952
000030 a9 72 31 bd 4c f4 d9 3d 69 60 1b bb 58 99 c2 bd
       -0.04332224 0.10642299 -0.0023708588 -0.09501904
000040 e4 9c d0 3d 00 e5 9e 3c f6 59 84 bd 30 02 81 3c
       0.101861745 0.019396305 -0.06462471 0.015748113
000050 e2 d8 c5 bd 1b 68 93 3d 2b 52 78 bb fd 0b b7 bd
       -0.09660508 0.07197591 -0.0037890773 -0.089378335
000060 9c 97 b7 bd 35 58 48 3d 8b a0 b4 bc da dc 89 3c
       -0.08964464 0.048912246 -0.02204921 0.016828943
000070 31 d1 0e 3d d9 ef 20 3d ec 87 0f 3e ce 98 09 3e
       0.03486747 0.039291237 0.14016694 0.13437197
000080 45 2a 95 bc a9 8f 00 3d 57 01 80 3d ea f5 70 bd
       -0.018208632 0.031387005 0.062502556 -0.058828272
000090 54 6e 3a bd 2d 06 58 3d 9e 2c 01 bd 34 f6 53 3d
       -0.045515373 0.052740265 -0.03153669 0.05174847
0000a0 25 89 47 be f6 36 db bd 6c 7b 0f 3d e3 88 4e 3c
       -0.1948591 -0.10703842 0.035029814 0.0126058785
0000b0 03 fd a0 bc 11 30 fd ba 65 c9 49 bd 28 1b bf 3d
       -0.019651895 -0.0019316693 -0.04926433 0.093313515
0000c0 7a 0c d4 bc f5 3d d9 3c e2 8b 7e 3d d7 cc b9 3c
       -0.025884856 0.026518801 0.06214512 0.022680683
0000d0 f3 fe f5 3d 17 9b fa 3d d4 f6 37 bd a5 a4 a5 bb
       0.12011518 0.12236612 -0.044913128 -0.0050550275
0000e0 1d 45 41 3d 53 c5 51 bd 00 bb 08 bd 99 da 26 bd
       0.047185052 -0.051213574 -0.033381462 -0.040735815
0000f0 c8 2f 7c bc fc 85 0d 3e ac 14 b3 bd 92 36 71 3a
       -0.015392251 0.13820642 -0.08744177 0.0009201552
000100 97 fa d6 3d 33 6c 83 bd 3b 45 da bd a9 26 85 bd
       0.10497015 -0.06417122 -0.10657736 -0.065015145
000110 f0 09 e3 3d e1 9a 84 bb 47 52 26 3d e6 31 0b be
       0.1108588 -0.0040467833 0.04060581 -0.13593253
000120 9d 2b 26 be ea 2c e8 3c 6b c0 0d be e2 fd 2d 3b
       -0.16227575 0.02834173 -0.13842933 0.002654903
000130 6d e7 76 3d 3a 0b 6f 3d ff 32 f9 3b 72 3f a3 3c
       0.0602793 0.058360316 0.007604956 0.019927714
000140 f5 a1 eb bd 11 b4 4a bd b4 c0 a1 bc 71 67 9c bd
       -0.115055 -0.04948813 -0.019745208 -0.076369174
000150 4b d7 01 3e f6 e2 ad 3d a5 51 c5 3d 9e 3c 65 bc
       0.12679784 0.08490555 0.09634713 -0.013991503
000160 5c a8 01 3c 3a b5 a2 3c ab 22 c3 3c 30 db 05 be
       0.007913675 0.019861806 0.023820242 -0.13071895
000170 57 06 54 be 5e bd 0b 3d 3a b6 86 3d 50 8d 3f bc
       -0.20705543 0.03411614 0.06577726 -0.011691406
000180 3a de ef bd 6d 3e 46 bc 67 90 18 bd 40 b1 a4 3c
       -0.11712308 -0.012099844 -0.037247088 0.02010405
000190 8b 4d 12 be b4 b4 4c bd e9 c3 f2 3b 76 78 a6 bb
       -0.14287393 -0.04997702 0.007408608 -0.005080278
0001a0 93 8c d2 3d 7a 19 11 3b 95 c9 f7 bd f1 ce 48 3d
       0.10280719 0.002214043 -0.120989956 0.04902548
0001b0 32 a2 9b 3d 90 ce 5c 3b 82 c9 8b bd 46 da fe bd
       0.07599296 0.0033692457 -0.06825544 -0.12443976
0001c0 02 6f 29 3e 51 81 c1 3d e6 45 42 bd 73 e2 91 3c
       0.16546252 0.09448493 -0.04742994 0.017808175
0001d0 8c f7 2c 3d dd 9b 9e 3d f5 64 f3 bd 74 3a 92 bd
       0.042228267 0.07744572 -0.118844904 -0.07140055
0001e0 af 6b 14 3e c7 6c a5 bd e9 ca 2a 3d d4 b6 e5 39
       0.14494203 -0.08077388 0.041697416 0.000438145
0001f0 88 6a 60 3c 00 87 e0 bc 93 c9 64 bd 26 3c fa bc
       0.013697274 -0.027408123 -0.0558563 -0.03054626
000200 c0 3f b0 3d c1 e4 9c bd b4 d1 74 bd 70 d3 5c bd
       0.08605909 -0.07660819 -0.0597703 -0.05391258
000210 1e 3f 80 bc f0 ba a1 bb c7 48 3a bd 21 e1 94 3d
       -0.015655097 -0.0049356148 -0.045479562 0.072695024
000220 64 07 02 bd 07 d7 03 3d b2 d2 02 be 12 e7 b6 bd
       -0.03174533 0.032187488 -0.12775686 -0.08930792
000230 33 a7 15 3e 5e 8c a0 bc ab ac 1e bd 76 86 6d 3d
       0.14614563 -0.019598182 -0.038738888 0.05798956
000240 92 cd 32 be f9 60 2e bd e6 d4 fc bc a5 3c e2 3c
       -0.17461231 -0.04257295 -0.030863237 0.027616808
000250 f6 88 1e be c5 3e f1 bc fc 4b 18 3e 93 51 a8 ba
       -0.15481934 -0.029448876 0.14872736 -0.0012841694
000260 d2 16 b9 bd 89 ad 1f bc 54 65 bc 3d 39 b6 3b 3c
       -0.09037556 -0.009745964 0.09199014 0.0114570195
000270 a5 98 c2 bd f6 59 0e 3c 81 49 ae bd 0a 19 a2 3d
       -0.09501771 0.008688441 -0.085101135 0.07914932
000280 6f 44 11 3e 0f 88 4b bd 7f 40 49 bd da e0 a4 bb
       0.14186262 -0.049690302 -0.049133774 -0.005031687
000290 8a 7c e2 bc 53 e8 9b 3d b9 ad 79 bd b3 a2 1d bd
       -0.027647275 0.07612672 -0.06095669 -0.03848524
0002a0 4a 2f fa bc 3b c9 17 bd ea 88 45 bd eb a8 00 3e
       -0.030540127 -0.037057143 -0.048226275 0.12564437
0002b0 59 1e 3d 3d f8 12 8e bd a3 a3 fe bd 81 33 05 3d
       0.04617152 -0.06937212 -0.12433555 0.03251982
0002c0 d9 7a 3d bd 53 06 c0 3c 8e d5 92 bc a6 0d d2 bd
       -0.046259735 0.023440516 -0.017924096 -0.102565095
0002d0 3c 07 17 3d 29 7b 3a 3d 4e 28 05 be 1c 5e ef 3c
       0.036872134 0.04552761 -0.13003656 0.02921968
0002e0 4f 72 ec bc 33 fd 89 bb e4 b7 1b bd 63 12 e1 bd
       -0.0288631 -0.004211092 -0.03801717 -0.10989835
0002f0 d5 7b 09 be 47 e3 79 bd 0b 93 74 3c 97 25 e2 bb
       -0.13426144 -0.061007764 0.014927636 -0.0069014537
000300 26 6e f5 3d 9b 9a 66 3d bf 23 d6 3d ba e8 56 bd
       0.119839 0.056299787 0.10456037 -0.05246804
000310 07 0f 0d bd bd 30 17 be eb 5f 5a bd f3 44 65 bb
       -0.03443816 -0.14764686 -0.05331413 -0.0034983724
000320 6f ac 80 be 54 79 d1 bd 40 f2 9d 3d 28 c1 c8 3d
       -0.25131556 -0.1022822 0.07712221 0.09802467
000330 3f 88 0b be 74 9b c5 bb 6c 31 81 bd 06 5d 9f bd
       -0.13626193 -0.0060304943 -0.063082546 -0.07781415
000340 6b e6 88 3e d2 eb 9f bd 16 d7 28 be bb 90 9d bd
       0.26738295 -0.07808651 -0.16488299 -0.07693621
000350 62 ea 1f 3e 3c 8a 8b bd 34 50 75 be a7 c1 0a be
       0.15616754 -0.068134755 -0.23956376 -0.13550435
000360 bc 44 6d 3e 7f e6 0b be 5d fc 2d be 1f bf b6 bd
       0.23170751 -0.13662146 -0.169908 -0.08923172
000370 06 7e 48 3e 78 08 b7 bb 84 53 7f bc d7 ce ec bd
       0.19579324 -0.0055857264 -0.0155838765 -0.11562889
000380 6e 10 d9 3d 4c 6d 5f 3c d3 e3 34 be bd 07 ae 3c
       0.10598837 0.013636898 -0.17665033 0.021243924
000390 1d 3f ee 3d 5b fa 61 bb 1c 68 ea bd b6 c8 cc bd
       0.11633132 -0.00344815 -0.114456385 -0.0999922
0003a0 73 90 1b 3e f9 66 03 bd 82 59 3d bd f5 fc 1e be
       0.15191822 -0.032080624 -0.04622794 -0.15526183
0003b0 d5 34 58 3d 5b 65 98 3c 6d 76 22 bd e9 c9 14 3c
       0.05278476 0.018603018 -0.03966372 0.009081342
0003c0 e7 b4 82 3d 28 43 4e 3d 9a a2 8a bc 75 0f ab bc
       0.06382161 0.050357014 -0.016923238 -0.020881394
0003d0 ef 74 0e 3d c2 43 bf 3c 3f 12 a0 bd a7 4d fc 3d
       0.034779485 0.02334774 -0.0781598 0.123194985
0003e0 bb 0e 4d 3d 67 fa ad 3d 2e a7 06 be 5b e8 f0 bc
       0.050062876 0.08495026 -0.13149711 -0.02940767
0003f0 ff f5 c6 3d a0 ca 7f 3d 54 af af bc 00 0a c1 39
       0.09714889 0.062449098 -0.021445908 0.0003681928

network_body._body_endoder.seq_layers.0.bias f4 [128]
000000 17 4c c0 bc a2 72 24 3a ab 2b 26 bd 1c 47 50 bd
       -0.023473782 0.0006273185 -0.04056899 -0.050849065
000010 71 e2 8d 3c 55 b9 ba bc ba 3f 8c bc 0d e0 23 bd
       0.01731989 -0.022793451 -0.017120231 -0.040008593
000020 14 15 98 3c 55 d4 60 bd 58 31 d0 bc a4 68 c4 bc
       0.018564738 -0.054889996 -0.025414154 -0.023975678
000030 f2 c8 88 bd e3 e9 a6 bd 28 ad 89 bd 34 e8 e1 bb
       -0.06678952 -0.08150079 -0.0672248 -0.006894136
000040 d4 f0 04 3d 5d ca 1f 3c 7c 8a 84 bd 9f 6d 55 bc
       0.032456234 0.009752837 -0.06471726 -0.013026624
000050 52 b1 70 3c 44 a6 8f bc 92 4b 06 bd 0d 92 17 3d
       0.014690714 -0.017535336 -0.032786913 0.03700452
000060 59 b5 6e bd ba 5a 77 bd ea 7a e6 bb 3b 45 7d 3c
       -0.058278415 -0.060389258 -0.0070336955 0.0154584
000070 c8 9d 5c 3b e1 b0 23 bb dc 55 97 3b f9 ee 8a bd
       0.003366338 -0.0024977254 0.0046183895 -0.06783862
000080 c0 13 6c bd 12 7f be bc e3 73 b1 bd 1c 0c 80 bd
       -0.057636023 -0.023253951 -0.08664682 -0.0625231
000090 a9 c1 e2 bd b5 ae 86 bd cf c8 c5 bd b5 f3 8c bd
       -0.11072094 -0.065762915 -0.09657442 -0.06882421
0000a0 51 82 a8 bc 87 7b e0 bc ed 80 3c bd ef 8a 80 bd
       -0.020569952 -0.027402652 -0.04602139 -0.062764995
0000b0 f9 46 85 bd 0a 8b b2 b9 b5 d9 ec bb a4 ca 2e 3b
       -0.065076776 -0.00034054398 -0.007228101 0.0026671076
0000c0 dc fe 4b bc ad 10 de bc 17 14 e0 bc b5 ea 87 bd
       -0.0124509 -0.027107561 -0.02735333 -0.06636564
0000d0 66 7d 0a bd 04 61 c3 3c 54 ee 15 bc 92 c1 c2 bd
       -0.033810996 0.023849972 -0.00915106 -0.09509577
0000e0 2b 96 84 3b d7 09 81 3d 05 12 73 3b 59 59 9c bc
       0.0040462217 0.06300705 0.0037089598 -0.019085573
0000f0 0f d3 32 bc 10 ab c1 bd 80 7d b4 bd b1 12 96 bb
       -0.010914578 -0.09456456 -0.08813 -0.004579865
000100 92 29 0d bd 87 23 75 bb e3 35 1c bd 20 ca ac bd
       -0.034463473 -0.003740521 -0.038137328 -0.0843699
000110 a6 6d f7 3b 98 c6 32 3c df 48 cc 3c c7 f0 71 bc
       0.007550913 0.010911606 0.024937091 -0.014766878
000120 39 2a 2f bd 87 9a f6 3c eb 8a 77 3a d5 8f a0 bb
       -0.042764876 0.030102981 0.00094430026 -0.0048999586
000130 e8 c7 d5 bd f5 e7 45 bd 10 00 35 3c 0d f5 36 3c
       -0.1043852 -0.048316915 0.011047378 0.011166823
000140 1b 17 24 3d 6b 98 1b 3d 93 3c 04 bd 42 55 6a bd
       0.040061098 0.037987154 -0.03228433 -0.057210214
000150 b1 38 00 bd 16 05 b3 3c 3b d4 ec bc c5 d0 2f 3d
       -0.031304065 0.021853011 -0.028909793 0.042923708
000160 f3 bb 07 bb e7 09 90 bc 47 ec 0c 3b bf df ed bd
       -0.0020711392 -0.017582847 0.0021503137 -0.11614942
000170 08 4f 0e bd 9f 47 89 bd c1 36 07 bc bb 9f 91 3a
       -0.03474334 -0.06703114 -0.0082528 0.0011110225
000180 1d 7c 87 bd 7c 38 0c 3d 37 2f 53 bd 51 a2 c8 bd
       -0.066154696 0.034233555 -0.0515587 -0.097965844
000190 af 90 21 bc 3c c6 ba bd 59 9b be bc 22 6a 26 bd
       -0.009861155 -0.091198415 -0.023267435 -0.04062856
0001a0 41 2a 84 bd 23 8f 18 bc 93 58 3b bd 9a d2 2d bc
       -0.06453372 -0.00931147 -0.045738768 -0.010609293
0001b0 7c ab 93 bd 85 9e b8 3c 43 c2 a6 bd eb 4c 32 3c
       -0.072104424 0.022536526 -0.08142521 0.0108825965
0001c0 01 42 c0 bb c7 5f d2 bc b3 5d b8 bc ea b1 46 bd
       -0.0058672433 -0.025680436 -0.022505617 -0.048509516
0001d0 b3 ae 33 bc 09 b4 3e bd 68 c8 b6 bc 14 b2 2f bd
       -0.0109669445 -0.046558414 -0.022312358 -0.042894438
0001e0 31 42 7b 3a 73 52 41 bc c5 3f 89 bd 70 d8 8d bc
       0.00095847534 -0.011799443 -0.06701616 -0.01731512
0001f0 1c 1a 7e bc cc d8 70 3b 2d d5 30 bc cb 25 86 3b
       -0.015509155 0.0036750315 -0.010793013 0.0040938607

network_body._body_endoder.seq_layers.2.weight f4 [128, 128]
000000 fb 2d c9 3d 64 0c 3c 3e 26 e0 31 bd d3 4b 5d 3d
       0.09823223 0.18364102 -0.043426655 0.05402739
000010 a4 f7 86 bc c9 b4 06 3e 31 28 ae bd af 59 2d bd
       -0.016475506 0.13154902 -0.0850376 -0.042321857
000020 09 8d ac 3d 6d 6c 71 3e 00 8a 21 be 98 73 49 3e
       0.08425338 0.23576517 -0.15775299 0.19673002
000030 2f 1e 2d 3e 55 35 a4 3c 28 f6 d1 bd 7a e2 f4 bd
       0.16906045 0.020044962 -0.10252029 -0.119572595
000040 20 8d 6c bd 41 6f c4 bc bf 2a e5 ba 91 c6 86 3d
       -0.057751775 -0.023978831 -0.0017484053 0.06580842
000050 ae 14 9f 3d b1 e6 ab 3d bb b9 8e 3c 03 94 97 3d
       0.07767616 0.0839361 0.017422548 0.07401278
000060 22 d4 c7 3d 11 a4 6f bd c4 46 53 3e da 87 d9 3d
       0.09757258 -0.058506075 0.20632464 0.10621615
000070 58 f0 86 3b 5f 3f 84 3c be 04 9c 3c 23 75 3e 3e
       0.0041180067 0.016143499 0.01904523 0.18599372
000080 8a 4d e7 3a c5 f4 46 3d dc 4b 51 3e 73 d3 0a 3e
       0.001764701 0.048573274 0.20439094 0.13557224
000090 75 79 c4 bc 94 94 de 3d cf bf 8e bd 7b 99 5d bc
       -0.023983696 0.10868183 -0.06970178 -0.013525362
0000a0 bd f0 0d 3e d6 59 85 bb 9b c3 8d 3d cd c9 6e bd
       0.13861366 -0.004069547 0.069220744 -0.05829792
0000b0 d3 95 04 3d dc 98 19 3d 13 fa 93 bd 0e 5b 5b 3e
       0.032369446 0.037499294 -0.07225432 0.21421453
0000c0 ab 03 fc bd c0 77 34 be 72 f3 1a 3e a2 9c a0 bb
       -0.12305387 -0.17623806 0.1513193 -0.0049014846
0000d0 a9 53 07 3e 3b 3e 69 3d d8 94 44 3e e0 00 73 bd
       0.13215508 0.056944113 0.19197404 -0.059327006
0000e0 f4 94 8c 3d 2f 01 93 bd f0 72 79 3d a7 f0 40 3c
       0.06864348 -0.0717796 0.06090063 0.011776126
0000f0 7d 5e b0 3d ef 5a 9d bd 87 48 69 3d c8 39 77 3d
       0.08611772 -0.0768336 0.056953933 0.06035784
000100 e3 6b df 3d 10 0a 8a 3d bd 1b 9c bc 2f 7c 0b be
       0.1090925 0.067402005 -0.019056195 -0.13621591
000110 d4 ce ca 3b 47 38 84 3d aa fd 04 be d1 54 b3 bd
       0.0061892066 0.064560466 -0.1298739 -0.08756412
000120 07 08 a8 3d e1 03 52 be 50 86 8a be 9a fc 16 bc
       0.08204656 -0.20509292 -0.27055597 -0.009215498
000130 26 e3 8f 3d c2 44 d4 3d 7c f5 d0 3d 39 42 1d 3e
       0.07025747 0.10364677 0.102030724 0.15357293
000140 69 df 89 bd 64 1c 58 be ba 9f 6d bc d3 50 0c 3d
       -0.06732065 -0.2110458 -0.014503414 0.034256767
000150 38 8d 05 be 99 06 58 bd 5f bc 24 3d 9f 84 12 be
       -0.13042152 -0.052740667 0.040218707 -0.14308403
000160 f6 a1 7b bd e0 fc 9a bd 84 d9 84 3e cd 57 82 3c
       -0.061433755 -0.07567763 0.259472 0.015911007
000170 ef b1 26 3e af f2 34 3d ef e4 15 be 29 2a 04 3e
       0.16278814 0.044176754 -0.14638112 0.12906708
000180 1d 07 c6 bc 84 fa ef bd ff f4 0e 3e b9 5e 1b bc
       -0.024173314 -0.11717704 0.13960646 -0.009483033
000190 7a b0 aa 3c 99 db a0 3d 8b dc 8c 3d 49 9b 6f 3e
       0.020836104 0.07854385 0.06878003 0.2339908
0001a0 23 94 e7 3d cb 89 36 be 6c e8 0a 3d d9 02 d6 bc
       0.11307552 -0.17826001 0.03391306 -0.026124405
0001b0 70 7e a4 bd 1c 2f 13 bd b0 d2 46 3d b5 f6 fe 3c
       -0.080319285 -0.0359336 0.04854077 0.031123498
0001c0 af 9c a4 3d ae a4 df 3d fa 12 10 3e 49 48 c1 bc
       0.080376975 0.10920082 0.14069739 -0.023594039
0001d0 06 57 0a be 73 9b 33 be 79 f3 f9 3d 31 19 9f 3c
       -0.1350976 -0.17539768 0.12204642 0.019421192
0001e0 22 d3 08 3e 7c 99 97 bc da c2 8c 3e 92 c9 2c 3d
       0.13361791 -0.018505804 0.2749241 0.04218442
0001f0 60 55 56 3e fb 96 a8 3c 7d 78 10 3e f6 5b ed bd
       0.20931005 0.020579806 0.14108463 -0.11589806
000200 3a 6c 00 be 5f ea 9c bc 94 22 48 bd 7d 9e 50 3c
       -0.12541285 -0.019154726 -0.0488611 0.012733099
000210 14 f9 c3 bd c5 0d 1c be 4f d6 14 3e 28 44 6a bd
       -0.09568992 -0.15239628 0.14534877 -0.057193905
000220 78 e6 bc bd 3a 2f 5c be a3 63 df 3b 7e 31 93 3c
       -0.09223646 -0.2150239 0.0068172975 0.017967936
000230 c1 3a a8 bd 12 13 0c be 99 b6 54 3e 57 43 af 3d
       -0.082143314 -0.1367915 0.2077278 0.08557766
000240 bb f0 b9 bd 6e f8 df 3d 67 6b a4 3c 03 5a b3 3d
       -0.09079119 0.10936056 0.020070745 0.08757403
000250 0a e5 bf bd de 32 98 bd 7a 15 2a be e5 68 e7 3c
       -0.093698576 -0.07431577 -0.16609755 0.02824826
000260 c8 37 13 3e d7 c5 1b 3e a6 5e d8 3d 3b 47 46 bd
       0.14376748 0.15212189 0.10564928 -0.048407774
000270 57 50 04 3e 17 7c 30 3d 96 94 c6 3d a2 f4 50 bd
       0.12921272 0.04308709 0.09696309 -0.05101455
000280 e6 0b d8 3d 1e 0d 8f 3d f8 97 ff 3b 61 04 b9 3b
       0.105491444 0.06984924 0.0078000985 0.005646274
000290 29 74 1a 3e 29 58 17 3d 56 b2 1a bc ab 01 a1 3d
       0.15083374 0.03694931 -0.009441933 0.07861646
0002a0 f2 54 32 bb 6f fc 2c 3d 7e 44 71 bd 05 0d 9c bd
       -0.0027211276 0.042232927 -0.05890321 -0.07619671
0002b0 36 60 91 3c 5d 7b 97 3b 2e 91 92 3d 96 d7 df bd
       0.017746072 0.0046228603 0.07156597 -0.10929792
0002c0 03 be da 3b e9 fe 4a be 12 4a 56 3d 41 4f ed bd
       0.006675483 -0.19823803 0.052316733 -0.11587382
0002d0 35 43 37 bb f2 9a 61 bd 5d df 31 be d7 bf a3 3d
       -0.0027963642 -0.055079408 -0.17370363 0.07995575
0002e0 a4 45 26 bd fb fe 20 be 81 8b 5a 3e 29 0a b6 be
       -0.04059376 -0.15722267 0.21342279 -0.35554627
0002f0 73 3d 57 bd 5b d3 9b 3c 19 7d 48 be d4 cf 18 3d
       -0.052548837 0.01902168 -0.19578971 0.037307575
000300 e3 48 10 bd 21 dd 72 3d bf 2f 67 be c6 99 9f bd
       -0.03522576 0.059292916 -0.22576807 -0.07793002
000310 38 a9 b9 bc 3a 4b bc 3d 81 71 fa 3d cb 33 14 be
       -0.022663698 0.09194036 0.122286804 -0.14472882
000320 a7 46 97 bd be 60 51 bd 0c 25 54 3d 7e df 1e 3e
       -0.07386523 -0.05111765 0.051793143 0.15514943
000330 a7 53 2f 3e d7 04 80 3d 59 a9 9b bd 71 25 24 bd
       0.17121755 0.06250923 -0.0760066 -0.04007477
000340 8f 83 e3 3d 93 b8 ee bd 92 5d b4 bd 22 28 4b 3b
       0.11109077 -0.116562985 -0.088069096 0.0030999263
000350 8f 8e 23 be 48 4b f7 bd b0 27 34 bd 20 dd 36 bd
       -0.1597235 -0.12074906 -0.04398316 -0.044644475
000360 66 00 cc 3a 6b af d8 bc 6e 03 16 3e c2 3e 1f 3d
       0.0015564084 -0.026450833 0.14649746 0.03887821
000370 9e 9b 1a be a2 d9 8e bd 12 24 b8 3d d0 11 88 bb
       -0.15098426 -0.06975104 0.08991255 -0.004152514
000380 e7 7c 96 bc 9d 3c 11 be dc 0c b5 3d a5 b9 1e 3e
       -0.018370105 -0.14183278 0.08840343 0.15500505
000390 bb 75 d3 3c bd fa 68 3d 44 ca 75 3e 7b a5 b4 bd
       0.025812974 0.056879748 0.2400294 -0.088206254
0003a0 9b 41 a9 3d 93 aa 8a bc a9 d5 88 3d ac 16 6c bd
       0.082644664 -0.01692704 0.066813774 -0.05763881
0003b0 2f d8 f1 bd 00 95 65 bd 20 d4 c4 3c 83 c7 e7 bd
       -0.11808812 -0.0560503 0.02402693 -0.11317351
0003c0 46 95 83 3d 89 0e 9f 3c d7 01 35 3e 34 c0 bf 3d
       0.06424956 0.01941611 0.17676483 0.09362832
0003d0 2f 8f 48 3e 9c 12 2b 3d cc a1 5b 3e eb bb 7d bd
       0.1958587 0.041765794 0.2144844 -0.06194679
0003e0 26 48 16 3d b3 8d bf bd 1d 8c 0f 3c 88 70 c6 3d
       0.0366899 -0.09353199 0.008761433 0.096894324
0003f0 ba 02 a0 bd 4d 21 ab 3d da 75 07 be 49 a6 53 3b
       -0.0781302 0.08355961 -0.1322855 0.0032295159

network_body._body_endoder.seq_layers.2.bias f4 [128]
000000 a5 81 87 bd a4 37 64 3c f2 f1 3f bc 8e 16 26 bd
       -0.066165246 0.013929281 -0.011715399 -0.040548854
000010 4e 9d 19 3d 23 5e d5 bc c7 7e 22 bd c6 62 ee bc
       0.037503533 -0.026045864 -0.039671686 -0.029099833
000020 fc 9c 17 bd 32 8b 71 bc a5 1c 28 bd c2 e2 6a bc
       -0.037014946 -0.014742659 -0.041042943 -0.01433629
000030 53 7d 79 bc 9b b4 0f bc 8e d2 49 bd 84 24 13 bc
       -0.0152276335 -0.008771087 -0.049273066 -0.008980874
000040 96 2f 5f bd 0d 4f d9 bc 7f 24 65 bd 47 73 e2 bc
       -0.05448874 -0.026526952 -0.05594301 -0.02764286
000050 2e 44 4f bd d4 8f 69 bd bc 6c a5 bc f1 44 17 bd
       -0.05060213 -0.05702193 -0.02019345 -0.036930982
000060 e3 1b 10 3d db 47 3e bd 41 4d 36 bd 6a 3b ba bd
       0.035182845 -0.046455245 -0.04450727 -0.090933636
000070 97 e3 e7 bc 5f 3e f6 bc f0 26 bd bd e6 3e 3c bd
       -0.028306765 -0.030059038 -0.09235942 -0.045958422
000080 7d b1 e9 bc ff 4b 6f bd e6 f4 b5 bd b0 92 15 bd
       -0.028527016 -0.058422085 -0.08884601 -0.036516845
000090 79 9c a8 bc 68 9c ee bc 1c ea e7 bc 71 c8 f6 bc
       -0.020582424 -0.029127315 -0.028309874 -0.030124875
0000a0 72 c9 07 bc 59 69 9d bd c2 4d 59 bd bc 96 88 bd
       -0.008287774 -0.07686109 -0.05305267 -0.06669375
0000b0 d8 8f 03 bd 9a 34 43 bd 39 f3 b6 39 5b 18 e5 bc
       -0.032119602 -0.047657587 0.0003489496 -0.027965715
0000c0 20 c2 c6 bc 6e 47 7b 3c 9e 84 95 bc aa eb 8e bb
       -0.024262488 0.015336854 -0.018251713 -0.0043615894
0000d0 74 f9 29 3d 30 f3 18 bd 68 5a 7a bc 3f 3f 69 bd
       0.041497663 -0.037341297 -0.015280344 -0.05694508
0000e0 57 6c 2c 3d ec ed 1b bd 52 6a 4d 3c 9a 1b 12 bc
       0.04209551 -0.038068697 0.012537556 -0.008917714
0000f0 33 5b a6 bd 7e e6 4c bd 33 3a b1 3d c9 61 c9 bc
       -0.081228636 -0.050024502 0.08653679 -0.02458276
000100 75 04 a0 bd 0c 9d 64 bd 57 e5 ca 3c e9 92 8e 3c
       -0.0781335 -0.055813834 0.02476756 0.017404037
000110 43 77 f7 ba f7 9a b5 3c 99 71 9b bb ba ac ad bc
       -0.0018880147 0.02216862 -0.0047437665 -0.021200527
000120 73 41 72 bc 62 93 94 3c 7d d7 6b bd 3d ec a7 3d
       -0.014786112 0.018136684 -0.057578553 0.08199356
000130 f9 1e 06 3d 02 49 4e bd 69 c7 ad bd 09 42 37 bd
       0.03274438 -0.050362594 -0.084853 -0.04474071
000140 ff f0 17 bd 6e 5d a9 bc 78 de 28 bb 57 df 81 3c
       -0.037095066 -0.020674434 -0.0025767367 0.015853567
000150 3e ec 22 bd 3d 9c 9d bc 81 36 29 bd 66 27 e1 bc
       -0.03977608 -0.01923954 -0.041311745 -0.027484607
000160 b0 cd 9d bc 3d 2c ac bd cc 0d e3 bc 04 0c 4d bc
       -0.019263119 -0.08406875 -0.02771654 -0.012515072
000170 0b 35 37 bd d2 b2 61 bc d5 44 00 bd f0 6f 52 bd
       -0.04472832 -0.013775544 -0.031315643 -0.051376283
000180 3b d7 2e bc 7e 2b c0 3c 4f d9 7c bd e5 8d 84 bc
       -0.010671432 0.023458239 -0.06173068 -0.016180942
000190 90 47 ce bc 65 71 60 bd 71 65 e5 3c 58 2b 37 bd
       -0.025180608 -0.05479564 0.028002473 -0.04471907
0001a0 51 f3 c2 bc 90 87 63 bd 9c df 8a bd 41 52 7a bd
       -0.023797663 -0.055549204 -0.06780931 -0.0611136
0001b0 a2 47 6d 3c 75 fc 07 be 1e 20 ec bc 42 c0 0c 3c
       0.014482411 -0.13279898 -0.028823908 0.00859076
0001c0 a0 77 f0 ba ff b8 8f bd 96 f4 dc 3c 32 4a 20 bc
       -0.0018346198 -0.07017707 0.026972096 -0.009783315
0001d0 86 1d 12 bd 6a 71 11 bd 95 f4 53 bd 62 b6 09 3c
       -0.035672687 -0.03550855 -0.051746923 0.0084053
0001e0 68 58 10 3d 92 20 68 bd 2c 61 31 bd 87 25 92 bd
       0.03524056 -0.056671686 -0.04330556 -0.07136064
0001f0 18 c5 a1 bc c2 e1 e8 3b 99 01 7f bd 2a 4f 25 bd
       -0.019747302 0.0071069906 -0.062257383 -0.0403587

action_model._continuous_distribution.log_sigma f4 [1, 2]
000000 af 53 2e bf fa 0c 25 bf
       -0.6809644 -0.64472926

action_model._continuous_distribution.mu.weight f4 [2, 128]
000000 13 cc b6 3d bc 77 66 3d e9 d2 fb bb 72 6d 5d 3d
       0.08925643 0.05626653 -0.0076850546 0.054059453
000010 d8 b3 0b bb b4 b1 a2 3d 86 a8 5d 3d ff eb dc 3d
       -0.0021316912 0.079440504 0.054115795 0.107872
000020 b9 3c e0 3d 7d 37 5e 3d 1b 60 93 3d fa 70 8b 3d
       0.10949082 0.054252136 0.07196065 0.06808658
000030 c0 7d 65 3d ab f5 92 3d 1b 4a 0b 3d 35 c2 87 3d
       0.056028128 0.07175764 0.03400622 0.06628839
000040 d2 0d c3 3d f8 45 ce 3d 3b 0f f0 3c 1c 33 eb 3d
       0.095241204 0.10071939 0.029304137 0.11484358
000050 0f 37 84 3d 10 1e 57 3d 05 4e 57 3d 8e a4 03 3e
       0.06455814 0.052518904 0.05256464 0.12855741
000060 89 d9 33 3b 74 64 c6 3d bf fd 7a 3d f6 ec e0 3d
       0.0027442893 0.09687129 0.061277147 0.10982697
000070 52 92 b7 3d c8 3d d1 3d 10 1e a5 3d d0 56 b5 3d
       0.08963455 0.10216862 0.080623746 0.08854449
000080 9f 1c 5e 3d 7c 6b b3 3d 57 b5 00 3d 4d 4c 8d 3d
       0.054226514 0.087607354 0.03142294 0.06899319
000090 ca e5 bb 3b 7a 9a 77 3d 73 8d 77 3d d7 9f 24 3d
       0.00573418 0.060450055 0.06043763 0.040191498
0000a0 7f 8b 25 3c 2e 14 5f 3b 3d 27 eb 3d df 1f d6 3d
       0.010104059 0.0034039128 0.114820935 0.10455298
0000b0 25 ec b6 3d 74 88 63 3d 19 d9 da 3d 69 d7 79 3d
       0.0893176 0.055550054 0.10685939 0.060996447
0000c0 68 38 55 3d 16 3f 03 bd 32 9d ab 3c 9a e5 ed 3c
       0.052055746 -0.032042585 0.02094898 0.029040147
0000d0 b7 75 5a bd ce 5e 58 3d 19 df 87 3d 56 5c 87 3d
       -0.053334918 0.052824788 0.066343494 0.066094086
0000e0 f8 05 9c bc 3c 18 f2 3c 33 8c 0a 3c 30 1e d1 3d
       -0.019045815 0.029552571 0.008456278 0.10210836
0000f0 e2 93 b1 3d 80 c2 8c 3d 8e 1e e0 bd 14 e4 a3 3d
       0.086707845 0.068730354 -0.10943328 0.08002487
000100 0a e4 fb 3d 77 57 28 3c 0b a5 13 bc f9 22 f7 3c
       0.122993544 0.0102747595 -0.009011517 0.030168043
000110 7c 2e be 3c fe b2 36 bc b1 4c e6 3c 33 ff db 3d
       0.023215525 -0.0111510735 0.028112741 0.10742035
000120 d1 51 13 bc ae 06 fc 3b d6 b1 07 3e 74 1f cd bd
       -0.0089916745 0.007691226 0.13251433 -0.10015765
000130 ef 35 1c bd 1a d8 b7 3d 96 8b 56 3d f4 fd b1 bb
       -0.038137373 0.08976765 0.052379213 -0.005431885
000140 ed 99 b9 3d 32 2b d3 3d dc 5d bb 3d 19 cd 3b 3a
       0.09062562 0.10310973 0.09148762 0.0007164046
000150 0d e6 b5 3d 8f 17 ad 3d 8d 55 bf 3d 9e a2 c0 3d
       0.08881769 0.08451759 0.093424894 0.09406017
000160 d0 d7 da 3c c3 f5 d3 3d d4 94 d4 ba bd bb ab 3c
       0.026714236 0.1034961 -0.0016218671 0.020963544
000170 62 c2 ce 3d c5 e6 bf 3d 84 c8 5d 3d ca 7f 33 3d
       0.10095669 0.09370188 0.054146305 0.04382304
000180 83 b0 d6 3d 26 af 8a bc 0a 7f 36 3d 60 82 8f 3c
       0.10482886 -0.01692922 0.044554748 0.017518222
000190 7d 33 e9 3d 84 30 67 3d 04 00 6b bc f6 bc 01 3d
       0.11386774 0.056442752 -0.014343265 0.031674348
0001a0 b9 27 f4 3a 94 66 cc 3d e5 da 6d 3d 45 e9 1c 3d
       0.0018627561 0.09980503 0.058070082 0.0383084
0001b0 f7 aa a7 3c 3a b6 e7 3c 2b 7f b7 3d be 0c 86 bc
       0.020467265 0.028285135 0.08959802 -0.016363498
0001c0 95 94 4a bb 98 08 42 3d ca 8a ff 3b 15 b9 7d 3d
       -0.0030911316 0.047371477 0.0077985274 0.061944086
0001d0 3b a8 b3 3d a1 f5 0e 3c dd fe bf 3c a4 f9 0c 3b
       0.08772322 0.008725555 0.023436958 0.0021511102
0001e0 1a 68 8c bc 4d 48 60 3c e6 88 82 3d 7e 68 ea 3d
       -0.017139483 0.013689113 0.063737676 0.114457116
0001f0 3b 7f b4 3d 14 aa 9f bb c0 61 e4 3c 5d 76 54 3d
       0.0881333 -0.00487257 0.027878642 0.051870693
000200 4d 17 1f bc 49 3b fd 3c cc 45 7b bc fd 6f 1f 39
       -0.009710145 0.030912058 -0.015336465 0.0001520514
000210 f4 99 43 bc 7e 35 a3 3b a3 73 11 3d fe d9 20 bc
       -0.011938561 0.004980742 0.03551067 -0.009817598
000220 7f f9 5f bc 04 7b 55 bc 9a 25 75 bb 8c a5 73 3c
       -0.013670324 -0.0130298175 -0.0037406445 0.014871012
000230 ed ef 1c bc 47 04 b6 3c c1 b3 8f bc f6 43 f2 bc
       -0.009578687 0.022218836 -0.017541768 -0.029573422
000240 46 fa e1 3b ae 6b f5 bb 8c 39 af bc 58 51 ae bc
       0.00689629 -0.007489643 -0.021389745 -0.021279022
000250 07 c1 41 3b fa d8 47 3b 70 17 17 bc 01 46 75 bc
       0.0029564516 0.0030494318 -0.0092218965 -0.0149703035
000260 4a 45 81 3c 33 29 1e bc 08 68 3d 3c 4e 93 9b 3a
       0.01578011 -0.009653377 0.0115604475 0.0011869462
000270 f7 0f 32 3d 33 fd c7 3b 00 51 b4 3c 6c d3 35 bc
       0.043472257 0.0061031817 0.02201128 -0.01109777
000280 f1 61 90 bc e4 53 a6 3c ba 6a 19 3b 8c ab ed ba
       -0.017624827 0.020303674 0.0023409561 -0.001813279
000290 45 b3 59 ba a4 d2 a4 bc 84 0a 21 3d d6 df 40 3d
       -0.00083046063 -0.020119973 0.03931667 0.047088467
0002a0 41 de ab bb f9 60 02 ba 35 8f 1e 3c 42 0a 0e bc
       -0.0052450006 -0.00049735565 0.009677698 -0.008669438
0002b0 f0 26 5e bc 72 2b 53 3c 79 3c ca ba c5 c1 c7 3c
       -0.013559088 0.012888776 -0.0015429399 0.024384389
0002c0 79 f0 9d 39 5a 0d 6e bc c2 50 da ba 30 c4 48 3d
       0.0003012454 -0.01452955 -0.0016656148 0.049015224
0002d0 f3 07 b1 bc 87 0c fd 3c e2 e5 c8 bb 85 0a 7e 3a
       -0.021610236 0.030889763 -0.00613092 0.00096908986
0002e0 b2 7a 0a bc 37 18 0a 3d d8 67 89 3d dc 8a 2f bc
       -0.008452104 0.0337145 0.0670926 -0.010714259
0002f0 b8 ee e6 3b 0d 09 77 3c 6d cd ce bb c7 68 3a 3c
       0.0070475005 0.0150778415 -0.0063111098 0.01137752
000300 87 a7 d7 3a 42 0a 0a bb fd 11 3e bd 6d ce 36 bd
       0.0016453125 -0.0021063243 -0.046403874 -0.044630457
000310 81 e9 aa 3c 32 32 09 3c 15 ec 28 3c 98 da 0d 3a
       0.020863296 0.008373784 0.010310193 0.0005411296
000320 41 4e 7b 3d 33 ca 3e 3c 65 f6 91 bc 9d 62 ba bc
       0.061353926 0.011644888 -0.017817685 -0.0227521
000330 bf 3c 58 bc 32 f6 bb 3b b9 9e 17 bc 6b fd 62 bc
       -0.013198077 0.005736136 -0.009254151 -0.013854365
000340 9e fc 46 bd 6b ce c5 bc fb 60 bc bc 06 c1 1e bc
       -0.04858076 -0.02414628 -0.022995463 -0.009689575
000350 98 fb 36 3c 7c ce fa bc 6e 30 b3 bb 60 a3 01 bd
       0.011168383 -0.030616038 -0.0054684198 -0.031649947
000360 91 f5 85 3c f0 65 fe bb a6 57 e1 bc c2 40 49 3d
       0.016352447 -0.0077636167 -0.027507614 0.049134023
000370 d8 eb e3 bc 66 01 eb 3c b7 0e 71 3c 40 57 e9 bc
       -0.02782242 0.02868719 0.014712981 -0.028483987
000380 1f ea 1d bd 4e 2b 3b 3c d4 75 27 3b e3 f6 1a bc
       -0.038553353 0.011423899 0.0025552409 -0.009458276
000390 b2 92 8e bc 1d e5 13 3d d6 17 13 bc 54 00 a7 39
       -0.017403934 0.03610717 -0.008977851 0.00031852967
0003a0 aa b4 a8 3c af 7d 13 3d cd a1 06 3c bb 8a e9 3b
       0.02059396 0.036008533 0.008217287 0.0071271337
0003b0 c2 3c ab bc 72 0e d8 39 be 92 7e 3c 17 f6 2c bd
       -0.020902995 0.00041209493 0.015537916 -0.042226877
0003c0 07 ce ca bc 4a 0b 40 3c db 24 e9 3c f1 5c d2 3b
       -0.024756445 0.0117214415 0.028459957 0.006419771
0003d0 f4 b2 a6 3b c5 8e bd ba 6f 0c 02 3c 49 9c 44 3b
       0.005087251 -0.0014462104 0.007937535 0.003000038
0003e0 72 4b 4a 3c 2f 79 63 3c bc 61 27 bc 77 9f e8 bc
       0.012347089 0.013883873 -0.010216173 -0.028396351
0003f0 36 cb 9e bc 5e 1f 91 bc 36 e3 ac b9 da ad 7d bc
       -0.019384008 -0.017715152 -0.00032975682 -0.015483344

action_model._continuous_distribution.mu.bias f4 [2]
000000 2c 8a eb bd a4 88 86 3c
       -0.115009636 0.016422577

action_model._discrete_distribution.branches.0.weight f4 [1, 128]
000000 df c6 df ba 03 66 8f 3c 60 42 78 3c c3 12 9f bb
       -0.0017072818 0.017504698 0.015152544 -0.0048545315
000010 5f 5c 4d bb 76 51 35 bc 07 3a 16 bb 0a ad 85 3c
       -0.0031335575 -0.011066785 -0.002292277 0.016317863
000020 83 38 70 bb b2 be 35 3b 47 07 d1 bb 94 27 bb b9
       -0.0036654777 0.0027732071 -0.0063790414 -0.00035696907
000030 5c d9 86 bc 73 6d 08 bc 67 e5 35 3c 7d 9a 4f 3a
       -0.016461067 -0.008326876 0.011102057 0.0007919444
000040 ac 48 15 bc 4b 22 07 3b ad 30 bb b9 87 93 ca bb
       -0.009111565 0.0020619805 -0.00035703686 -0.0061821374
000050 1b 1c c5 ba 29 23 01 3c 53 6d a8 ba e7 b3 06 3b
       -0.0015038283 0.007881918 -0.0012849964 0.0020554007
000060 a7 76 83 3b 05 59 d7 3b 95 7a e0 3b f7 35 29 3c
       0.004011947 0.0065718913 0.0068505504 0.010327808
000070 7f 18 8a bb 8a ee 4e 3c aa 2e 72 bb d3 be e1 3b
       -0.004214346 0.012630114 -0.0036954083 0.006889203
000080 60 a9 d2 3a 35 73 93 bb 17 57 1b bc 70 e2 e6 3b
       0.0016072206 -0.0044998177 -0.009481213 0.0070460364
000090 b1 56 80 3c d7 92 7a bb cc ab 9a bc 2f 83 95 3b
       0.015666338 -0.0038234496 -0.018880747 0.0045627574
0000a0 8b e5 e1 ba b5 50 b4 3c 5f ce 06 3b 63 ca 17 bc
       -0.0017234547 0.02201114 0.0020569784 -0.009264561
0000b0 36 95 35 3c 2d 9a 0f bc 4d 3a 46 39 ab d4 fa 39
       0.011082938 -0.008764786 0.0001890447 0.00047842166
0000c0 d2 5e 4f 3c 1b d5 8d bb b3 9e b6 bb 6b 7d 18 bc
       0.012656884 -0.0043283827 -0.0055731176 -0.009307246
0000d0 63 4b 07 bb 90 31 b5 bb 50 20 d6 3c c7 0f 03 3b
       -0.00206443 -0.00552959 0.026138455 0.0019998418
0000e0 78 f4 ba 3b 63 4d 11 ba 58 dc ae 3b 53 1a dc 3b
       0.0057054125 -0.00055428426 0.0053363256 0.0067170053
0000f0 30 40 55 bc d7 a4 ea bb 7c 88 1c 3c 4f 98 07 3c
       -0.013015792 -0.0071607637 0.009554025 0.008276059
000100 03 14 6f bb 9f 72 02 bc 8b 8c 08 ba ea ca b1 3b
       -0.0036480434 -0.007961898 -0.0005208931 0.0054258006
000110 77 27 cf 3a db fe 02 bb ff c3 f6 3b 0f 5d 56 bb
       0.0015804608 -0.0019988331 0.007530689 -0.0032709276
000120 86 e2 8e 3b 31 30 0f 3c 93 c7 69 bc 3f 3b 3d bb
       0.0043605 0.008739517 -0.014268774 -0.0028874425
000130 f8 1f 8d 3b 83 ea f5 bb 07 3c 94 3c fc 3f 34 3b
       0.0043067895 -0.0075047626 0.01809503 0.0027503958
000140 f1 83 3b bc d1 b0 02 bb 43 8c 1a bc 92 f9 ed 3b
       -0.0114450315 -0.0019941817 -0.009432855 0.007262417
000150 13 b9 10 3c 8d 64 0c 3c 0d 35 53 3c 63 70 a7 3b
       0.008833188 0.008568895 0.012891066 0.005109833
000160 e8 7a f8 b9 ba bc 97 bc 5e f3 44 3b 23 14 bd 3b
       -0.00047393818 -0.018522609 0.0030052285 0.0057702227
000170 3b 2b 14 3c ea 1a 73 bb 72 c3 63 bc 4c db b8 b9
       0.00904351 -0.00370949 -0.013901578 -0.00035258604
000180 ac 96 92 bb 4d de bc ba 6b 52 a3 ba 5b 68 f0 bb
       -0.004473528 -0.0014409513 -0.0012460476 -0.007336659
000190 8a b2 27 3b b2 40 1e bc 2a 9b 34 3c f0 66 66 3c
       0.0025588595 -0.009658979 0.011023322 0.014062628
0001a0 22 f0 06 3a c3 aa a8 bc ff 5d 91 bc 9b 02 1f 3c
       0.0005147477 -0.020589238 -0.017745016 0.009705211
0001b0 2e d8 40 3b 67 72 6e bb 6f a8 dd 3a ab 52 e2 bb
       0.0029425728 -0.0036384107 0.0016911159 -0.0069068274
0001c0 90 e6 f4 ba 12 c8 9c 3b f3 1e 72 bc 7f b8 3c bc
       -0.0018684436 0.0047845924 -0.014777887 -0.011518597
0001d0 b8 8e d3 3a a0 e8 13 3c 73 5a 9f 3b 8f 65 dd bb
       0.0016140556 0.00902763 0.0048630773 -0.0067564915
0001e0 a8 fd f3 3b 08 a6 dd bb 12 9d 68 bc b0 13 21 3b
       0.0074460097 -0.0067641772 -0.014197605 0.0024578385
0001f0 b7 a3 10 3c d8 b5 53 3b bd 50 d3 3b ff 8c 33 3c
       0.008828095 0.0032304432 0.0064488337 0.010958909
