Assets/Objects/Brains/DumbBrainV3.onnx (onnx, 252010 bytes, 8 tensors)

network_body._body_endoder.seq_layers.0.weight f4 [128, 345]
-0.08792991 0.11624983 -0.05410625 -0.050475195 0.07541352 0.040374067 0.15494098 -0.026878666
-0.031682387 0.037274137 0.08548828 0.05516202 0.07953958 -0.0025770245 -0.0140122315 0.010116069
0.047133733 0.026647039 -0.13468704 0.034202814 0.01301046 0.03843095 -0.018534984 -0.04337141
0.02846154 -0.004377224 -0.02310492 -0.045671146 0.065980904 0.013275245 -0.034094177 0.076772146
0.07616428 0.09718641 0.0022317718 -0.06910465 -0.03791943 0.03452857 -0.038703203 -0.0020075701
-0.023552183 -0.020624164 -0.014204949 -0.05209242 0.0022921527 -0.14760916 0.012525518 -0.040721595
0.059399024 0.040698 0.14596914 0.061682418 -0.039291505 0.032586087 0.05156538 0.018715305
-0.043102074 0.062325206 -0.022182921 -0.021881085 -0.13191533 -0.05624814 0.019208191 0.03980434
0.0320665 -0.02317648 -0.05970105 0.036050767 -0.10308639 0.013306508 -0.027810019 -0.037554793
-0.07022916 -0.14579815 -0.032473642 0.07363781 -0.029296244 0.030226886 0.035272434 -0.045044255
-0.021271328 0.061681997 -0.052981935 -0.06801916 -0.015438163 -0.073375456 0.11938744 0.0903921
-0.012499415 -0.03885878 0.029323714 -0.006092975 0.075706564 -0.0067374175 0.039697085 -0.017185628
-0.10195364 -0.039338976 0.013123878 0.05532269 0.04497147 -0.074612044 -0.12507612 0.045616236
0.028189307 -0.030545922 -0.02956604 0.024518607 0.070497625 -0.06369582 -0.052924637 -0.07446979
-0.060920738 0.08442527 -0.062311213 -0.08606528 -0.041821018 -0.02480484 0.09584647 0.021308338
0.019112032 -0.06846478 0.06931397 -0.009233801 0.013563981 0.062467404 -0.016202154 0.019544823
-0.08297156 -0.045323506 0.06618334 0.08185459 -0.09234585 -0.062924944 -0.07105599 -0.030511238
0.030857643 -0.04087197 0.05794666 -0.001421705 -0.0018051048 -0.008135893 0.0011743905 0.045185804
-0.046947937 -0.0803323 0.02023859 -0.0012354126 -0.002099743 0.009122709 -0.109736264 0.01819564
-0.040346842 -0.049899183 0.013028488 -0.09956522 0.07995871 0.019594492 -0.041338123 -0.04920659
-0.08488017 -0.043410856 0.086955056 0.07310783 0.04665111 0.014493499 0.030274043 0.022247355
0.054913994 -0.040015653 -0.028648278 -0.10693744 -0.02294651 0.027349507 -0.037351098 -0.008714917
-0.025678398 -0.022533758 0.050340913 -0.008681138 -0.10516773 -0.027794028 -0.024067337 0.028885711
0.08173981 0.046772324 0.032297418 -0.11134803 -0.07890377 -0.038570307 0.0035297081 -0.0454828
-0.0794399 -0.028910944 -0.06505479 -0.027047643 0.05931316 -0.00854602 -0.09305691 -0.07416538
-0.003998427 0.044501357 -0.046347126 0.0061023342 0.021017905 0.007923281 0.07437682 -0.053659253
-0.08126981 0.018518394 0.011483817 0.08168325 -0.037045393 0.08682948 -0.042435948 -0.1310796
-0.017555023 -0.0011621441 -0.066120856 -0.11882996 0.048281465 0.011570112 0.0038167855 0.044678178
0.0797491 -0.1037579 0.018234875 -0.0114635 -0.016756112 -0.006891091 0.07671582 0.08864601
-0.06703908 -0.13936901 -0.12185609 -0.05777854 -0.006485694 -0.0002836083 0.03556409 -0.07766409
-0.050405763 0.009765014 0.13568245 0.002823962 0.024103796 -0.064332955 0.042460915 0.020822436
-0.053572636 0.046156634 0.09423797 -0.09907269 -0.007929411 0.105828755 0.0019835238 0.011788781
00000000: 9914 b4bd 6414 ee3d 849e 5dbd 14bf 4ebd
00000010: 6772 9a3d 475f 253d d9a8 1e3e a630 dcbc
00000020: 64c5 01bd c4ac 183d 7b14 af3d 92f1 613d
00000030: a6e5 a23d 4ce3 28bb 8f93 65bc debd 253c
00000040: 4d0f 413d e44a da3c 66eb 09be 4018 0c3d
00000050: d329 553c c669 1d3d aed6 97bc 38a6 31bd
00000060: 2d28 e93c d16e 8fbb 8746 bdbc ab11 3bbd
00000070: ff20 873d 6a80 593c 56a6 0bbd b73a 9d3d
00000080: 05fc 9b3d ab09 c73d eb42 123b bd86 8dbd
00000090: 6751 1bbd d46d 0d3d 4087 1ebd 7091 03bb
000000a0: 82f0 c0bc 02f4 a8bc e0bb 68bc dd5e 55bd
000000b0: f137 163b db26 17be d537 4d3c b0cb 26bd
000000c0: 644c 733d f2b2 263d ef78 153e b4a6 7c3d
000000d0: 21f0 20bd fd78 053d 3836 533d d750 993c
000000e0: cd8b 30bd b748 7f3d f5b8 b5bc f63f b3bc
000000f0: d014 07be 7364 66bd 7f5a 9d3c e009 233d
00000100: 2a58 033d 9adc bdbc 1789 74bd f8a9 133d
00000110: f51e d3bd 8a03 5a3c d6d1 e3bc 0ed3 19bd
00000120: 4ed4 8fbd 1c4c 15be 1503 05bd 6ccf 963d
00000130: adfe efbc 609e f73c d479 103d 5380 38bd
00000140: 3541 aebc 43a6 7c3d 9603 59bd a14d 8bbd
00000150: 59f0 7cbc df45 96bd 6781 f43d 7e1f b93d
00000160: 59ca 4cbc 622a 1fbd 4938 f03c 94a7 c7bb
00000170: 0b0c 9b3d 8ec5 dcbb 6999 223d e0c8 8cbc
00000180: 12cd d0bd e821 21bd 8905 573c 0c9a 623d
00000190: 0134 383d 33ce 98bd f413 00be 17d8 3a3d
000001a0: 43ed e63c 713b fabc 7b34 f2bc 3fdb c83c
000001b0: 0f61 903d f472 82bd 81c7 58bd 9e83 98bd
000001c0: 0688 79bd 28e7 ac3d 0b3a 7fbd fe42 b0bd
000001d0: 844c 2bbd 8533 cbbc 274b c43d d38e ae3c
000001e0: d690 9c3c 4337 8cbd 7cf4 8d3d 5e49 17bc
000001f0: 763b 5e3c d2dd 7f3d 61ba 84bc 771c a03c
00000200: feec a9bd 24a5 39bd 228b 873d 61a3 a73d
00000210: d21f bdbd cbde 80bd ce85 91bd b4f2 f9bc
00000220: 2bc9 fc3c 5e69 27bd 7a59 6d3d 8158 baba
00000230: 4499 ecba 694c 05bc 02ee 993a c014 393d
00000240: 7b4c 40bd 4385 a4bd 66cb a53c 91ed a1ba
00000250: d89b 09bb 6a77 153c 68bd e0bd 060f 953c
00000260: bb42 25bd 1663 4cbd 7075 553c dae8 cbbd
00000270: 64c1 a33d a184 a03c 2a52 29bd d98c 49bd
00000280: a8d5 adbd 95cf 31bd 7e15 b23d 8fb9 953d
00000290: 3c15 3f3d 2476 6d3c 4501 f83c 1640 b63c
000002a0: 7fed 603d 74e7 23bd cbaf eabc 0402 dbbd
000002b0: 52fa bbbc 130c e03c 77fd 18bd 03c9 0ebc
000002c0: 815b d2bc b798 b8bc 4632 4e3d 553b 0ebc
000002d0: 2e62 d7bd 4db0 e3bc dd28 c5bc baa1 ec3c
000002e0: 3467 a73d 5694 3f3d 4c4a 043d 700a e4bd
000002f0: 4d98 a1bd e6fb 1dbd ad52 673b 2c4c 3abd
00000300: 63b1 a2bd a5d6 ecbc 723b 85bd 0593 ddbc
00000310: 5bf2 723d 9b04 0cbc 9f94 bebd 05e4 97bd
00000320: 3d05 83bb 0e47 363d 7cd6 3dbd 17f6 c73b
00000330: be2d ac3c a6d0 013c e052 983d cec9 5bbd
00000340: c970 a6bd e3b3 973c 9f26 3c3c 8c49 a73d
00000350: e9bc 17bd a8d3 b13d 51d1 2dbd bb39 06be
00000360: 8dcf 8fbc 1653 98ba 5f6a 87bd 1f5d f3bd
00000370: c9c2 453d 9190 3d3c 0923 7a3b 7700 373d
00000380: 7f53 a33d 067f d4bd 4e61 953c 67d1 3bbc
00000390: 1d44 89bc a9ce e1bb 2f1d 9d3d 0a8c b53d
000003a0: c94b 89bd c0b6 0ebe b08f f9bd 31a9 6cbd
000003b0: f285 d4bb 43b1 94b9 a7ab 113d 5a0e 9fbd
000003c0: 4676 4ebd 70fd 1f3c 57f0 0a3e 3812 393b
000003d0: 5375 c53c ffc0 83bd 7feb 2d3d d093 aa3c
000003e0: fb6e 5bbd bd0e 3d3d d6ff c03d 9fe6 cabd
000003f0: 5cea 01bc bfbc d83d 02fe 013b bb25 413c

network_body._body_endoder.seq_layers.0.bias f4 [128]
-0.0059511755 0.007230793 0.004798934 -9.392863e-05 0.0032749483 0.0041759824 -0.0056968844 0.0055331606
0.002628002 0.007494597 0.005789562 0.00031447114 0.00931268 -0.00858907 0.0017731349 0.010774282
0.0015850369 -0.007237331 0.003940387 -0.006770039 -0.0068733105 0.0017390151 -0.00233428 -0.0036879932
0.008217002 0.00987404 -0.0050647077 -0.004912748 0.005518456 0.005567606 0.0045182616 0.0062074047
-0.0075066444 0.0076868027 0.0039491006 0.0093647465 -0.0015671068 0.0074803242 0.0049279304 0.0026501974
0.0032157025 0.015933061 0.008671401 0.006262593 0.006141485 -0.0055274135 -0.0028195856 -0.0007789992
0.0050758887 0.0021303953 -0.0070128045 0.008157529 0.0089358315 0.005755248 -0.0001701725 -0.0027349086
-0.0012162721 0.0077639916 0.0077723796 -0.0024235614 -0.0017587258 -0.0067950687 0.0043418836 -0.003818434
0.0066858367 0.003819071 -0.0033400368 -0.0034129957 0.005608745 0.0039537656 0.0065094666 -0.007388706
0.007381911 0.0016332438 -0.0021424731 -0.010720408 0.004630706 -0.0020467557 0.0052485494 0.006764798
-0.0006677408 -0.002568877 0.0034344275 0.0018632933 0.0063116644 0.0077266125 0.0051464173 -4.642168e-05
0.0037675363 -0.0064310585 0.00013281318 0.0005594029 -0.00016399514 -0.0054831374 0.002985321 -0.0013599551
0.008291772 0.0076374626 0.0036238695 0.0021618304 0.0032308712 0.007919878 0.0072642607 -0.0011346452
-0.001704713 -0.0028656137 -0.0028554406 -0.0018449177 0.004481807 0.0036691579 -0.004360662 0.0069677904
-0.0022482998 0.0010842396 0.0052524875 0.007734711 -0.006418743 0.0058323974 -0.003632565 0.004201199
0.006562502 0.008786336 0.008966059 0.0020625936 0.005488854 -0.0011433761 0.00045725043 -0.00070875185
00000000: 1402 c3bb 4af0 ec3b 6040 9d3b 8dfb c4b8
00000010: 84a0 563b aed6 883b eeac babb 844f b53b
00000020: 8f3a 2c3b 3d95 f53b 5eb6 bd3b 9adf a439
00000030: 3694 183c 2cb9 0cbc 8968 e83a 9d86 303c
00000040: 03c1 cf3a 2227 edbb 5d1e 813b 34d7 ddbb
00000050: 8239 e1bb aaef e33a b8fa 18bb 42b2 71bb
00000060: 9ba0 063c bac6 213c d9f5 a5bb 1efb a0bb
00000070: 2ad4 b43b 7770 b63b ed0d 943b 7c67 cb3b
00000080: 4cfa f5bb 93e1 fb3b 7567 813b 986e 193c
00000090: 6167 cdba 821d f53b 7a7a a13b efae 2d3b
000000a0: 89be 523b 0d86 823c 7e12 0e3c 7036 cd3b
000000b0: 833e c93b 4e1f b5bb ccc8 38bb c035 4cba
000000c0: a453 a63b 1a9e 0b3b abcb e5bb 28a7 053c
000000d0: 9867 123c 8596 bc3b 5570 32b9 273c 33bb
000000e0: 526b 9fba 1569 fe3b 72af fe3b 9dd4 1ebb
000000f0: 0c85 e6ba 2ba9 debb 5c46 8e3b b13e 7abb
00000100: dd14 db3b 6149 7a3b 85e4 5abb 91ac 5fbb
00000110: 90c9 b73b 978e 813b 5d4d d53b f51c f2bb
00000120: f5e3 f13b 9112 d63a bc68 0cbb a6a4 2fbc
00000130: 2dbd 973b dd22 06bb 06fc ab3b 3dab dd3b
00000140: 540b 2fba 9b5a 28bb 2214 613b c039 f43a
00000150: 14d2 ce3b 862f fd3b 47a3 a83b e6b4 42b8
00000160: c5e8 763b a1bb d2bb c443 0b39 e5a4 123a
00000170: 1cf6 2bb9 e4ab b3bb 60a5 433b 8540 b2ba
00000180: 36da 073c ae43 fa3b 717e 6d3b 7fad 0d3b
00000190: 06bd 533b 60c2 013c 0909 ee3b 60b8 94ba
000001a0: ad70 dfba 05cd 3bbb 5822 3bbb 2ad1 f1ba
000001b0: 1fdc 923b 4176 703b e2e3 8ebb 1052 e43b
000001c0: 3658 13bb 0b1d 8e3a 0f1d ac3b 7573 fd3b
000001d0: 5254 d2bb b21d bf3b 5410 6ebb 36aa 893b
000001e0: 420a d73b 90f4 0f3c 61e6 123c 942c 073b
000001f0: d8db b33b 56dd 95ba 1dbb ef39 88cb 39ba

network_body._body_endoder.seq_layers.2.weight f4 [128, 128]
0.09670412 0.16019692 -0.07402939 0.06680657 0.04824521 -0.05988076 -0.020421486 -0.03381339
-0.0701579 -0.11140365 0.032456335 0.0094593875 -0.09533761 0.19870552 0.09360978 0.059505206
-0.11714425 -0.06809112 0.026843159 -0.09661016 0.016308768 -0.05878591 0.19043384 0.066903435
-0.025608296 -0.13041936 0.038942855 -0.120818384 -0.057442386 -0.087895215 0.12186048 -0.06544901
-0.038155694 -0.022393145 -0.0015198822 -0.08675665 0.015381398 -0.034049094 0.0014690486 0.0074223713
0.028803576 -0.009216821 0.022978112 -0.074761294 0.095549665 0.06676473 0.06444239 0.09748303
0.19536242 -0.12852928 -0.033069197 0.0048812698 -0.12505715 0.022887854 -0.07139729 -0.07542929
0.05433393 -0.07945354 0.04901632 -0.16873668 0.016690368 -0.14234893 -0.017418616 0.09951525
0.13384798 -0.014500316 -0.16520701 -0.03806927 -0.02218918 0.044392027 -0.13624579 0.08320363
0.15055409 -0.071034774 0.19172797 -0.1258278 0.13555282 0.011767542 -0.035522137 -0.07542009
0.066597685 -0.024014471 -0.17008857 0.08523458 -0.0014958484 -0.053261653 -0.025853686 0.046213977
-0.10474275 0.04563946 -0.12446353 -0.04711693 -0.24559365 -0.012829037 0.038148142 0.058606133
0.026517 -0.049655497 0.1107588 -0.00026274731 0.04507654 -0.1325054 -0.067325756 -0.09191708
0.032372948 -0.017876573 0.04656121 -0.06331036 -0.042958714 -0.1113519 -0.020983297 0.016936317
0.08232875 -0.10636307 0.029925479 -0.050381675 0.082716994 0.10004748 0.051760245 0.058941975
0.06953339 0.08836353 0.008363002 -0.05823808 0.16232055 0.13127191 -0.11908907 0.041445326
0.028585736 0.038637165 0.10498091 0.08065769 0.041941795 -0.08572133 -0.040746495 -0.0067380127
-0.13365883 0.05816264 -0.047730707 -0.009912632 0.17491803 0.22735527 0.037768897 0.02540012
-0.00776602 0.015932636 0.13299435 -0.075676665 0.031179808 -0.10502387 -0.10341717 0.10980607
0.14210024 0.027475512 0.01593752 -0.028578129 -0.1397178 -0.058993634 0.119113535 0.049221892
0.011733087 -0.15257923 -0.07348978 0.04946476 -0.0026789946 -0.04369554 0.082401216 0.08490313
-0.028178796 0.12966375 0.050276205 0.11753533 0.17192225 -0.039918676 -0.13011588 0.095928766
-0.030852364 0.021866614 -0.00037548642 0.11051819 -0.002168229 -0.050446194 0.13584232 0.14976114
-0.14459892 -0.072017014 -0.08668145 0.12083262 -0.017741192 -0.030382875 -0.012915448 -0.0417045
-0.054116677 -0.014814176 -0.0864608 0.01545707 0.028821174 -0.11144759 0.0686072 -0.014009832
0.11543871 -0.07730199 0.086403914 -0.04678556 0.12252026 -0.09170001 -0.03614672 0.0032992095
0.017052641 -0.05997745 -0.009664849 -0.039089065 0.123309396 0.051524647 0.016819293 -0.11789992
-0.09667332 -0.015017409 0.057237532 0.07155722 0.17225529 0.07493773 0.11808844 0.10785714
-0.04750914 0.029762335 -0.111933984 -0.007958466 -0.06187242 -0.0046657394 0.0387353 0.032299116
0.008192143 0.05333559 0.003884853 -0.054405387 -0.15170242 -0.22073749 -0.0074817147 0.031024814
-0.057443194 -0.060163878 0.06663008 0.06271146 0.007534526 0.08846545 -0.09657112 0.012193139
0.1261371 -0.16295163 0.03967307 -0.011940813 -0.09141997 -0.004762021 -0.114741035 -0.13701569
00000000: cf0c c63d a90a 243e b99c 97bd e2d1 883d
00000010: c59c 453d 8745 75bd f64a a7bc e97f 0abd
00000020: f2ae 8fbd 9927 e4bd eff0 043d 8cfb 1a3c
00000030: 5d40 c3bd 7679 4b3e 7cb6 bf3d bbbb 733d
00000040: 53e9 efbd 5b73 8bbd 2fe6 db3c 8cdb c5bd
00000050: f799 853c 7fc9 70bd 1701 433e ab04 893d
00000060: 7dc8 d1bc a78c 05be 8b82 1f3d a16f f7bd
00000070: b548 6bbd 6802 b4bd fd91 f93d 210a 86bd
00000080: 2549 1cbd d471 b7bc c936 c7ba 78ad b1bd
00000090: 4202 7c3c 1077 0bbd 178d c03a 5d37 f33b
000000a0: 7af5 eb3c 2602 17bc 983c bc3c 731c 99bd
000000b0: 8baf c33d f2bb 883d 5ffa 833d 2fa5 c73d
000000c0: 160d 483e 2e9d 03be 9173 07bd 0ff3 9f3b
000000d0: fb0e 00be 4f7f bb3c be38 92bd ac7a 9abd
000000e0: 418d 5e3d 8ab8 a2bd 56c5 483d 4fc9 2cbe
000000f0: 3dba 883c ebc3 11be 7cb1 8ebc a7ce cb3d
00000100: 720f 093e bc92 6dbc 072c 29be 86ee 1bbd
00000110: 15c6 b5bc 6ad4 353d 0484 0bbe aa66 aa3d
00000120: da2a 1a3e ae7a 91bd 5654 443e 01d9 00be
00000130: 5cce 0a3e a6cc 403c a97f 11bd d975 9abd
00000140: 5e64 883d ffb9 c4bc b32b 2ebe 788f ae3d
00000150: 5810 c4ba e428 5abd 1ccb d3bc de4a 3d3d
00000160: 5e83 d6bd 71f0 3a3d bce6 febd affd 40bd
00000170: e77c 7bbe e230 52bc 3a41 1c3d fc0c 703d
00000180: 2e3a d93c 9063 4bbd 82d5 e23d 59c1 89b9
00000190: 2ea2 383d 7faf 07be 16e2 89bd 063f bcbd
000001a0: 7f99 043d e471 92bc f8b6 3e3d dda8 81bd
000001b0: 7af5 2fbd 770c e4bd 2ae5 abbc 08be 8a3c
000001c0: fa9b a83d e2d4 d9bd 4726 f53c 045d 4ebd
000001d0: 8767 a93d b1e5 cc3d 8d02 543d 246d 713d
000001e0: 8667 8e3d f0f7 b43d f904 093c 0e8b 6ebd
000001f0: 5c37 263e 256c 063e f8e4 f3bd 93c2 293d
00000200: a22c ea3c 0142 1e3d 3b00 d73d dc2f a53d
00000210: 29cb 2b3d aa8e afbd cce5 26bd 8cca dcbb
00000220: dcdd 08be f33b 6e3d 4681 43bd 9868 22bc
00000230: b61d 333e d2cf 683e 8fb3 1a3d ea13 d03c
00000240: 197a febb 2985 823c ac2f 083e 5efc 9abd
00000250: cc6c ff3c c116 d7bd 62cc d3bd 01e2 e03d
00000260: ba82 113e 5314 e13c 678f 823c ae1c eabc
00000270: 2f12 0fbe 4fa3 71bd ccf1 f33d e59c 493d
00000280: 223c 403c bb3d 1cbe cf81 96bd 8f9b 4a3d
00000290: 1292 2fbb 18fa 32bd f8c1 a83d b1e1 ad3d
000002a0: 38d7 e6bc 93c6 043e 6cee 4d3d 5db6 f03d
000002b0: 630c 303e c481 23bd 193d 05be 4d76 c43d
000002c0: 19be fcbc 9d21 b33c efdc c4b9 5c57 e23d
000002d0: d918 0ebb aba0 4ebd 401a 0b3e fc5a 193e
000002e0: bd11 14be a87d 93bd 0b86 b1bd 1877 f73d
000002f0: fa55 91bc 82e5 f8bc 519b 53bc 56d2 2abd
00000300: 73a9 5dbd 28b7 72bc 5c12 b1bd a73f 7d3c
00000310: 621a ec3c a23e e4bd ef81 8c3d 7f89 65bc
00000320: 216b ec3d 8150 9ebd 89f4 b03d 37a2 3fbd
00000330: e7eb fa3d 37cd bbbd 950e 14bd 8d37 583b
00000340: fbb1 8b3c eaaa 75bd 5159 1ebc db1b 20bd
00000350: a389 fc3d 820b 533d 9dc8 893c 8375 f1bd
00000360: a9fc c5bd 940b 76bc e771 6a3d 978c 923d
00000370: b163 303e f478 993d 5ad8 f13d 34e4 dc3d
00000380: f298 42bd 24d0 f33c a53d e5bd 3a64 02bc
00000390: ef6d 7dbd 0fe3 98bb e8a8 1e3d 144c 043d
000003a0: 5738 063c 6b76 5a3d 0599 7e3b 2fd8 5ebd
000003b0: e157 1bbe 0209 62be 2c29 f5bb c027 fe3c
000003c0: 8e49 6bbd 666e 76bd 5a75 883d de6e 803d
000003d0: 2fe4 f63b 602d b53d 14c7 c5bd bbc5 473c
000003e0: 152a 013e cbdc 26be 3b80 223d 66a3 43bc
000003f0: 653a bbbd ba0a 9cbb 59fd eabd d74d 0cbe

network_body._body_endoder.seq_layers.2.bias f4 [128]
-0.0052071232 -0.0071198903 -0.0057532885 0.003544762 0.009114405 8.6697555e-06 0.007873621 -1.6644888e-05
-0.0017483358 -0.004629754 0.011136094 0.010640737 0.0051468504 0.007860464 0.0077750655 -0.0026802507
0.009460226 0.0001540093 -0.0058714617 0.001870097 0.012092329 0.0008567917 -0.0070416993 -0.0032298535
-0.00092140445 0.0002662305 -0.007261634 0.0104712155 -0.0042902245 -0.005614687 0.0041754274 0.007443223
-0.002043967 -0.0057378015 0.008957236 0.00069706986 -0.0054212003 0.0032868704 0.0066315928 0.007665202
-0.0053034285 0.0012372549 -0.00073509524 0.0045146216 0.004106923 -0.0011835408 0.007242918 -0.0073441514
0.002461166 -0.00094587816 0.0068264515 0.008872093 0.0057274364 0.0015949674 -0.0044233454 -0.0031013011
-0.0040190164 0.0064911456 0.009386666 0.00036090237 0.0079831155 -0.0005226319 -0.0036763595 0.0022732872
0.004274765 0.003577941 -0.0016907665 -0.00534468 -0.007963328 0.0075175995 0.009237316 0.0068949773
-0.006415168 0.0054957075 -0.007407429 0.008251389 0.005585428 -3.9615446e-05 0.0025413618 -0.003014687
0.0050955215 0.0072626765 0.008233816 0.008459362 0.004120483 0.0089007355 0.0013729096 0.0090083545
0.006707721 -0.008148994 0.008146187 0.0055632745 0.008107069 -0.0044710315 0.008028504 0.00046573902
-0.0053520957 -0.00010965079 -0.0050136806 0.0023750886 -0.004295927 -0.00042544212 0.0066296486 -0.008284426
-0.005324704 -0.0030225215 0.007945927 0.0038968776 -0.0069613997 -0.00464115 -0.0059201163 -0.006577101
0.0049283486 -0.0007848289 -0.0022925257 0.002137704 0.0061762314 0.0020421136 0.0015073303 0.001878177
0.009080511 0.009346795 0.001862004 -0.008860657 -0.0035154892 0.0046815164 0.007850447 -0.0061877547
00000000: 84a0 aabb f84d e9bb 1586 bcbb 3d4f 683b
00000010: 9654 153c 5174 1137 5c00 013c a0a0 8bb7
00000020: 6a28 e5ba 31b5 97bb 2a74 363c 7c56 2e3c
00000030: e9a6 a83b 2dc9 003c fac5 fe3b 25a7 2fbb
00000040: 10ff 1a3c 8f7d 2139 6465 c0bb 0b1e f53a
00000050: e71e 463c 519a 603a 0ebe e6bb f3ab 53bb
00000060: 688a 71ba da94 8b39 00f3 edbb 768f 2b3c
00000070: 0395 8cbb 69fb b7bb 06d2 883b 48e6 f33b
00000080: 13f4 05bb 2b04 bcbb 5fc1 123c 91bb 363a
00000090: 53a4 b1bb 8968 573b d54d d93b 602c fb3b
000000a0: 62c8 adbb 632b a23a 68b3 40ba 64ef 933b
000000b0: 5e93 863b 0a21 9bba 0056 ed3b 35a7 f0bb
000000c0: 834b 213b cff4 77ba 6db0 df3b 415c 113c
000000d0: 38ad bb3b 3a0e d13a b6f1 90bb 333f 4bbb
000000e0: f4b1 83bb adb3 d43b 88ca 193c 7f37 bd39
000000f0: 9dcb 023c 3c01 09ba 14ef 70bb 6efb 143b
00000100: 5413 8c3b e47b 6a3b b69c ddba 6d22 afbb
00000110: 9e78 02bc 3256 f63b 1d58 173c 43ef e13b
00000120: 5436 d2bb 5615 b43b 05ba f2bb d530 073c
00000130: f705 b73b c328 26b8 fa8c 263b 0e92 45bb
00000140: 55f8 a63b bffb ed3b 21e7 063c 2399 0a3c
00000150: 1e05 873b 64d4 113c 34f3 b33a c797 133c
00000160: 71cc db3b 5c83 05bc 9677 053c 214c b63b
00000170: 83d3 043c bb81 92bb fd89 033c 6f2e f439
00000180: a260 afbb 52f4 e5b8 cd49 a4bb 60a7 1b3b
00000190: d9c4 8cbb e00d dfb9 863d d93b 67bb 07bc
000001a0: db7a aebb 7f15 46bb a22f 023c c262 7f3b
000001b0: 741c e4bb ca14 98bb 89fd c1bb b984 d7bb
000001c0: fc7d a13b fabc 4dba 333e 16bb b918 0c3b
000001d0: fc61 ca3b fbd4 053b 9d91 c53a 2a2d f63a
000001e0: 6cc6 143c 4d23 193c 7d0e f43a 4a2c 11bc
000001f0: 1f64 66bb 6867 993b 299f 003c a6c2 cabb

action_model._continuous_distribution.log_sigma f4 [1, 2]
-0.025879305 -0.019060804
00000000: d600 d4bc 6725 9cbc

action_model._continuous_distribution.mu.weight f4 [2, 128]
-0.018900136 0.0074063363 -0.036395468 -0.016308043 -0.010793228 -0.011870498 0.030487416 -0.052373946
-0.009575896 -0.03432478 0.035228003 0.02459047 0.013915565 0.029637523 0.021038204 -0.021503065
0.033996318 -0.019793078 -0.020341953 -0.008700168 0.005472413 0.013554638 -0.019494588 -0.042308226
-0.028175186 0.00909344 -0.029830072 0.020294184 -0.017866941 -0.042984493 0.0054482766 0.022398613
-0.004614301 -0.0012959735 0.01949898 0.012020067 -0.017655056 0.017296564 0.015752725 0.011919308
-0.008260156 0.010792821 -0.014378622 0.02025983 -0.008374993 -0.0072763003 0.019398216 -0.015379531
0.024143184 -0.03024426 -0.01741327 0.017864339 -0.0036570898 0.004737686 -0.0150548 -0.010353461
-0.006008492 0.025505187 0.03407732 0.0013091265 0.023578348 -0.012951502 -0.01570346 0.011844506
0.019750325 0.015999181 0.0047906307 -0.032576036 -0.007765201 0.02362857 0.017146738 0.03729789
-0.0118129775 0.0074694986 -0.017561736 0.029033719 0.018039292 -0.014239504 0.028667208 -0.034097236
0.0165813 0.026555201 0.0355102 0.012060138 0.009301809 0.025386624 -0.016831677 0.035232946
0.012659895 -0.032626785 0.04628783 0.015876992 0.028332507 -0.02434437 0.041167222 -0.014392926
-0.0052834833 -0.003841571 -0.021019315 -0.0014032966 -0.0059285224 -0.04236513 0.032451194 -0.0129770385
-0.010800423 -0.031313006 0.031156525 -0.00042638963 -0.028156595 -0.001434208 -0.059187714 -0.033905853
0.0061013433 0.0057676886 -0.03923452 0.015550316 0.0114472415 -0.012261485 0.017402887 -0.015165533
-0.0025018572 0.032937143 -0.006901886 -0.0041690343 -0.030875284 0.0012996487 0.03589925 -0.026272805
-0.0107346745 0.0055361176 0.014073097 -0.026852552 -0.029502619 -0.01583252 0.019584352 -0.04678806
-0.03267048 -0.007951483 -0.0066015287 -0.0017539527 0.016466914 0.010877972 -0.008639488 -0.0021650547
-0.0020241395 0.053632103 -0.009196442 -0.04125923 -0.008329812 0.036680233 0.007592127 -0.016831236
-0.036670465 0.051161613 -0.0031145085 -0.033799462 -0.0145129375 0.017331384 -0.026454315 0.004781081
-0.013540407 0.012222968 -0.00040284134 0.016016154 0.0044432 0.0154610425 -0.010693517 -0.014464288
0.014312894 0.02687824 0.04383586 0.013821617 -0.026560232 -0.009661204 0.017684555 -0.007835969
0.036251538 -0.028523752 -0.002283372 -0.020706473 -0.017906679 -0.01269042 0.006460402 -0.0061778505
0.02583543 0.0024091937 -0.03498538 -0.023235494 0.021231685 -0.011259935 -0.003594108 -0.028218804
0.038404875 0.017717965 0.0035853607 0.0023805911 0.0068118526 0.0055509987 0.009783077 0.019894768
0.021894727 -0.046944283 0.006988478 -0.012932649 -0.0073500643 -0.01309981 0.026059007 -0.021202771
0.0044827014 0.011503722 -0.00289706 -0.033702545 -0.02736474 -0.025679018 0.0008524754 0.008472607
0.004103716 -0.005010638 0.021494139 0.022043562 0.008509382 0.023457583 -0.029258236 -0.029588271
0.01477848 0.018117066 -0.019431673 -0.030779056 0.017896263 -0.010666708 -0.033069275 0.006628578
-0.0009769719 -0.0391585 -0.039618045 -0.021459205 -0.009055342 0.015791135 -0.0097338045 -0.005024491
0.03424718 0.035426885 -0.03931704 0.011948469 0.0067774775 -0.010107373 0.031937055 -0.015423226
-0.015026304 -0.013147199 0.0037467552 0.0053276066 -0.01622946 -0.008225542 -0.042747937 0.025710627
00000000: 75d4 9abc dab0 f23b 6a13 15bd 7298 85bc
00000010: 14d6 30bc 7a7c 42bc bfc0 f93c 1086 56bd
00000020: 38e4 1cbc 2498 0cbd 3d4b 103d f471 c93c
00000030: 1cfe 633c 64ca f23c 5058 ac3c 3227 b0bc
00000040: b93f 0b3d 1825 a2bc 2ba4 a6bc 268b 0ebc
00000050: ed51 b33b 4614 5e3c 1db3 9fbc 644b 2dbd
00000060: a6cf e6bc a7fc 143c 325e f4bc fd3f a63c
00000070: b15d 92bc 8210 30bd 7587 b23b 4c7d b73c
00000080: 9033 97bb a8dd a9ba 53bc 9f3c d1ef 443c
00000090: 56a1 90bc 86b1 8d3c dc0b 813c 3449 433c
000000a0: 9b55 07bc 5fd4 303c 5094 6bbc f1f7 a53c
000000b0: 4437 09bc 086e eebb 02e9 9e3c 6efa 7bbc
000000c0: edc7 c53c cfc2 f7bc 46a6 8ebc 3c58 923c
000000d0: c9ab 6fbb 973e 9b3b 68a8 76bc 90a1 29bc
000000e0: e2e2 c4bb 41f0 d03c a994 0b3d ff96 ab3a
000000f0: 6127 c13c 8932 54bc 8ba4 80bc 750f 423c
00000100: 6fcb a13c b710 833c b9fa 9c3b 736e 05bd
00000110: 3a73 febb b490 c13c 5177 8c3c acc5 183d
00000120: 388b 41bc b2c2 f43b a1dd 8fbc 1fd8 ed3c
00000130: 23c7 933c cf4c 69bc 7ed7 ea3c 8ba9 0bbd
00000140: 82d5 873c 4b8a d93c 2573 113d e397 453c
00000150: 9d66 183c 9cf7 cf3c 96e2 89bc 6c50 103d
00000160: 736b 4f3c aaa3 05bd 4f98 3d3d 7710 823c
00000170: 9319 e83c d86d c7bc f69e 283d 4fd0 6bbc
00000180: 1221 adbb dec2 7bbb b330 acbc d2ee b7ba
00000190: 0d44 c2bb 0f87 2dbd 8beb 043d a59d 54bc
000001a0: 42f4 30bc 1142 00bd f83b ff3c 0c8d dfb9
000001b0: a9a8 e6bc 09fc bbba d16e 72bd dde0 0abd
000001c0: c7ed c73b e1fe bc3b 60b4 20bd c1c6 7e3c
000001d0: 368d 3b3c 65e4 48bc 8090 8e3c db78 78bc
000001e0: 33f6 23bb 19e9 063d 3729 e2bb 659c 88bb
000001f0: 2aee fcbc f958 aa3a 180b 133d 113a d7bc
00000200: 7de0 2fbc 5268 b53b d992 663c e2f9 dbbc
00000210: 7aaf f1bc 33b3 81bc 5d6f a03c d6a4 3fbd
00000220: 7bd1 05bd f046 02bc a351 d8bb e3e4 e5ba
00000230: 9fe5 863c 8539 323c a48c 0dbc 97e3 0dbb
00000240: 6da7 04bb 56ad 5b3d acac 16bc 70ff 28bd
00000250: c479 08bc 033e 163d 61c7 f83b a9e1 89bc
00000260: c533 16bd d78e 513d c81c 4cbb 4e71 0abd
00000270: acc7 6dbc 8cfa 8d3c b8b6 d8bc 9daa 9c3b
00000280: 95d8 5dbc d842 483c 7334 d3b9 4f34 833c
00000290: 4398 913b 5050 7d3c dc33 2fbc 9ffb 6cbc
000002a0: a180 6a3c c12f dc3c 3b8d 333d 1074 623c
000002b0: d894 d9bc 074a 1ebc 33df 903c 7062 00bc
000002c0: 7e7c 143d a5aa e9bc a0a4 15bb 9fa0 a9bc
000002d0: 07b1 92bc 7beb 4fbc c8b1 d33b 916f cabb
000002e0: d3a4 d33c 90e3 1d3b d44c 0fbd 5d58 bebc
000002f0: 12ee ad3c 977b 38bc 208b 6bbb 1f2b e7bc
00000300: 6e4e 1d3d 4425 913c 5ff8 6a3b b103 1c3b
00000310: f635 df3b 27e5 b53b 3349 203c 5afa a23c
00000320: 925c b33c a648 40bd 9aff e43b 76e3 53bc
00000330: cfd8 f0bb 96a0 56bc b379 d53c 6fb1 adbc
00000340: a0e3 923b 1b7a 3c3c 9adc 3dbb ae0b 0abd
00000350: 052c e0bc ce5c d2bc a878 5f3a b0d0 0a3c
00000360: 7778 863b 4730 a4bb 7a14 b03c b394 b43c
00000370: ef6a 0b3c 1e2a c03c f8ae efbc 1a63 f2bc
00000380: 7021 723c 3e6a 943c 2c2f 9fbc 5c24 fcbc
00000390: 2f9b 923c 6bc3 2ebc a673 07bd 8b34 d93b
000003a0: bd0d 80ba aa64 20bd 8846 22bd 37cb afbc
000003b0: db5c 14bc 695c 813c 897a 1fbc 7ca4 a4bb
000003c0: c546 0c3d c81b 113d e80a 21bd 83c3 433c
000003d0: 9a15 de3b 6599 25bc 6ed0 023d b3b1 7cbc
000003e0: e330 76bc 5967 57bc 1f8c 753b 3493 ae3b
000003f0: a5f3 84bc 6cc4 06bc 7618 2fbd 189f d23c

action_model._continuous_distribution.mu.bias f4 [2]
0.00839505 -0.002311662
00000000: 648b 093c 417f 17bb

action_model._discrete_distribution.branches.0.weight f4 [1, 128]
-0.0074559646 0.018420612 0.0073839785 -0.003081143 -0.0063412036 0.0021310558 0.0008305732 0.0005298372
-0.0013038755 -0.0039809467 0.0078279255 0.0019101158 0.002199836 0.0029286358 0.00088164007 0.0015936801
-0.0019142631 0.007135668 -0.00019639514 -0.0032408063 0.0018996533 0.009005343 -0.0074467505 0.008814421
-1.5170609e-06 -0.020410342 -0.004573608 -0.01170896 -0.001266321 -0.012421917 0.0058255796 0.0066943164
0.0056948126 0.014961745 -0.025510285 -0.0028256483 -0.010382086 0.0009074579 -0.0048851655 0.0152914915
-0.0014788416 0.024067879 -0.005830239 0.0014671185 -0.005082487 -0.00038622002 -0.013040912 -0.0035444282
0.0033812837 -0.0023621318 0.00554988 0.01206869 -0.012636644 0.00014129703 -0.00023165099 -0.00062521204
-0.007511187 -0.012786611 -0.0032402861 0.00080470054 -0.001909051 0.017959334 0.003201376 -0.0122566875
-0.01066478 -0.003169562 0.008444849 0.0026061505 0.0058214334 0.00019810184 0.014447488 0.019029189
0.0014202602 0.008416547 0.0052434388 -0.017826278 -0.004031694 0.009625307 -0.013003212 -0.0044049653
0.0065538147 0.0071945996 0.0004945156 0.0137048215 0.0125598265 -0.001155399 -0.0034582352 0.0015398248
-0.0008377493 -0.012932493 0.009548628 0.01096614 -0.0019437124 0.009307309 -0.013676967 0.0070986883
0.0064588017 0.024295868 -0.007358782 -0.00895824 -0.014139625 0.015685637 -0.008086509 0.00590788
-0.006393107 -0.0016225375 -0.0113360565 0.009721095 -0.009610534 -0.0046108677 0.0048725554 -0.0027083454
0.0017465383 -0.0032617457 -0.006801896 0.0009470693 0.014745134 -0.015813692 0.0015444256 -0.0010856468
-0.0048516616 -0.0043201842 0.0046059946 -0.018842077 0.000740854 0.00141967 0.0057057533 0.00072220725
00000000: 2a51 f4bb d3e6 963c 4df5 f13b 00ed 49bb
00000010: dfc9 cfbb 2fa9 0b3b d3ba 593a c6e4 0a3a
00000020: cde6 aaba 9a72 82bb b340 003c da5c fa3a
00000030: 202b 103b 5bee 3f3b dd1d 673a 08e3 d03a
00000040: 03e8 faba 52d2 e93b 6bef 4db9 b563 54bb
00000050: cafd f83a 258b 133c df03 f4bb 5c6a 103c
00000060: d19d cbb5 9733 a7bc 34de 95bb f0d6 3fbc
00000070: affa a5ba 4c85 4bbc 81e4 be3b ff5b db3b
00000080: 8d9b ba3b 1b22 753c f2fa d0bc 832e 39bb
00000090: a019 2abc 78e2 6d3a bd13 a0bb 2a89 7a3c
000000a0: b1d5 c1ba 002a c53c 970b bfbb 544c c03a
000000b0: fe8a a6bb 937d cab9 8da9 55bc a349 68bb
000000c0: 8798 5d3b ffcd 1abb c5db b53b c1bb 453c
000000d0: ed09 4fbc 2229 1439 57e7 72b9 45e5 23ba
000000e0: 6720 f6bb ef7e 51bc fb5a 54bb 8af2 523a
000000f0: 1f39 faba 741f 933c 2dce 513b 46d0 48bc
00000100: 54bb 2ebc 6db8 4fbb 445c 0a3c f3cb 2a3b
00000110: b9c1 be3b 8fb9 4f39 28b5 6c3c 1ae3 9b3c
00000120: 0628 ba3a 8fe5 093c 27d1 ab3b 6a08 92bc
00000130: 4d1c 84bb 77b3 1d3c 6d0b 55bc 8757 90bb
00000140: 62c1 d63b adc0 eb3b 61a2 013a 308a 603c
00000150: bbc7 4d3c c270 97ba 8fa3 62bb f2d3 c93a
00000160: 679c 5bba cfe2 53bc d971 1c3c 53ab 333c
00000170: 2ac4 feba af7d 183c 5b15 60bc 1d9c e83b
00000180: 5ba4 d33b 2108 c73c f021 f1bb 95c5 12bc
00000190: e3a9 67bc 2a7f 803c 477d 04bc e496 c13b
000001a0: 457d d1bb 53ab d4ba deba 39bc 3a45 1f3c
000001b0: 8075 1dbc c316 97bb f5a9 9f3b 7f7e 31bb
000001c0: 1aec e43a 03c3 55bb 70e2 debb bf44 783a
000001d0: 9395 713c b78b 81bc 536e ca3a 434c 8eba
000001e0: b0fa 9ebb 5590 8dbb e2ed 963b b35a 9abc
000001f0: df35 423a 3814 ba3a 54f7 ba3b 8252 3d3a
