Assets/Objects/Brains/TurretDumbBrainV2.onnx (onnx, 282730 bytes, 8 tensors)

network_body._body_endoder.seq_layers.0.weight f4 [128, 405]
-0.0888033 -0.09493837 -0.0072972747 -0.001104925 0.056414597 -0.060186002 -0.012773432 0.034896437
0.043149576 -0.051654574 0.11333375 -0.12619954 -0.057421464 -0.08530448 0.04227501 -0.041659586
0.010369956 0.048899315 -0.042736236 0.018086318 -0.100898944 -0.04410945 -0.026996374 -0.06829045
0.035080723 -0.016834114 -0.0030145533 0.031574327 0.0037404008 0.013660886 -0.012529709 -0.028560832
0.066046365 -0.016807357 0.015854478 0.05736606 -0.034782328 -0.0034638601 0.042659994 0.025199728
0.05921371 -0.0015515169 0.01452527 0.02961642 -0.082761616 0.0014304937 0.00027935105 -0.011835178
-0.0067018513 0.08538518 0.0057689175 0.025676576 -0.030978722 0.029853886 0.040991664 0.005104027
0.016087223 0.023818333 -0.020744096 -0.031061383 -0.008950652 0.047616836 0.05793803 -0.049529884
0.0258021 -0.04817343 -0.10383546 0.026955977 -0.023684967 -0.05113004 0.034682356 -0.003554627
-0.058333617 -0.08215586 0.0038793515 -0.025277812 -0.077914044 -0.07127527 -0.046782944 0.018015724
0.0449503 0.031876564 -0.12936416 0.10666998 0.09766735 0.07856703 0.029328842 0.05025165
-0.05607163 -0.026048291 -0.030964578 -0.03976945 0.06413317 -0.0022868556 0.019472027 -0.04304414
-0.010260701 0.102574565 0.076389536 0.057006635 0.048159216 -0.030272815 -0.031176768 0.025993932
-0.062480696 0.033983044 0.02739519 0.023193136 -0.051634785 -0.0019486618 0.028321063 -0.0058350377
-0.035111748 0.0008950615 -0.09223431 0.07288044 0.023353873 0.085366264 -0.0048958347 -0.020589046
-0.021124786 0.046948932 0.0193059 0.0114693735 0.11257663 0.06301458 0.03710633 0.0043371553
0.019520413 0.10587004 -0.063468955 0.053021748 0.008587969 -0.06441086 0.08169853 -0.05115585
0.020061005 0.012748641 -0.01056642 0.03430012 -0.06337717 0.030075384 0.11514902 -0.0012044208
0.017540354 -0.066315636 0.06632958 0.03814287 0.020816699 -0.037306964 -0.00083825865 -0.039916813
-0.0092970915 -0.059001226 0.053743605 -0.015182814 -0.013872287 -0.031894848 0.025030686 0.055547405
0.10440496 -0.031422906 0.012438886 0.031836696 0.015127519 0.0076160966 0.008091711 -0.053164903
0.06529836 0.07235233 0.024996014 -0.04850119 0.03848352 -0.078951046 -0.06649822 -0.022334699
-0.01354242 -0.119300716 0.027769776 -0.016148934 -0.022485068 0.04080673 0.0048311367 0.08640951
0.08685984 0.041409668 -0.06440046 0.024330184 0.053662412 -0.1109968 -0.027010188 -0.018324751
-0.024316251 0.016241346 -0.02715634 0.038466964 0.036522932 0.07671732 0.0331646 -0.025262764
-0.03761803 0.008191841 -0.07743516 -0.013338018 0.06592717 -0.05844607 -0.07526703 0.0052856007
-0.025498359 -0.0131181795 -0.051045146 -0.010852205 0.06412335 0.0017133008 0.0833001 0.0866202
-0.04553806 0.05561064 -0.025711989 -0.0107303085 -0.032381713 -0.010815387 -0.016357657 0.11625981
0.08101505 -0.033244703 -0.022926047 -0.00062647305 0.01497896 0.017653558 0.00061026914 0.04603121
0.018299242 0.031527072 -0.023083406 -0.026899062 0.053332914 0.0018454794 -0.055004958 0.008203235
-0.011687194 -0.06363842 0.100833446 0.0037633292 -0.011561187 0.0595146 -0.010673927 0.026195664
0.035860732 -0.040596444 -0.0076294714 0.022243053 -0.0564389 0.0068287984 0.06734006 0.072895765
00000000: 81de b5bd 0c6f c2bd fa1d efbb 21d3 90ba
00000010: fe12 673d 9985 76bd a847 51bc 91ef 0e3d
00000020: 9cbd 303d bf93 53bd 861b e83d 743a 01be
00000030: c532 6bbd 1db4 aebd 9028 2d3d 3ea3 2abd
00000040: bfe6 293c a64a 483d 310c 2fbd c229 943c
00000050: 1ba4 cebd 1cac 34bd 8027 ddbc dddb 8bbd
00000060: ceb0 0f3d b2e7 89bc d08f 45bb 1554 013d
00000070: 8321 753b e9d1 5f3c 6949 4dbc 68f8 e9bc
00000080: 5143 873d 95af 89bc 40e1 813c acf8 6a3d
00000090: ea77 0ebd ee01 63bb 3fbc 2e3d a96f ce3c
000000a0: 138a 723d 455c cbba 66fb 6d3c 229e f23c
000000b0: ec7e a9bd 677f bb3a dd75 9239 56e8 41bc
000000c0: 349b dbbb 6dde ae3d 3009 bd3b af57 d23c
000000d0: 17c7 fdbc 2390 f43c e0e6 273d af3f a73b
000000e0: 5ac9 833c aa1e c33c 86ef a9bc 7174 febc
000000f0: c1a5 12bc df09 433d 6e50 6d3d d9df 4abd
00000100: ed5e d33c 8151 45bd b0a7 d4bd c8d2 dc3c
00000110: fa06 c2bc bc6d 51bd 160f 0e3d bff4 68bb
00000120: 3bef 6ebd 5541 a8bd b83c 7e3b 6a13 cfbc
00000130: 6691 9fbd c5f8 91bd 799f 3fbd b695 933c
00000140: ce1d 383d 0091 023d 0a78 04be ca75 da3d
00000150: d205 c83d c0e7 a03d 0a43 f03c add4 4d3d
00000160: 5eab 65bd 3a63 d5bc 6da9 fdbc 4ae5 22bd
00000170: 4058 833d 12df 15bb cd83 9f3c 0d4f 30bd
00000180: 801c 28bc 9d12 d23d 1e72 9c3d ca7f 693d
00000190: 9942 453d b2fe f7bc 6c66 ffbc 3af1 d43c
000001a0: c2eb 7fbd ce31 0b3d e16b e03c 88ff bd3c
000001b0: ff7e 53bd 3d6a ffba 9301 e83c d833 bfbb
000001c0: 56d1 0fbd 8fa2 6a3a 58e5 bcbd 5742 953d
000001d0: 9f50 bf3c 82d4 ae3d 3d6d a0bb 5caa a8bc
000001e0: e30d adbc 864d 403d 6827 9e3c 0aea 3b3c
000001f0: 948e e63d ca0d 813d cffc 173d b21e 8e3b
00000200: 46e9 9f3c 64d2 d83d 03fc 81bd 552d 593d
00000210: 8db4 0c3c d7e9 83bd 8f51 a73d cc88 51bd
00000220: fa56 a43c addf 503c c71e 2dbc 487e 0c3d
00000230: e4cb 81bd a760 f63c 40d3 eb3d a8dd 9dba
00000240: cab0 8f3c 7ed0 87bd ced7 873d b33b 1c3d
00000250: c887 aa3c 30cf 18bd 96be 5bba d07f 23bd
00000260: d452 18bc 45ab 71bd 4122 5c3d 56c1 78bc
00000270: 9748 63bc 2ca4 02bd 270d cd3c ad85 633d
00000280: 45d2 d53d 4eb5 00bd 78cc 4b3c 3267 023d
00000290: 6ad9 773c 7390 f93b 1993 043c 71c3 59bd
000002a0: 26bb 853d 752d 943d 71c4 cc3c 2fa9 46bd
000002b0: e5a0 1d3d 16b1 a1bd 3830 88bd 42f7 b6bc
000002c0: 07e1 5dbc ef53 f4bd 717d e33c c54a 84bc
000002d0: 9b32 b8bc f524 273d 834e 9e3b 78f7 b03d
000002e0: 92e3 b13d 2f9d 293d 63e4 83bd 1850 c73c
000002f0: 1ecd 5b3d 4a52 e3bd 7844 ddbc ca1d 96bc
00000300: e032 c7bc 920c 853c f976 debc 898f 1d3d
00000310: 1299 153d f81d 9d3d 9bd7 073d dbf3 cebc
00000320: 5d15 1abd 1237 063c 5396 9ebd b487 5abc
00000330: d304 873d 2565 6fbd 9a25 9abd d532 ad3b
00000340: efe1 d0bc a2ed 56bc b714 51bd 72cd 31bc
00000350: 1a53 833d d690 e03a 3e99 aa3d ee65 b13d
00000360: 1e86 3abd fcc7 633d f3a1 d2bc 2dce 2fbc
00000370: b0a2 04bd 0533 31bc 7e00 86bc a019 ee3d
00000380: 38eb a53d 992b 08bd 68cf bbbc e539 24ba
00000390: 506a 753c 329e 903c 78fa 1f3a 398b 3c3d
000003a0: 4be8 953c 8822 013d 6919 bdbc 6c5b dcbc
000003b0: 9d73 5a3d 03e4 f13a e14c 61bd dd66 063c
000003c0: a57b 3fbc dc54 82bd c481 ce3d 30a2 763b
000003d0: 226b 3dbc 95c5 733d b2e1 2ebc 4a98 d63c
000003e0: b4e2 123d 7548 26bd a500 fabb 1037 b63c
000003f0: 7a2c 67bd 1dc4 df3b 96e9 893d 604a 953d

network_body._body_endoder.seq_layers.0.bias f4 [128]
-0.001932856 -0.0028831803 0.0026632221 -0.001241918 2.3790191e-05 -0.0030542137 -0.003908735 -0.004914569
-0.006893754 0.0064910618 0.0029472096 0.00251607 0.0032482643 -0.00416302 0.00046685035 0.0034932017
0.00071019615 0.0020662576 -0.0011102436 -0.0038759334 0.004045356 0.002843269 -0.0041785818 0.004741427
-0.002283041 0.0028418668 -0.0032794557 -0.0026672797 0.0040066843 -0.0020933233 -0.0019589656 -0.00017786332
-0.001925007 0.0055538965 -0.002856375 -0.0013850828 0.0013543544 -0.0017689866 0.0038902196 0.0008523261
-0.0030922685 0.005298108 0.0013406167 -0.0011081413 -0.0011335349 0.0048083537 0.0040857885 0.0052331635
-0.00074584 0.000906248 0.0034759287 0.0057473015 0.00075764226 0.0004684488 -0.0019097866 0.00012635905
0.0037076448 0.0010093768 -0.0035719527 0.00029813565 0.003819504 -0.0005823213 -0.005640274 0.001085961
0.0033009462 0.0014273875 0.0046701864 0.005056078 -0.003572958 0.0017828989 -0.0040210104 -0.0045329505
0.002356518 -0.0001732291 0.0011036348 -0.0035902227 -0.004643324 -0.0053409114 0.0003256997 -0.0011269527
0.0063314647 0.0033353856 0.002213892 -0.0020054479 -0.0046582175 -0.006261901 0.0046524117 0.005537233
0.0025326665 -0.0032856145 0.0013915162 -0.004386283 0.004500061 0.0023687796 -0.0017449041 -0.002976592
-0.0007273434 0.003756816 -0.0020061242 0.00079384097 -0.00487344 0.0019608063 -0.0020816391 0.0020469527
0.0011271322 -0.0007381981 0.0039961883 -0.0036143216 -0.0041221553 0.0009081284 -0.0041901427 -0.0067740087
-0.0039202003 0.0015179345 -0.0013277231 -0.00396605 0.005068804 -0.0037537017 -0.0057951524 0.0015365934
0.004124768 -0.0025141414 -0.0055678897 0.003191476 -0.004040777 -0.0036515868 0.0045147818 -0.0040615695
00000000: e357 fdba bdf3 3cbb 7489 2e3b dac7 a2ba
00000010: 0c91 c737 3429 48bb d814 80bb 650a a1bb
00000020: 00e5 e1bb f9b2 d43b f925 413b a6e4 243b
00000030: d5e0 543b f169 88bb 98c3 f439 33ee 643b
00000040: 752c 3a3a 0d6a 073b 9885 91ba 5f03 7ebb
00000050: e88e 843b 2356 3a3b 7cec 88bb f95d 9b3b
00000060: 129f 15bb 9d3e 3a3b 23ec 56bb 87cd 2ebb
00000070: 814a 833b 2330 09bb fd61 00bb d280 3ab9
00000080: 8450 fcba 76fd b53b 0532 3bbb ab8b b5ba
00000090: 9884 b13a 57dd e7ba 0ef3 7e3b a36e 5f3a
000000a0: a8a7 4abb c09b ad3b a2b7 af3a 0d3f 91ba
000000b0: 1f93 94ba 658f 9d3b 14e2 853b f57a ab3b
000000c0: 7a84 43ba 4691 6d3a 68cc 633b dc53 bc3b
000000d0: 839c 463a 229a f539 ce51 faba 407f 0439
000000e0: f5fb 723b 114d 843a 6c17 6abb 174f 9c39
000000f0: a550 7a3b eca6 18ba 0cd2 b8bb ce56 8e3a
00000100: b054 583b 2d17 bb3a 5d08 993b 75ad a53b
00000110: 4a28 6abb 29b0 e93a aec2 83bb 2589 94bb
00000120: d06f 1a3b d5a4 35b9 d7a7 903a f149 6bbb
00000130: 0627 98bb d002 afbb acc2 aa39 42b6 93ba
00000140: 2d78 cf3b 7c96 5a3b f216 113b d56d 03bb
00000150: f6a3 98bb a230 cdbb 4273 983b ad71 b53b
00000160: 18fb 253b 7753 57bb 8963 b63a cfba 8fbb
00000170: 3f75 933b 873d 1b3b 44b5 e4ba ed12 43bb
00000180: 30ab 3eba ea34 763b 2e79 03bb c419 503a
00000190: 61b1 9fbb df80 003b 1c6c 08bb 2b26 063b
000001a0: 48bc 933a a383 41ba 75f2 823b 41de 6cbb
000001b0: 2513 87bb 770f 6e3a 774d 89bb 81f8 ddbb
000001c0: 0675 80bb 6ef5 c63a ff06 aeba a4f5 81bb
000001d0: 3618 a63b aa00 76bb 43e5 bdbb 8567 c93a
000001e0: 1029 873b 4bc4 24bb d872 b6bb 1528 513b
000001f0: 7f68 84bb 764f 6fbb bcf0 933b ea16 85bb

network_body._body_endoder.seq_layers.2.weight f4 [128, 128]
-0.052756008 -0.07236461 -0.04140613 0.028194351 0.052608483 -0.039769504 -0.055170313 -0.23830739
0.010109838 0.079423815 0.002407276 0.15173258 -0.038060702 0.032766994 -0.020302702 -0.10791824
-0.08802575 0.12454656 -0.0700722 0.098257996 0.087122925 0.030944992 -0.10752086 0.10065723
-0.081084 -0.047238745 -0.18042256 -0.018891305 0.029009989 -0.111660026 0.019669369 -0.050869733
-0.08033943 -0.09372922 -0.066876754 0.054356553 -0.07342138 -0.028945789 -0.09941205 -0.043084696
0.05192158 -0.06392754 0.03203509 0.053093515 0.09640263 -0.002317056 -0.047782976 -0.010052846
-0.12643752 0.028853275 0.060350165 -0.1081299 -0.00090678514 -0.024833074 -0.054238766 -0.28347394
-0.047830842 -0.0054400177 0.027719105 -0.077218264 0.037658747 0.010209175 0.09503892 -0.15125532
-0.043615054 0.11639401 0.07707262 -0.093538 -0.016454056 0.108526796 -0.13134934 0.060738638
0.058190838 -0.034046695 0.021344883 0.090476416 -0.04787737 0.025375482 -0.04780728 0.008378751
0.16812125 -0.053741325 0.03538611 0.05092412 -0.12134835 -0.08990893 0.053237636 0.09339076
-0.16210628 -0.0505544 -0.021204043 0.069304936 0.07295653 -0.04454398 -0.0008915132 -0.035182305
-0.016243834 -0.04309296 -0.007016423 -0.020817103 0.011855871 -0.05973153 0.003788358 0.121296704
-0.023922537 0.048570927 0.0077163093 0.012240508 -0.002079759 0.038148668 0.0033138883 0.09825698
-0.14472558 -0.15036571 -0.110841475 -0.029947646 -0.045159873 -0.16250706 -0.074203424 0.045622304
-0.14307737 0.084538534 0.03164106 -0.06496353 0.09269783 0.054626398 0.040644076 0.07112223
0.099682845 0.006085463 0.07364583 -0.03471492 -0.009231371 -0.11319565 0.025969883 -0.14235881
0.045191616 0.00084755826 0.11165149 -0.14984909 -0.02918669 -0.015225176 0.071516104 0.2660996
0.0764004 0.15902714 0.08209332 -0.0302226 0.041208122 -0.07946294 0.07009902 0.0023559572
0.16691248 0.02946436 0.16672489 0.0060046534 -0.09897231 0.0047391257 0.065356046 -0.055798236
0.009792505 -0.049265392 -0.010446347 0.08605588 0.04468617 -0.11997289 -0.04330288 0.07496176
-0.13650991 -0.15114509 0.06678759 0.10867568 -0.045916125 0.021920184 -0.07437252 -0.06923345
-0.09090427 -0.13189541 0.01985834 -0.045849223 0.0956235 -0.013000273 0.07942064 -0.06949573
0.1132381 -0.024357516 -0.07133657 -0.07562238 0.0155302165 -0.081199184 0.014632883 -0.024920644
0.08327765 -0.00037973668 0.09803109 0.02723598 -0.03813251 -0.13796738 0.024586808 0.10389429
0.0188799 -0.12361971 -0.18056144 0.101299986 0.021804212 0.123859465 -0.024123322 0.07236758
-0.06511465 0.021437105 -0.03463219 -0.0017260611 0.06648736 -0.02699302 0.13704287 -0.3162689
0.056662973 0.044283964 0.086963 0.018127384 0.048199564 -0.12719691 -0.2501439 0.0066453204
0.011293017 0.026652087 0.12696762 -0.03422568 -0.09524028 -0.095259614 -0.033619575 0.035114665
-0.025318624 -0.03617097 0.064484574 -0.087928124 -0.012025966 -0.12116308 -0.07516758 0.06544035
0.11171106 -0.17916353 0.024292488 -0.0495473 0.051931683 0.018171731 0.108307496 -0.16726565
-0.03299577 0.060313985 0.04159479 0.03900042 -0.00538675 0.1345556 -0.008487847 0.02784864
00000000: af16 58bd e633 94bd 7999 29bd d7f7 e63c
00000010: fe7b 573d 59e5 22bd 44fa 61bd da06 74be
00000020: bca3 253c f4a8 a23d 64c3 1d3b c95f 1b3e
00000030: 8ae5 1bbd af36 063d da51 a6bc 3d04 ddbd
00000040: d846 b4bd 4412 ff3d 0382 8fbd 7d3b c93d
00000050: 816d b23d 5a80 fd3c e633 dcbd 6125 ce3d
00000060: 5e0f a6bd 6a7d 41bd b1c0 38be f0c1 9abc
00000070: 5ba6 ed3c 03ae e4bd a821 a13c c85c 50bd
00000080: 0089 a4bd 1bf5 bfbd aef6 88bd faa4 5e3d
00000090: f35d 96bd b81f edbc 8b98 cbbd 9479 30bd
000000a0: b9ab 543d 71ec 82bd 3a37 033d 9678 593d
000000b0: be6e c53d c0d9 17bb 15b8 43bd b1b4 24bc
000000c0: d678 01be b45d ec3c bc31 773d 3673 ddbd
000000d0: 52b5 6dba bb6e cbbc 7829 5ebd 7f23 91be
000000e0: 46ea 43bd 2d42 b2bb 2d13 e33c 9c24 9ebd
000000f0: 0f40 1a3d 6244 273c c4a3 c23d ade2 1abe
00000100: b3a5 32bd fc5f ee3d 40d8 9d3d da90 bfbd
00000110: a8ca 86bc 4c43 de3d 7180 06be 14c9 783d
00000120: 8459 6e3d 8c74 0bbd 77db ae3c b34b b93d
00000130: 101b 44bd 3ee0 cf3c 91d1 43bd 0747 093c
00000140: fa27 2c3e dd1f 5cbd 07f1 103d cf95 503d
00000150: 7c85 f8bd 2c22 b8bd b50f 5a3d a843 bf3d
00000160: 30ff 25be 2112 4fbd 1ab4 adbc bfef 8d3d
00000170: 3c6a 953d c073 36bd 70b4 69ba 521b 10bd
00000180: ca11 85bc 3e82 30bd 06ea e5bb a188 aabc
00000190: 213f 423c 0ca9 74bd 1a46 783b 686a f83d
000001a0: 32f9 c3bc 4ff2 463d 18d9 fc3b 698c 483c
000001b0: 914c 08bb c741 1c3d d22d 593b f53a c93d
000001c0: f132 14be 78f9 19be db00 e3bd c454 f5bc
000001d0: 8ff9 38bd 4068 26be f7f7 97bd 74de 3a3d
000001e0: e082 12be 8a22 ad3d 0e9a 013d 990b 85bd
000001f0: 5cd8 bd3d eebf 5f3d 677a 263d 88a8 913d
00000200: 8526 cc3d 9068 c73b a0d3 963d 3b31 0ebd
00000210: 2d3f 17bc 1fd3 e7bd cbbe d43c 82c6 11be
00000220: d81a 393d ac2e 5e3a 89a9 e43d 0a72 19be
00000230: ed18 efbc 0473 79bc 0977 923d 353e 883e
00000240: d077 9c3d 03d8 223e 8b20 a83d 6395 f7bc
00000250: d9c9 283d 77bd a2bd 1390 8f3d 6766 1a3b
00000260: 1beb 2a3e 3e5f f13c eeb9 2a3e afc2 c43b
00000270: ffb1 cabd ab4a 9b3b 64d9 853d b18c 64bd
00000280: be70 203c 82ca 49bd 2827 2bbc 113e b03d
00000290: d808 373d 59b4 f5bd 5c5e 31bd 8d85 993d
000002a0: 41c9 0bbe c7c5 1abe efc7 883d 5b91 de3d
000002b0: 8c12 3cbd f591 b33c 9f50 98bd 44ca 8dbd
000002c0: 052c babd 970f 07be f5ad a23c 65cc 3bbd
000002d0: 41d6 c33d 19ff 54bc 4aa7 a23d c753 8ebd
000002e0: 61e9 e73d 6a89 c7bc e818 92bd e8df 9abd
000002f0: 7372 7e3c c24b a6bd c2be 6f3c 6126 ccbc
00000300: 798d aa3d 6517 c7b9 86c4 c83d fd1d df3c
00000310: d630 1cbd 5247 0dbe 466a c93c 88c6 d43d
00000320: 05aa 9a3c 552c fdbd 19e5 38be 5e76 cf3d
00000330: bf9e b23c 08aa fd3d 469e c5bc 7435 943d
00000340: d45a 85bd de9c af3c 7cda 0dbd 003d e2ba
00000350: 862a 883d 7720 ddbc f754 0c3e ffed a1be
00000360: 6f17 683d 1a63 353d a819 b23d e17f 943c
00000370: e86c 453d e83f 02be dc12 80be fdc0 d93b
00000380: 5906 393c 7a55 da3c cd03 023e 3a30 0cbd
00000390: 560d c3bd 7917 c3bd aeb4 09bd 65d4 0f3d
000003a0: 0169 cfbc 0328 14bd 7d10 843d a913 b4bd
000003b0: 8f08 45bc 5924 f8bd 76f1 99bd 9705 863d
000003c0: c5c8 e43d a576 37be 0a01 c73c 1cf2 4abd
000003d0: 51b6 543d e2dc 943c 52d0 dd3d b047 2bbe
000003e0: 9326 07bd cc0b 773d 4c5f 2a3d e8be 1f3d
000003f0: 5683 b0bb f1c8 093e 9c10 0bbc d522 e43c

network_body._body_endoder.seq_layers.2.bias f4 [128]
0.00422121 -0.005015914 0.0028616898 0.0018201672 0.0030724066 0.0039410326 -0.0027427534 0.00057850603
-0.004477416 -0.0015729147 0.003724767 -0.0007375016 0.003696093 0.0012566948 -0.0018603539 0.0006796629
0.0019800265 0.0015805222 0.0038606692 -0.00028869076 -0.0010883199 -0.0039001198 0.0012747743 0.00034181855
0.0024089902 0.003236457 0.0010941147 0.00037893094 -0.0042205425 -0.00072977366 -0.0040773037 0.0011249639
0.0032329112 -0.00061001675 -0.0010885799 -0.0015646184 -0.0006352076 -0.003563567 -0.005001385 -0.004748021
7.784212e-05 0.00031070496 -0.003066193 -0.0031797385 -0.00038317614 0.0042116214 -0.00177749 -0.0026724823
0.001467947 0.0007732343 0.004022064 -0.002434025 0.004530701 0.0048336787 0.00022158418 0.002653911
-0.0045603523 -0.0015516141 -0.00345329 -0.0021801281 0.003975847 0.0038230624 -0.004609842 0.0005140499
0.00014785575 -0.0044928836 0.003891753 0.004870598 0.0019419147 0.0005415076 -0.0039920127 -0.004886143
-0.0047300346 -0.0026791508 0.0011976488 0.0033897331 -0.000517719 0.001285241 0.0009971843 -0.00445465
0.00025362486 -0.0031785707 0.0026329628 0.002945334 0.0007860828 -0.001574497 -0.00056632503 0.0024520413
-0.0040022056 -0.002307332 0.001787084 0.00036499556 0.003165305 -0.0006266013 0.0007015863 -0.0045261667
-0.0037811098 -0.0041338024 -0.0011994045 -0.003923616 0.00075348205 0.004704584 -0.0028937373 0.0037384385
0.0015281902 -0.0007465 0.004870434 -0.004084099 -0.004620934 -0.0029261995 -0.0031703925 0.0047031096
-0.0047939275 0.00056079024 0.00012734086 0.0016905926 -0.0045155548 0.0027801087 0.00439277 0.002785116
0.0048674075 -0.0006656327 -0.0040217433 -0.00093092036 -0.0006626293 -0.00043507924 -0.0044294987 -0.0031306017
00000000: 1352 8a3b 895c a4bb 308b 3b3b ad92 ee3a
00000010: 6e5a 493b c723 813b c4bf 33bb e2a6 173a
00000020: 4ab7 92bb 422a ceba 381b 743b e554 41ba
00000030: 273a 723b aeb7 a43a 1ed7 f3ba 682b 323a
00000040: 55c3 013b 8629 cf3a 4803 7d3b 6b5b 97b9
00000050: f5a5 8eba 2799 7fbb 5416 a73a 1c36 b339
00000060: 26e0 1d3b bd1a 543b 6668 8f3a 40ab c639
00000070: 7a4c 8abb 484e 3fba e79a 85bb 8673 933a
00000080: 40df 533b 88e9 1fba aeae 8eba e213 cdba
00000090: 0f84 26ba bc8a 69bb a9e2 a3bb 4995 9bbb
000000a0: 2c3f a338 1de6 a239 2ff2 48bb 2963 50bb
000000b0: 08e5 c8b9 a401 8a3b abfa e8ba d024 2fbb
000000c0: 2168 c03a e0b2 4a3a 85cb 833b 2a84 1fbb
000000d0: 4676 943b d663 9e3b 0d59 6839 3ded 2d3b
000000e0: 026f 95bb 885f cbba 9850 62bb 7be0 0ebb
000000f0: d247 823b 588c 7a3b 280e 97bb 4ec1 063a
00000100: ba09 1b39 0a39 93bb c80c 7f3b 8a99 9f3b
00000110: d887 fe3a f6f3 0d3a 6ecf 82bb f01b a0bb
00000120: 68fe 9abb b194 2fbb 6dfa 9c3a 4926 5e3b
00000130: 89b7 07ba 8875 a83a f4b3 823a 50f8 91bb
00000140: f4f8 8439 914f 50bb c98d 2c3b 8106 413b
00000150: 2011 4e3a 5a5f ceba 6e75 14ba 6db2 203b
00000160: ef24 83bb 9b36 17bb 973c ea3a e05c bf39
00000170: 0171 4f3b 8042 24ba a9ea 373a 3d50 94bb
00000180: 7fcc 77bb d974 87bb 5635 9dba ad91 80bb
00000190: 5385 453a e928 9a3b dba4 3dbb 9700 753b
000001a0: 8e4d c83a c4b0 43ba 2998 9f3b e8d3 85bb
000001b0: 346b 97bb 7bc5 3fbb 5cc6 4fbb 8b1c 9a3b
000001c0: 6116 9dbb ff01 133a cd86 0539 e096 dd3a
000001d0: 38f7 93bb 7c32 363b 3af1 8f3b 7e86 363b
000001e0: c67e 9f3b db7d 2eba d4c8 83bb 0209 74ba
000001f0: 4db4 2dba 591b e4b9 5425 91bb c82a 4dbb

action_model._continuous_distribution.log_sigma f4 [1, 2]
-0.0010003886 -0.0020055568
00000000: 791f 83ba a96f 03bb

action_model._continuous_distribution.mu.weight f4 [2, 128]
-0.033550825 0.01126687 -0.012081584 -0.0043795207 -0.0040791696 -0.013186129 0.0039362996 -0.0017145944
0.009758568 -0.0021560371 -0.019358695 -0.002220382 -0.022218235 -0.003934428 0.014972681 0.004185356
-0.0004897346 0.0027378793 -0.024760386 0.0092683295 -0.0022306268 0.014775215 -0.02581182 0.00827717
-0.0044998247 -0.03426139 -0.00029528022 0.011529716 0.014195965 -0.015196613 0.014234769 -0.014074559
-0.00537202 -0.009008303 0.00012741034 0.001287752 0.01708169 0.033672404 0.010323677 0.0077485065
-0.008494085 0.012378101 0.0053736023 0.0055972687 0.011939147 -0.017818186 -0.0022469023 0.0068857907
-0.01067016 0.0077740927 -0.024484644 0.017636517 -0.0036705774 -0.04629743 -0.009398389 -0.0395509
0.009040197 -0.00247416 0.006992004 0.0025984542 -0.012703642 -0.014745855 0.012702244 -0.014364507
0.002588537 0.007785178 -0.029852128 -0.022552228 -0.023524892 0.0024157413 0.0120874215 0.04313425
0.013353172 0.02980431 -0.001988419 -0.025594715 -0.0071332003 0.0009222817 -0.02369091 0.031165337
-0.022303265 0.020740427 -0.0087333415 -0.008130653 0.0025267478 -0.003994879 0.006855494 -0.014425348
0.0076684738 0.029035736 -0.00039321557 -0.01567557 -0.021013143 -0.0017544084 -0.008461178 0.0270655
0.020612169 0.03888797 -0.008019582 0.010972317 -0.031627722 -0.015530354 0.021016542 -0.0047522797
-0.0055585927 0.0043397876 -0.030295813 0.016049003 0.03586915 0.0076402174 0.014029748 -0.028532138
0.014283656 -0.024088886 -0.017684301 -0.02044444 0.034059044 -0.014524662 -0.03753227 -0.029400004
-0.04139799 0.024125773 0.010871899 -0.0037748774 0.011656041 0.017465036 0.038552143 0.0025666368
-0.033413082 0.003911607 -0.002232893 -0.014145046 -0.01131685 -0.0016482078 0.041552324 0.005126674
-0.00036428266 0.016174756 -0.011202559 0.02016469 -0.00047744322 -0.008718805 -0.010849486 -0.0134897325
-0.02809923 -0.019113773 -0.014849428 -0.017328974 0.012643263 0.013526672 0.026344825 -0.02306961
-0.015859881 0.0018918327 -0.018602675 -0.0359237 0.013712518 0.027213737 0.013847785 0.010787659
-0.012931391 0.021410123 0.014098347 0.018104503 -0.023492182 -0.0035344346 0.0052911625 0.00079471926
0.015425797 -0.019834794 0.004691492 0.0025847412 -0.019889886 -0.005003774 0.00018953414 0.012229376
0.010432431 -0.0082317805 -0.009838138 -0.013157571 -0.004261103 -0.0003519783 0.02953011 0.022497158
0.0065916716 0.023395333 0.0075800116 0.010926712 -0.00168731 -0.008667188 0.009639902 0.021364285
-0.01780255 0.005572173 0.0038733748 -0.011430165 0.015228743 -0.010314158 -0.00045302734 0.007896656
0.012420489 -0.011427266 -0.013843447 -0.02162251 0.028283766 -0.0062027792 0.016276814 0.00019930943
0.031159976 -0.008346272 -0.028439105 -0.029700698 -0.016478797 0.020958474 -0.014788292 0.013184581
0.0049302955 -0.018184662 -0.019048376 0.01619525 -0.015604817 0.0097800605 0.030704502 0.003722217
0.02081044 0.021480914 0.028581697 0.0076214056 0.04034411 0.0026306498 -0.006669719 -0.003434576
-0.024894103 -0.0073804064 -0.0018800908 0.0038504107 -0.0019988017 0.034056738 0.044239618 -0.014038203
0.0029749444 0.029954148 0.0173419 0.019040378 0.0022795207 -0.027313966 -0.019447658 0.03576247
-0.0005031603 -0.029154139 0.0043443423 0.023253262 -0.01851866 -0.019316684 -0.00013537974 -0.0011404963
00000000: 976c 09bd ae98 383c d6f1 45bc 1582 8fbb
00000010: 8eaa 85bb a20a 58bc 13fc 803b 3ebc e0ba
00000020: 67e2 1f3c 4d4c 0dbb 2096 9ebc d483 11bb
00000030: 0403 b6bc 60ec 80bb fa4f 753c 5025 893b
00000040: 8861 00ba fe6d 333b 4bd6 cabc 31da 173c
00000050: b52f 12bb be13 723c 4f73 d3bc f89c 073c
00000060: 4473 93bb ac55 0cbd d7cf 9ab9 22e7 3c3c
00000070: 3196 683c 37fb 78bc f338 693c fb98 66bc
00000080: c507 b0bb 9097 13bc 7499 0539 c9c9 a83a
00000090: e6ee 8b3c 13ec 093d a424 293c 2fe7 fd3b
000000a0: c62a 0bbc 85cd 4a3c 0b15 b03b 4b69 b73b
000000b0: 699c 433c 72f7 91bc c440 13bb 33a2 e13b
000000c0: e5d1 2ebc d1bd fe3b 0594 c8bc 757a 903c
000000d0: 128e 70bb 60a2 3dbd b3fb 19bc 2000 22bd
000000e0: 561d 143c 8425 22bb 2e1d e53b d44a 2a3b
000000f0: f022 50bc 9998 71bc 131d 503c 1c59 6bbc
00000100: 72a4 293b ce1a ff3b 738c f4bc 73bf b8bc
00000110: 46b7 c0bc 6a51 1e3b 520a 463c 8aad 303d
00000120: 43c7 5a3c 2b28 f43c 2350 02bb 02ac d1bc
00000130: 9fbd e9bb 47c5 713a 7013 c2bc 734e ff3c
00000140: 56b5 b6bc d4e7 a93c 4a16 0fbc 6e36 05bc
00000150: cb97 253b 79e7 82bb 0da4 e03b 4b58 6cbc
00000160: d247 fb3b 5adc ed3c 8028 ceb9 0e6a 80bc
00000170: c123 acbc 2df4 e5ba c1a0 0abc 78b8 dd3c
00000180: dada a83c fe48 1f3d 9164 03bc 3cc5 333c
00000190: 128c 01bd 0773 7ebc e22a ac3c 03b9 9bbb
000001a0: db24 b6bb c734 8e3b ed2e f8bc 3379 833c
000001b0: 88eb 123d ca5a fa3b 07dd 653c 3bbc e9bc
000001c0: ff05 6a3c 0e56 c5bc abde 90bc 197b a7bc
000001d0: 7f81 0b3d d9f8 6dbc 70bb 19bd 47d8 f0bc
000001e0: f090 29bd 6aa3 c53c 0d20 323c ef63 77bb
000001f0: fbf8 3e3c d612 8f3c dae8 1d3d 0535 283b
00000200: 28dc 08bd f02c 803b ba55 12bb 9fc0 67bc
00000210: 4f6a 39bc ad08 d8ba c532 2a3d a9fd a73b
00000220: 31fd beb9 ec80 843c f08a 37bc 6c30 a53c
00000230: 5851 fab9 52d9 0ebc 0bc2 31bc 0a04 5dbc
00000240: 5b30 e6bc 7d94 9cbc 044b 73bc 7ef5 8dbc
00000250: b025 4f3c f99e 5d3c 1ad1 d73c 7bfc bcbc
00000260: 95ec 81bc 5ff7 f73a a364 98bc bb24 13bd
00000270: 78aa 603c 58ef de3c d2e1 623c b9be 303c
00000280: 2fde 53bc 4864 af3c c1fc 663c e54f 943c
00000290: ad72 c0bc f9a1 67bb 7d61 ad3b b554 503a
000002a0: 7bbc 7c3c 947c a2bc 16bb 993b c364 293b
000002b0: 1df0 a2bc b3f6 a3bb afbd 4639 b85d 483c
000002c0: c9ec 2a3c 97de 06bc 2430 21bc da92 57bc
000002d0: b9a0 8bbb ba89 b8b9 21e9 f13c f64b b83c
000002e0: f3fe d73b 92a7 bf3c bf61 f83b f405 333c
000002f0: bb28 ddba d200 0ebc aef0 1d3c 2704 af3c
00000300: a7d6 91bc c696 b63b 72d8 7d3b 9645 3bbc
00000310: fa81 793c b7fc 28bc 4d84 edb9 fa60 013c
00000320: 4f7f 4b3c 6d39 3bbc a0cf 62bc b121 b1bc
00000330: 5bb3 e73c af40 cbbb f456 853c b8fd 5039
00000340: 3543 ff3c cdbe 08bc 20f9 e8bc e14e f3bc
00000350: 8bfe 86bc 1bb1 ab3c 984a 72bc 2404 583c
00000360: 518e a13b 00f8 94bc 570b 9cbc e7ab 843c
00000370: 59ab 7fbc 8c3c 203c 0288 fb3c 70f0 733b
00000380: a87a aa3c bef8 af3c 2a24 ea3c fcbc f93b
00000390: de3f 253d fb66 2c3b a88d dabb a016 61bb
000003a0: b8ee cbbc 56d7 f1bb 616d f6ba 2c57 7c3b
000003b0: 54fe 02bb 147f 0b3d 9a34 353d 7e00 66bc
000003c0: 49f7 423b 6762 f53c 9a10 8e3c 91fa 9b3c
000003d0: 0364 153b 8ac1 dfbc b250 9fbc ab7b 123d
000003e0: 84e6 03ba a9d4 eebc fc5a 8e3b a07d be3c
000003f0: 72b4 97bc 063e 9ebc b9f4 0db9 b57c 95ba

action_model._continuous_distribution.mu.bias f4 [2]
-0.00444024 -0.0017559126
00000000: 6f7f 91bb a626 e6ba

action_model._discrete_distribution.branches.0.weight f4 [1, 128]
0.01223253 0.00021375444 0.0017507374 -0.00055135944 0.0048021902 -0.0069747865 0.00793999 0.004842246
0.0060517006 -0.0067708115 -0.0019863436 -0.0088301245 -0.005670234 0.00027387057 0.010320845 0.00884215
0.0012740479 0.0046207835 0.0059818653 0.0073560304 0.019339643 -0.015978156 -0.0057424707 0.0042117257
-0.011513467 0.008361871 -0.0058689504 -0.0014194857 0.0038418472 0.016809393 -0.0062094172 -0.0036724557
0.0008861624 0.002638279 -0.0042477213 0.0123429885 -0.012246661 -0.013289324 -0.015464998 -0.0052960194
-0.009348578 0.0017737861 -0.009505256 -0.002726384 -0.005928068 -0.01646213 -0.0054847933 0.011389236
-0.0075403186 -0.013512375 -0.00087763293 0.0055608274 -0.009174551 -0.003759712 -0.0011812132 -0.009121566
-0.004286298 -0.009249677 0.019422438 0.008631456 0.002245245 0.0033342545 0.0032454177 0.00982646
0.00011591964 -0.0044692224 0.009324097 0.0028792794 0.0065345997 0.016129019 0.0023412213 -0.016051603
-0.00022879793 -0.0058164294 -0.003225818 -0.00041968562 -0.0062335753 0.00073435094 0.010339973 -0.012136718
0.005245946 -0.004780021 0.00975681 -0.020504294 0.005498252 -0.0031767518 -0.0059892507 0.012319234
0.009451645 0.007880184 0.00012058857 -0.013806579 0.010690142 0.013038099 0.005039115 -0.0013546215
-0.007028227 0.0005349284 0.0013177408 0.01339432 -0.006134435 -0.0057092486 -0.014140855 -0.01509884
0.003159637 0.0051035765 -0.002535089 -0.0012781568 0.008738908 -0.005126557 -0.00467416 -0.00014126809
-0.0032890276 0.01036491 -0.006002589 0.004322554 -0.009030662 -0.012667948 -0.0017016337 -0.004584639
-0.025289163 0.006941548 -0.0128561305 -0.011890568 0.0028054141 0.00018638637 -0.0066573606 -0.00379286
00000000: f36a 483c 4523 6039 0079 e53a 1b89 10ba
00000010: b15b 9d3b c08c e4bb bb16 023c b4ab 9e3b
00000020: 584d c63b afdd ddbb 512d 02bb 3aac 10bc
00000030: 5fcd b9bb 4996 8f39 c318 293c aade 103c
00000040: f4fd a63a f169 973b 8603 c43b db0a f13b
00000050: 2c6e 9e3c 9fe4 82bc 562b bcbb 8402 8a3b
00000060: fba2 3cbc 3b00 093c 5350 c0bb 090e baba
00000070: 80c7 7b3b dab3 893c 5e78 cbbb 95ad 70bb
00000080: 5a4d 683a fae6 2c3b 7830 8bbb 3f3a 4a3c
00000090: 38a6 48bc 77bb 59bc e760 7dbc 3b8a adbb
000000a0: c72a 19bc 637e e83a efbb 1bbc 22ad 32bb
000000b0: 3d40 c2bb 97db 86bc c8b9 b3bb eb99 3a3c
000000c0: c714 f7bb 0263 5dbc f310 66ba 9a37 b63b
000000d0: db50 16bc 8065 76bb f0d2 9aba 9f72 15bc
000000e0: 1374 8cbb f58b 17bc ce1b 9f3c f36a 0d3c
000000f0: f624 133b 8283 5a3b 13b1 543b 29ff 203c
00000100: e219 f338 8e72 92bb 19c4 183c 4bb2 3c3b
00000110: 3220 d63b 0121 843c 2d6f 193b a77e 83bc
00000120: 7ae9 6fb9 bf97 bebb 3f68 53bb 4009 dcb9
00000130: 0543 ccbb 7581 403a fd68 293c 16d9 46bc
00000140: 2fe6 ab3b b9a1 9cbb 07db 1f3c 9ff8 a7bc
00000150: ae2a b43b 0d31 50bb 7a41 c4bb 9dd6 493c
00000160: 13db 1a3c e31b 013c 7fe4 fc38 fd34 62bc
00000170: b525 2f3c c09d 553c 291f a53b 8e8d b1ba
00000180: 0b4d e6bb 703a 0c3a 0bb8 ac3a da73 5b3c
00000190: 5f03 c9bb a614 bbbb 0baf 67bc 2061 77bc
000001a0: ea11 4f3b e73b a73b bc23 26bb d387 a7ba
000001b0: a32d 0f3c adfc a7bb b229 99bb 5d21 14b9
000001c0: ba8c 57bb 95d1 293c 5eb1 c4bb 36a4 8d3b
000001d0: 57f5 13bc 3a8d 4fbc 5a09 dfba bd3a 96bb
000001e0: 382b cfbc ed75 e33b 85a2 52bc a8d0 42bc
000001f0: 0adb 373b b670 4339 fd25 dabb a291 78bb
