Assets/Objects/Brains/TurretDumbBrainV1.onnx (onnx, 282277 bytes, 7 tensors)

network_body._body_endoder.seq_layers.0.weight f4 [128, 405]
0	0xbdcdde77	-0.100521974
1	0x3ca80a50	0.02051273
2	0x3d756461	0.059910182
3	0xbd2beb37	-0.041972365
4	0xbb8e8001	-0.0043487553
5	0x3daa2a8c	0.083088964
6	0xbda7d80d	-0.08195505
7	0xbb1fb540	-0.0024369508
8	0x3cb319e2	0.021862928
9	0x3c3c5e7c	0.011497136
10	0x3d985670	0.07438362
11	0xbaecfe83	-0.0018081221
12	0xbdcee5b0	-0.10102403
13	0xbcd650cf	-0.02616158
14	0x3bf44510	0.007454522
15	0xbc452e90	-0.012035027
16	0x3d1de207	0.038545635
17	0xbdcb8544	-0.09937528
18	0x3d999929	0.07499916
19	0xbd058c88	-0.032604724
20	0x3da28a63	0.079365514
21	0xbb76e3cf	-0.0037672406
22	0x3ca8730f	0.020562677
23	0x3d760dcb	0.060071748
24	0xbcef65c4	-0.02922333
25	0xbde17c74	-0.11010066
26	0xbc341350	-0.010990933
27	0xbce658e5	-0.02811856
28	0xbc52126e	-0.012821777
29	0x3d1cab2f	0.03824919
30	0x3db4f1c8	0.088351786
31	0xbce4994f	-0.027905134
32	0xbd855af5	-0.06511489
33	0xbd92c811	-0.07167066
34	0x3d834871	0.064103015
35	0xbc98b593	-0.018641269
36	0xbbf0b18e	-0.007345385
37	0x3d9279d9	0.07152147
38	0xbd070440	-0.032963037
39	0x3dae7cb6	0.085198805
40	0x3ceeae36	0.029135805
41	0xbd05dd66	-0.032681845
42	0x3dfb4fd2	0.12271084
43	0x3c473585	0.012158756
44	0xbca4d45c	-0.020120792
45	0xbd33662f	-0.04379862
46	0x3aa6f4ec	0.0012737787
47	0xbc3721c8	-0.011177488
48	0xbd1e9c28	-0.03872314
49	0x3d670807	0.05640414
50	0xb8c09386	-9.182752e-05
51	0x3d84df25	0.06487874
52	0x3c0868a9	0.008325734
53	0x3c0916ac	0.008367222
54	0xbc775c67	-0.015097714
55	0xbc247b36	-0.010039141
56	0x3d15bbd0	0.036556065
57	0xbb127077	-0.0022344866
58	0xbb8fc874	-0.0043879095
59	0x3c7457c6	0.014913505
60	0xbc905690	-0.017619401
61	0x3cc2fda0	0.023802578
62	0x3d9bf71a	0.0761549
63	0xbcb6074a	-0.022220273
64	0xbc85a531	-0.016314121
65	0x3d9a6576	0.075388834
66	0xbd80d817	-0.06291216
67	0xbe1325a6	-0.1436983
68	0xbb9c4d30	-0.0047699437
69	0xbd9231fa	-0.071384385
70	0x39bab9ce	0.0003561512
71	0xbd01a473	-0.03165097
72	0x3d8a7c17	0.067619495
73	0xbb5a1f55	-0.0033282836
74	0x3d11d22a	0.03560082
75	0x3d093173	0.033494424
76	0xbdbd1fe3	-0.092345975
77	0xbd945453	-0.07242646
78	0x3d2cb99d	0.042169202
79	0xbcae3228	-0.02126415
80	0xbbe35232	-0.0069372887
81	0x3d554ad4	0.052073315
82	0x3b771175	0.0037699614
83	0xbd656470	-0.056003988
84	0xbdcfd117	-0.101473026
85	0xbceed7b8	-0.029155597
86	0x3d36577d	0.04451703
87	0x3d76cc81	0.060253624
88	0xbcb4a015	-0.02204899
89	0xbcb59a36	-0.02216826
90	0x3c57c509	0.013169535
91	0x3d0d64ba	0.03451989
92	0x3bc8238e	0.006107754
93	0xbce4bf82	-0.02792335
94	0xbb214e80	-0.002461344
95	0x3c027c88	0.007964261
96	0x3d94a19b	0.07257386
97	0x3e065c45	0.13121136
98	0x3ce42a3b	0.027852168
99	0xbd5bcd55	-0.053662617
100	0xbd2ed834	-0.042686656
101	0xbc8e0d76	-0.017340403
102	0x3d9279cb	0.071521364
103	0xbcb3b1bf	-0.021935342
104	0xbd499761	-0.04921663
105	0x3dbcb584	0.09214309
106	0x3d0a7144	0.033799425
107	0x3d2f93d9	0.042865608
108	0x3d369bcf	0.044582184
109	0x3bed262d	0.007237217
110	0x3d5d730b	0.05406479
111	0x3bfb6219	0.0076716063
112	0xbc847e85	-0.01617361
113	0xbc8d44ca	-0.017244715
114	0x3d4596dc	0.048239574
115	0x3d4c5cdc	0.049893245
116	0x3d53295e	0.051553123
117	0xbe0fbe47	-0.14037429
118	0xbd73101f	-0.059341546
119	0xbd488796	-0.04895743
120	0xbc02c750	-0.00798209
121	0x3d4a7ec7	0.04943731
122	0xbbe71e0f	-0.007053144
123	0xbd705a8c	-0.058680102
124	0x3d66611e	0.056244962
125	0x3d7790a3	0.06044067
126	0xbcf31184	-0.029671438
127	0x3c60218c	0.013679873
128	0x3d0dceac	0.034620926
129	0x3d5a77cb	0.0533369
130	0x39d46543	0.00040511237
131	0x3d02b893	0.031914305
132	0x3dcec766	0.10096626
133	0xbcfbe170	-0.030747145
134	0xbcc7b02a	-0.024375994
135	0xbc08cd39	-0.00834971
136	0xbd1cddf9	-0.038297627
137	0x3cd0a5b3	0.025469637
138	0x3b476e07	0.0030430572
139	0x3b3e7b34	0.0029065134
140	0xbd7c6490	-0.06161934
141	0x3a393e6e	0.00070664927
142	0xbd156a2a	-0.0364782
143	0x3d480208	0.048830062
144	0x3d4deb2a	0.050273098
145	0x3c5cae96	0.013469359
146	0x3d781ff4	0.060577348
147	0x3c956efe	0.018241402
148	0xbd028278	-0.031862706
149	0xbdd3a466	-0.10334091
150	0xbd1890a0	-0.0372473
151	0xbc6ae9d0	-0.014337972
152	0xbccc0a23	-0.024907177
153	0xbd8dafd8	-0.06918305
154	0x3c3230ad	0.010875863
155	0xbd31462c	-0.04327981
156	0x3e157c43	0.14598183
157	0xbd269b3f	-0.040675398
158	0x3c3f0cb1	0.011660741
159	0xbc182ccb	-0.009288023
160	0xbce42cf2	-0.027853463
161	0x3dbad65d	0.09122918
162	0xbd2b234a	-0.0417817
163	0x3d4d4a55	0.050119717
164	0xbce7b20d	-0.028283143
165	0xbbb917f3	-0.005648607
166	0x3be61382	0.0070213685
167	0xbd5418c6	-0.05178144
168	0xbc531e75	-0.0128856795
169	0x3d09c32c	0.033633396
170	0x3d889ca2	0.066705
171	0x3b8d7011	0.004316338
172	0x3d074106	0.033020996
173	0xbc2b1bc3	-0.010443631
174	0x3db57f78	0.08862203
175	0xbdb7433e	-0.08948372
176	0xbd7ffc3a	-0.0624964
177	0xbc2cbcd5	-0.010543068
178	0xbcf22760	-0.029559791
179	0x3c44f014	0.01202013
180	0xbb054b28	-0.0020338986
181	0x3c3e0967	0.011598921
182	0x3d2a408e	0.04156547
183	0xbcc6c513	-0.024263894
184	0xbda0389d	-0.07823298
185	0x3c21937a	0.009861821
186	0xbd336d14	-0.043805197
187	0xbe3a42c2	-0.18189529
188	0x3c2d88c4	0.0105916895
189	0xbd2da212	-0.04239089
190	0x3c3e2ae0	0.011606902
191	0x3cb938da	0.022610117
192	0xbd814a3a	-0.06312986
193	0x3d65356b	0.055959146
194	0xbd1cec34	-0.0383112
195	0xbbc93ebf	-0.006141513
196	0x3d8182b8	0.06323761
197	0xbe0a64a2	-0.13514951
198	0xbd7d4cda	-0.06184087
199	0xbd18369b	-0.03716145
200	0x3cb39d37	0.021925552
201	0xbc931fcb	-0.017959496
202	0xbcb1b695	-0.021693507
203	0x3ca20326	0.019776892
204	0x3d9f8fed	0.077911235
205	0x3d551804	0.052024856
206	0xbcaa6786	-0.020801317
207	0xbcc25cf6	-0.023725968
208	0xbd9a20c8	-0.07525784
209	0x3bace0d4	0.005275825
210	0x3d21833f	0.039431807
211	0xbdc02af7	-0.09383195
212	0xbbbf00c6	-0.0058289496
213	0x3d269b61	0.040675525
214	0x3d7d1697	0.06178912
215	0x3ab10c80	0.0013507754
216	0x3b721d5b	0.0036943767
217	0x3da934ba	0.0826201
218	0x3c096725	0.008386408
219	0xbd272b5c	-0.040812835
220	0xbd84fe09	-0.06493766
221	0x3d1d1419	0.038349245
222	0x3b029d10	0.0019930042
223	0x3d8a49b6	0.067523405
224	0xbd8c6d86	-0.068568274
225	0xbd26776c	-0.040641233
226	0x3d9d4a82	0.07680227
227	0x3cdfe5ad	0.027331198
228	0x3bf6bfa9	0.007530172
229	0x3c7273e6	0.01479814
230	0xbce9765c	-0.028498821
231	0x3d46b1d3	0.04850943
232	0xbd84760e	-0.0646783
233	0xbc983915	-0.018581906
234	0xbdbc081e	-0.09181236
235	0xbca79f8f	-0.020461826
236	0xbc013ed9	-0.007888519
237	0xbd45939b	-0.04823647
238	0x3c0a7052	0.008449631
239	0x3e11edcf	0.14250873
240	0x3ca101a1	0.019654097
241	0xbac6ce8e	-0.0015167759
242	0xbd8086c4	-0.062757045
243	0x3d6817ee	0.056663446
244	0xbc48430d	-0.012223017
245	0xbbfdbe64	-0.0077436436
246	0x3ce1a499	0.027544307
247	0x3b50503d	0.0031786107
248	0xbd23b5e2	-0.03996838
249	0xbd493f2a	-0.049132504
250	0xbcb24af7	-0.021764262
251	0x3d334190	0.043763697
252	0xbdc13241	-0.09433413
253	0x3ceb0f4f	0.028693823
254	0x3aa4e860	0.001258146
255	0x3d30c37b	0.043155175

network_body._body_endoder.seq_layers.0.bias f4 [128]
0	0x00000000	0.0
1	0x00000000	0.0
2	0x00000000	0.0
3	0x00000000	0.0
4	0x00000000	0.0
5	0x00000000	0.0
6	0x00000000	0.0
7	0x00000000	0.0
8	0x00000000	0.0
9	0x00000000	0.0
10	0x00000000	0.0
11	0x00000000	0.0
12	0x00000000	0.0
13	0x00000000	0.0
14	0x00000000	0.0
15	0x00000000	0.0
16	0x00000000	0.0
17	0x00000000	0.0
18	0x00000000	0.0
19	0x00000000	0.0
20	0x00000000	0.0
21	0x00000000	0.0
22	0x00000000	0.0
23	0x00000000	0.0
24	0x00000000	0.0
25	0x00000000	0.0
26	0x00000000	0.0
27	0x00000000	0.0
28	0x00000000	0.0
29	0x00000000	0.0
30	0x00000000	0.0
31	0x00000000	0.0
32	0x00000000	0.0
33	0x00000000	0.0
34	0x00000000	0.0
35	0x00000000	0.0
36	0x00000000	0.0
37	0x00000000	0.0
38	0x00000000	0.0
39	0x00000000	0.0
40	0x00000000	0.0
41	0x00000000	0.0
42	0x00000000	0.0
43	0x00000000	0.0
44	0x00000000	0.0
45	0x00000000	0.0
46	0x00000000	0.0
47	0x00000000	0.0
48	0x00000000	0.0
49	0x00000000	0.0
50	0x00000000	0.0
51	0x00000000	0.0
52	0x00000000	0.0
53	0x00000000	0.0
54	0x00000000	0.0
55	0x00000000	0.0
56	0x00000000	0.0
57	0x00000000	0.0
58	0x00000000	0.0
59	0x00000000	0.0
60	0x00000000	0.0
61	0x00000000	0.0
62	0x00000000	0.0
63	0x00000000	0.0
64	0x00000000	0.0
65	0x00000000	0.0
66	0x00000000	0.0
67	0x00000000	0.0
68	0x00000000	0.0
69	0x00000000	0.0
70	0x00000000	0.0
71	0x00000000	0.0
72	0x00000000	0.0
73	0x00000000	0.0
74	0x00000000	0.0
75	0x00000000	0.0
76	0x00000000	0.0
77	0x00000000	0.0
78	0x00000000	0.0
79	0x00000000	0.0
80	0x00000000	0.0
81	0x00000000	0.0
82	0x00000000	0.0
83	0x00000000	0.0
84	0x00000000	0.0
85	0x00000000	0.0
86	0x00000000	0.0
87	0x00000000	0.0
88	0x00000000	0.0
89	0x00000000	0.0
90	0x00000000	0.0
91	0x00000000	0.0
92	0x00000000	0.0
93	0x00000000	0.0
94	0x00000000	0.0
95	0x00000000	0.0
96	0x00000000	0.0
97	0x00000000	0.0
98	0x00000000	0.0
99	0x00000000	0.0
100	0x00000000	0.0
101	0x00000000	0.0
102	0x00000000	0.0
103	0x00000000	0.0
104	0x00000000	0.0
105	0x00000000	0.0
106	0x00000000	0.0
107	0x00000000	0.0
108	0x00000000	0.0
109	0x00000000	0.0
110	0x00000000	0.0
111	0x00000000	0.0
112	0x00000000	0.0
113	0x00000000	0.0
114	0x00000000	0.0
115	0x00000000	0.0
116	0x00000000	0.0
117	0x00000000	0.0
118	0x00000000	0.0
119	0x00000000	0.0
120	0x00000000	0.0
121	0x00000000	0.0
122	0x00000000	0.0
123	0x00000000	0.0
124	0x00000000	0.0
125	0x00000000	0.0
126	0x00000000	0.0
127	0x00000000	0.0

network_body._body_endoder.seq_layers.2.weight f4 [128, 128]
0	0xbd7e9a6e	-0.062158994
1	0xbd972ae4	-0.073812276
2	0x3cbcd1ea	0.023049314
3	0x3d423242	0.04741121
4	0xbc1df831	-0.009641693
5	0xbdb24649	-0.08704812
6	0x3c7062dc	0.014672007
7	0xbc9c9e37	-0.019118411
8	0x3e219814	0.1578067
9	0x3d3f789c	0.04674588
10	0x3dc6359a	0.096781924
11	0xbe1e105d	-0.1543593
12	0xbb8ebf1b	-0.0043562776
13	0xbd2ead39	-0.042645667
14	0x3d73eb64	0.059550658
15	0x3e177b17	0.14793049
16	0x3d3d8823	0.04627241
17	0x3d339e7e	0.04385232
18	0xbd5a734e	-0.05333262
19	0x3d70cace	0.05878716
20	0x3e0096ff	0.125576
21	0x3d9e589d	0.077317454
22	0x3d32bec5	0.043638963
23	0x3e23944b	0.15974538
24	0xbdd3dcf2	-0.10344876
25	0xbce2ea12	-0.027699504
26	0xbc1a8a3a	-0.00943237
27	0x3caa404c	0.020782612
28	0xbdaa70ec	-0.083223194
29	0xbc5bb613	-0.013410109
30	0xbda37d1f	-0.07982849
31	0xbdb4cd54	-0.08828226
32	0xbdbd6322	-0.09247424
33	0x3dc04ff6	0.09390251
34	0x3dc58474	0.09644404
35	0xbc9d7b00	-0.01922369
36	0xbdb17fd4	-0.086669594
37	0xbdfd5294	-0.12369266
38	0x3d42b1f2	0.047532983
39	0x3dc2776f	0.094954364
40	0xbddfedb3	-0.109340094
41	0x3d8f95f7	0.070110254
42	0x3c90137d	0.017587418
43	0xbd8f3652	-0.06992783
44	0xbe6faec7	-0.23406516
45	0x3e16ca06	0.14725503
46	0x3d94c1d4	0.07263532
47	0x3d03a0d6	0.032135807
48	0xbe27c65c	-0.16384262
49	0x3d7e27d9	0.06204972
50	0x3e39776d	0.18111964
51	0x3e1abde6	0.15111503
52	0x3c9f5970	0.019451827
53	0xbdd56a64	-0.10420683
54	0xbdf1da0c	-0.11809167
55	0x3df94c66	0.12172775
56	0xbcdb50a0	-0.026771843
57	0xbe7cfaa6	-0.2470499
58	0xba4f63ed	-0.00079113134
59	0xbcbbecdf	-0.022940097
60	0xbd4a3e42	-0.04937578
61	0x3dc3f5a0	0.095683336
62	0xbe24ef0b	-0.16106813
63	0x3d65aadd	0.05607115
64	0x3a3f4cbf	0.0007297508
65	0x3dc0a31e	0.09406112
66	0x3d843afe	0.06456564
67	0xbdb24964	-0.087054044
68	0x3ce7fad1	0.02831784
69	0xbe471202	-0.19440463
70	0xbd90404c	-0.07043514
71	0xbe18303f	-0.14862154
72	0xbddd14fb	-0.10795017
73	0xbe1beaef	-0.15226339
74	0x3da8f2eb	0.08249458
75	0x3d0956af	0.033529934
76	0x3e00bcf7	0.12572084
77	0xbd9a5c3b	-0.07537123
78	0x3d3f748b	0.046742003
79	0x3c65a6c3	0.01401681
80	0xbdc0664d	-0.09394512
81	0x3e7c9681	0.24666788
82	0x3df23998	0.118273914
83	0xbda43068	-0.08017045
84	0x3e4fb79e	0.20284888
85	0xbd2c9af3	-0.04213996
86	0xbc89487b	-0.016758194
87	0x3bd7243b	0.0065655983
88	0x3ce5cb22	0.028050963
89	0xbd48909c	-0.048966035
90	0x3dccdcd7	0.10003059
91	0x3d3ef947	0.04662445
92	0xbd035275	-0.03206106
93	0xbda35344	-0.07974866
94	0xbdf0fed3	-0.11767354
95	0x3d387727	0.045035508
96	0x3d5f1db8	0.0544717
97	0x3dae91ab	0.08523878
98	0xbd334337	-0.043765273
99	0x3cd67cde	0.026182588
100	0xbb88d8eb	-0.0041762493
101	0xbcdd0fe9	-0.026985126
102	0xbc355b77	-0.01106917
103	0x3ce028cd	0.027363205
104	0x3cd3d77d	0.025859589
105	0x3e00a6aa	0.12563577
106	0xbd49cf8a	-0.04927019
107	0xbca95752	-0.02067152
108	0x3ccd693e	0.025074597
109	0x3df7d5c2	0.12101318
110	0xbd201c15	-0.03908928
111	0xbe323bad	-0.17405577
112	0xbce88a12	-0.02838615
113	0xbacfdb74	-0.0015858249
114	0xbd842a74	-0.0645341
115	0xbd3a744b	-0.045521062
116	0x3c848a92	0.016179357
117	0x3d6be1f8	0.057588547
118	0xbd9d174f	-0.076704614
119	0xbd69c2ce	-0.057070546
120	0xbca61354	-0.020272888
121	0xbd095867	-0.033531573
122	0xbda5cbe8	-0.08095533
123	0xbc1e07bc	-0.009645399
124	0x3d122af1	0.035685483
125	0xbdb76ff4	-0.089569
126	0xbcc85aab	-0.024457296
127	0xbb9f6d44	-0.0048653204
128	0xbe1b34ba	-0.15156832
129	0xbc80df5d	-0.015731508
130	0x3cbcdd52	0.023054752
131	0x3ba1d88b	0.004939144
132	0x3e0f6d1c	0.14006466
133	0x3db678f1	0.089097865
134	0x3c812cfa	0.015768517
135	0x3db99f33	0.09063568
136	0x3daf0421	0.085457094
137	0x37e7970f	2.7607688e-05
138	0xbd809657	-0.06278675
139	0xbe1d5d8d	-0.15367718
140	0xbd777def	-0.060422834
141	0xbe35196f	-0.17685483
142	0xbd582ccd	-0.0527771
143	0xbdad6f89	-0.08468539
144	0xbe291855	-0.16513188
145	0x3b940b2d	0.004517934
146	0xbd2b8768	-0.04187718
147	0xbd83c63a	-0.06434293
148	0xbdb22859	-0.08699102
149	0xbc21648b	-0.0098506315
150	0xbd720608	-0.059087783
151	0x3d3bada1	0.045819882
152	0xbda02c6c	-0.07820973
153	0x3d4e4312	0.050356932
154	0xbb15538d	-0.0022785396
155	0x3d816785	0.06318573
156	0xbe1e8cc6	-0.15483388
157	0xbd83c2b7	-0.06433623
158	0xbc387c43	-0.011260095
159	0x3cb0fecd	0.021605873
160	0xbc47b10c	-0.012188207
161	0xbd282caa	-0.04105822
162	0xbda71046	-0.08157401
163	0x3dac4c0e	0.08412944
164	0x3dbd29c0	0.09236479
165	0xbda7206a	-0.08160479
166	0x3d66d1fb	0.056352597
167	0xbdac9983	-0.084277175
168	0x3d1f7faa	0.03894011
169	0xbd3ebcb0	-0.046566665
170	0xbe0be8fb	-0.13663094
171	0x3d6a733f	0.057238813
172	0x3d085eb4	0.03329344
173	0xbca2bbcb	-0.019864937
174	0x3c9fc4aa	0.019502956
175	0xbce59ecd	-0.028029824
176	0x3b996ce5	0.0046821707
177	0x3dfe6a53	0.124226235
178	0x3e280466	0.16407928
179	0x3d0b8d21	0.034070138
180	0xbc858b38	-0.016301736
181	0xbc5fa305	-0.013649707
182	0xbc090a6b	-0.0083643
183	0x3e0c5be0	0.13706923
184	0xbddcf114	-0.107881695
185	0xbe2e1f0b	-0.1700403
186	0xbc2170e9	-0.00985358
187	0x3d615a4e	0.055017762
188	0x3d90cdcd	0.070705034
189	0xbddbab98	-0.10726088
190	0xbc866541	-0.016405703
191	0xbdeaed64	-0.1147106
192	0x3de44f7b	0.11147972
193	0x3c93f334	0.018060304
194	0xbd11b538	-0.035573214
195	0x3de821db	0.113345824
196	0x3d920155	0.0712916
197	0x3c1241b3	0.008926797
198	0x3d45f9ce	0.048333935
199	0xbd2f446c	-0.04278986
200	0xbddff1de	-0.109348044
201	0xbc328906	-0.010896927
202	0x3d6cad24	0.057782307
203	0xbe505d06	-0.20347986
204	0x3e11470e	0.14187261
205	0x3e1bba61	0.15207817
206	0x3dbc6f99	0.09200973
207	0x3d5a63f7	0.05331799
208	0xbcbdf5f8	-0.023188576
209	0xbdeffbab	-0.11717924
210	0xbca7f0b2	-0.020500515
211	0xbd9029de	-0.070392355
212	0x3bddf3ae	0.0067734336
213	0x3e68f7d6	0.22750792
214	0x3cffdaee	0.031232323
215	0xbe0bf24b	-0.13666646
216	0xbe2d75c6	-0.16939458
217	0x3cd1ba9e	0.025601681
218	0xbe068524	-0.13136727
219	0x3d5320a1	0.05154479
220	0xbd231c56	-0.039821945
221	0xbdf6d2ca	-0.120519236
222	0xbbaee1c4	-0.005336972
223	0x3e1d9e79	0.15392484
224	0xbd27ac64	-0.04093589
225	0xbd82ed29	-0.06392891
226	0x3dc21bf0	0.09477985
227	0xbdc930d0	-0.09823763
228	0x3dbf8abc	0.09352633
229	0xbe3ff8a1	-0.18747188
230	0xbd284526	-0.04108157
231	0x3e353d2e	0.1769912
232	0x3d99c5dc	0.07508442
233	0x3d370cc4	0.04468991
234	0x3df22666	0.1182373
235	0xbd9d6559	-0.07685346
236	0xbdd0958f	-0.10184776
237	0x3d33a7e6	0.043861292
238	0xbd2d7b37	-0.042353835
239	0xbcb1c855	-0.021701971
240	0x3d58246e	0.052769117
241	0x3d093406	0.03349688
242	0x3bd9d8ce	0.0066481596
243	0x3b48aba6	0.0030619889
244	0xbcb7e85a	-0.022449661
245	0xbbf4f1ce	-0.0074751144
246	0x3d27b9cd	0.040948678
247	0xbdf7311d	-0.120699145
248	0x3d577725	0.05260386
249	0xbdc2c445	-0.09510092
250	0x3df98ab7	0.12184661
251	0x3e30a890	0.17251801
252	0x3d6aeb4f	0.057353314
253	0x3ccea536	0.025225263
254	0x3cbe6e5c	0.023245983
255	0x3e09e2f3	0.1346548

action_model._continuous_distribution.log_sigma f4 [1, 2]
0	0x00000000	0.0
1	0x00000000	0.0

action_model._continuous_distribution.mu.weight f4 [2, 128]
0	0xbc502638	-0.012704425
1	0xb9c1a7e8	-0.00036936929
2	0xba890440	-0.0010453537
3	0xbd10fc25	-0.035396714
4	0xbd002a7b	-0.031290513
5	0xbcbd8ac1	-0.023137452
6	0x3c8430ab	0.016136488
7	0xbbd06e4f	-0.006360806
8	0x3cb1da67	0.021710588
9	0x3cde7848	0.027156964
10	0xbc342176	-0.010994306
11	0x3c10c100	0.008835077
12	0x3cd87f43	0.02642787
13	0x3c1dc182	0.009628655
14	0x3b1caeb4	0.0023907842
15	0x3c3c7d10	0.011504427
16	0xbc02b3fa	-0.00797748
17	0x3c577a1f	0.0131516745
18	0xbbcd6a42	-0.0062687704
19	0xbc5edb73	-0.013602125
20	0x3c3ea2eb	0.011635522
21	0x3d0cff3b	0.034423094
22	0xbcd49953	-0.025952017
23	0xbcd48e5a	-0.025946785
24	0x3c5bc0d2	0.013412671
25	0x3c95dea7	0.018294645
26	0x3c82aab6	0.015950542
27	0xbcb846a7	-0.022494627
28	0x3c210668	0.0098281875
29	0xbce6b86f	-0.028164117
30	0xbb2fa788	-0.0026802737
31	0x3c55fff0	0.013061509
32	0x3c44ae20	0.012004405
33	0x3c4ec84b	0.012620996
34	0xbbee8a33	-0.007279658
35	0xb9c0287c	-0.00036651257
36	0xbc4f8d83	-0.012668016
37	0xbc694d77	-0.01423966
38	0xbc31452f	-0.010819717
39	0xbc07b9cb	-0.008284043
40	0xbbd38777	-0.0064553577
41	0xbb8c5490	-0.0042825416
42	0xbc15c428	-0.009141006
43	0x3ca5d417	0.020242734
44	0x3bd6dffb	0.0065574623
45	0x3bb42968	0.0054981
46	0x3cd34f13	0.025794541
47	0xbb46efba	-0.003035529
48	0xbc814ed7	-0.015784664
49	0x3bcde12b	0.0062829456
50	0xb9f1f6ef	-0.00046151082
51	0xbb18aac9	-0.0023295155
52	0xbbf8e565	-0.0075957053
53	0x3c08aa19	0.008341336
54	0xbd098e43	-0.033582937
55	0xbc8105f9	-0.015749918
56	0xbc83d505	-0.016092787
57	0x3ca609df	0.020268379
58	0xbc0c05f2	-0.008546339
59	0x3c459e2d	0.012061638
60	0xbc037bdb	-0.008025135
61	0xbb8ecca8	-0.004357893
62	0x3c020a0f	0.0079369685
63	0x3c2b85e3	0.010468933
64	0xbcc30e22	-0.02381045
65	0x3b9aa852	0.0047197724
66	0x3cb8b2c6	0.022546183
67	0x3ca8efaf	0.020622103
68	0x3c7fc737	0.015611461
69	0x3bcfdb18	0.0063432567
70	0xbd0f4954	-0.03498204
71	0xbbfa31f7	-0.007635351
72	0x3b31079f	0.00270126
73	0x3d0c8ff8	0.034316987
74	0xbc7a392a	-0.015272418
75	0x3c9bf34b	0.01903691
76	0xbb9a37ab	-0.004706343
77	0xbc930ec6	-0.01795138
78	0x3b6d3bcf	0.0036198979
79	0xbc29088f	-0.010316982
80	0xbc03392a	-0.008009234
81	0x3c936486	0.01799227
82	0xbb73ab78	-0.003718106
83	0xbd06b99a	-0.032891847
84	0xbc0aae46	-0.008464402
85	0xbc5463a3	-0.012963208
86	0xbc99e1ca	-0.018784422
87	0x3c5081fa	0.012726301
88	0x3af488e8	0.0018656524
89	0xbcd2e2a0	-0.025742829
90	0xbca821b2	-0.02052388
91	0xbcbc76ac	-0.023005806
92	0x3ba47b84	0.005019607
93	0x3c1b46b3	0.009477305
94	0xbc888963	-0.016667074
95	0xba288008	-0.00064277695
96	0x3d1ecab7	0.038767543
97	0x3c19e305	0.009392505
98	0x3ba8f19d	0.0051557557
99	0xbc0d5fde	-0.008628814
100	0xbc4d8f83	-0.012546423
101	0x3c46ee93	0.012141841
102	0xbbd7dd05	-0.006587627
103	0xbc56f11b	-0.013119007
104	0x3ceac257	0.028657122
105	0x39ff6d67	0.000487189
106	0x3b5292ed	0.0032131032
107	0x3cdf3902	0.027248863
108	0x3c81dbfd	0.015851969
109	0x3c49e87f	0.012323498
110	0x3b8281e2	0.0039827684
111	0x3a44d143	0.0007507989
112	0xbc2af8e6	-0.010435319
113	0x3cbaca69	0.022801595
114	0xbc5ef1ff	-0.013607501
115	0x3ba9da6f	0.00518351
116	0xbb331e5f	-0.0027331335
117	0xbcab2515	-0.020891706
118	0xbd0fc84d	-0.03510313
119	0x3b984856	0.004647295
120	0xbcdfa7ad	-0.027301634
121	0x3cf326f8	0.029681668
122	0xbc0930ef	-0.008373483
123	0xbc12f721	-0.008970053
124	0xbcba8901	-0.022770407
125	0x3d7065f3	0.058690976
126	0x3b40d528	0.0029423926
127	0x3cd94207	0.026520742
128	0x3c83b61f	0.016078053
129	0x3c2909bb	0.010317261
130	0x3d40dfa4	0.04708828
131	0xbba4fcc0	-0.005035013
132	0xbadf627d	-0.0017042902
133	0x3ce050c7	0.027382268
134	0x3c75af25	0.014995371
135	0xbc1e3685	-0.009656553
136	0xbc0770e3	-0.00826666
137	0x3c5ff9c8	0.013670392
138	0x3ca2d284	0.019875772
139	0xbcbbe129	-0.022934513
140	0xbc7bc45f	-0.015366643
141	0x3cabb423	0.02095992
142	0xbc2d3852	-0.01057251
143	0x3c092f63	0.008373114
144	0x3bd63fb7	0.006538357
145	0x3c0b2eb5	0.008495023
146	0x3b03a06b	0.002008463
147	0x3c3e90ff	0.011631249
148	0xbc8a6fbf	-0.016898988
149	0xbbc04dc1	-0.005868644
150	0x3c02adc7	0.007976002
151	0x3c13765b	0.009000386
152	0xbbbacbcc	-0.005700564
153	0xbabab618	-0.0014244942
154	0xbc2ac485	-0.0104228305
155	0x3c8ab626	0.016932558
156	0xbc806e02	-0.015677456
157	0x3d015489	0.03157476
158	0x3c9958e9	0.018719153
159	0xbcebd3e5	-0.028787563
160	0xbc0f7f4b	-0.008758376
161	0xbc07a3c3	-0.00827879
162	0xbca8991b	-0.020580819
163	0xbcb1d1ab	-0.021706423
164	0xbcb75e82	-0.022383932
165	0xbc4bf6a0	-0.012448937
166	0x3cabe270	0.020981997
167	0x3c8cb05a	0.017173935
168	0xbac7f46a	-0.0015255336
169	0xbc0830ef	-0.008312448
170	0x3adfa5cd	0.0017062962
171	0xbc0935aa	-0.008374611
172	0x3c1b8195	0.009491344
173	0x3ba27383	0.0049576177
174	0xbd176d70	-0.036969602
175	0x3b3da815	0.0028939296
176	0x3ce2c74b	0.02768292
177	0xbc067f45	-0.008209054
178	0xbb95e503	-0.0045744195
179	0x3c83a678	0.01607059
180	0x3c88e5af	0.016711084
181	0xbce9f8fa	-0.028561104
182	0xbb7f2dcb	-0.0038937207
183	0x3ae5be52	0.0017528033
184	0xbc8cceba	-0.017188419
185	0x3b8a4dbe	0.0042206934
186	0xbc9e7f26	-0.019347738
187	0x3cc75944	0.024334557
188	0xbd0d0e08	-0.03443721
189	0xbbfb652d	-0.007671973
190	0x3c8a0949	0.01685013
191	0xbcc79b53	-0.024366057
192	0x3be70f1d	0.007051362
193	0x3c0d7e3a	0.008636052
194	0xbc74fbe2	-0.014952632
195	0x3cf0f600	0.029414177
196	0x3c440e74	0.0119663365
197	0x3d0b601b	0.0340272
198	0x3be8942b	0.007097741
199	0xbc7aecf7	-0.015315286
200	0xba83442a	-0.0010014821
201	0x3c94de7f	0.0181725
202	0xbbdf069d	-0.0068062083
203	0x3d26a7e7	0.040687468
204	0xbcd6d0cf	-0.026222615
205	0xbcc1cdca	-0.023657698
206	0xbc52146a	-0.01282225
207	0x3cbb6a24	0.02287776
208	0x3c6e3bcb	0.014540623
209	0xbbc5ad67	-0.006032634
210	0xbcd7ab83	-0.0263269
211	0x3c1e85be	0.009675441
212	0x3c4689e9	0.012117841
213	0x3d0747d4	0.033027485
214	0x3b895e07	0.004192117
215	0xbc8fa7bd	-0.017536039
216	0xbb282dcd	-0.0025662065
217	0x3b458527	0.003013918
218	0xbcd01352	-0.025399838
219	0x3c90711f	0.017632065
220	0xbce2aa98	-0.027669236
221	0xbbe9cecd	-0.0071352483
222	0x3cfede8f	0.031111984
223	0x3c959617	0.018260045
224	0x3c980e07	0.018561376
225	0xbb6c4677	-0.0036052743
226	0x3d03754a	0.032094277
227	0xbcf2ac32	-0.029623125
228	0xbcaddb59	-0.021222757
229	0xbac7b8d3	-0.0015237577
230	0xba3734a8	-0.00069887424
231	0xbb996dc7	-0.004682276
232	0xbb0c0c0f	-0.0021369492
233	0x3cc26626	0.023730349
234	0xbbcced1f	-0.006253853
235	0xbb90d1f3	-0.004419559
236	0xbc5820c3	-0.013191405
237	0xb9e31e10	-0.00043319212
238	0xbbde8820	-0.0067911297
239	0xbb039adb	-0.0020081315
240	0xbcae4c49	-0.02127661
241	0xbcd5d8d5	-0.02610437
242	0xbc765cfb	-0.015036817
243	0x3ba87deb	0.0051419637
244	0xbc734c5b	-0.0148497475
245	0xbb9e715c	-0.004835291
246	0x3cc7a051	0.024368437
247	0xbc862347	-0.016374243
248	0xbcc92be3	-0.02455706
249	0x3b14f246	0.0022727414
250	0xbb3b925b	-0.002862117
251	0xbc8892a5	-0.016671488
252	0xbc5694f2	-0.013097035
253	0xbcc07861	-0.023494901
254	0x3bdb5b83	0.0066942587
255	0x3cac8cfe	0.021063324

action_model._continuous_distribution.mu.bias f4 [2]
0	0x00000000	0.0
1	0x00000000	0.0

action_model._discrete_distribution.branches.0.weight f4 [1, 128]
0	0x3c0f078f	0.008729829
1	0x3ca78a15	0.020451585
2	0x3bd031b5	0.006353582
3	0xbba6027b	-0.0050662137
4	0xbbdc81d3	-0.0067293434
5	0x3b9cc263	0.004783915
6	0xbb85b770	-0.0040807053
7	0x3b395841	0.0028281363
8	0x3bcbf3c8	0.0062241293
9	0xbb976453	-0.004620114
10	0xbac60779	-0.0015108428
11	0x3afbfe77	0.0019225617
12	0xbc6cadf3	-0.01444577
13	0x3bf718b0	0.007540785
14	0x3c1e6e79	0.009669893
15	0xbbcc99df	-0.006243929
16	0xbbe894dd	-0.007097824
17	0xbb1f433d	-0.0024301552
18	0xbb4fdbe2	-0.0031716754
19	0xbacb98f5	-0.0015533256
20	0xbb9578e9	-0.0045615328
21	0xbafd09ed	-0.0019305326
22	0xba0bf318	-0.0005338653
23	0x3c13543c	0.008992251
24	0xbba47db0	-0.005019866
25	0x3b8b4bf3	0.004250997
26	0xbc05c49b	-0.00816455
27	0xbc857917	-0.016293092
28	0x3c6acd42	0.014331164
29	0xbb956d03	-0.0045601144
30	0xb960654d	-0.00021400042
31	0x3c4e1d3d	0.012580213
32	0xbca30fd7	-0.019905014
33	0x3c0058d8	0.007833682
34	0x3bba000c	0.005676275
35	0x3aaacb93	0.001303064
36	0xbb9365bb	-0.004498211
37	0x3c2382e4	0.009979937
38	0x3b403c77	0.0029332915
39	0x3bed7977	0.0072471458
40	0x3bff1c0b	0.0077853254
41	0xbc684ada	-0.014178002
42	0x3c01a630	0.007913157
43	0x3b0be869	0.0021348244
44	0x3c2ef3b8	0.010678224
45	0x3bbe7a7e	0.005812942
46	0xba8031ee	-0.0009780505
47	0xbba3eb78	-0.0050024353
48	0x3a8cc222	0.0010739008
49	0x395ec7b5	0.00021245966
50	0x3adee80f	0.0017006415
51	0xbc21c10f	-0.009872689
52	0x3c484a6b	0.012224774
53	0x3a452ff9	0.0007522102
54	0xba9a4b07	-0.0011771627
55	0x3a80f35f	0.0009838155
56	0x3acb592b	0.0015514245
57	0x3c2f99fb	0.010717864
58	0xb9b3071a	-0.00034146832
59	0xbabfa098	-0.0014620004
60	0xbc28d48f	-0.010304584
61	0x3c01e4e3	0.007928106
62	0xbb38234f	-0.0028097217
63	0xbc1be419	-0.009514832
64	0x3b910537	0.0044256705
65	0x3bf19a68	0.007373143
66	0xbbb9bea9	-0.0056684804
67	0xbae5c0cb	-0.001752877
68	0x3b465110	0.003026072
69	0xbc0dc050	-0.008651808
70	0xbafa57a0	-0.0019099601
71	0xbb70cc98	-0.003674304
72	0xbabf0692	-0.0014574102
73	0xb8a63840	-7.925974e-05
74	0x3b99e2e5	0.0046962374
75	0x3c63d1e7	0.013905025
76	0x3c2809b8	0.010256223
77	0x3c223c78	0.009902112
78	0x3c17afd0	0.009258226
79	0xbbba67f1	-0.0056886603
80	0x3aa183fd	0.0012322661
81	0x3a942701	0.0011303128
82	0x3c2ef6ce	0.01067896
83	0xba06a8b5	-0.00051368336
84	0xbbe84253	-0.0070879846
85	0xbb598dd2	-0.0033196104
86	0x3ae6a90d	0.0017597988
87	0x3b9ca849	0.0047808033
88	0x3b831952	0.004000821
89	0xbb6d909d	-0.0036249526
90	0x3b2deeeb	0.0026540111
91	0x3928a47e	0.00016083007
92	0xbc6d0c47	-0.014468259
93	0x3b915b77	0.0044359523
94	0xbbe1f0af	-0.006895147
95	0xbc36b2ad	-0.011150998
96	0x3a867331	0.0010257718
97	0x3b4aa4f7	0.003092108
98	0xba523d93	-0.00080200395
99	0xbb15f8fe	-0.0022884007
100	0xbc0240f8	-0.00795006
101	0x3a025c9c	0.00049729063
102	0x3b0402e7	0.0020143331
103	0x3b73962f	0.0037168374
104	0xbb8612a2	-0.0040915767
105	0xbbc28108	-0.005935792
106	0xbc055acb	-0.0081393225
107	0x3b62b695	0.003459369
108	0xbc707a6f	-0.014677628
109	0xbbbb42fc	-0.0057147723
110	0x3c6c577b	0.014425154
111	0x3bddd2b3	0.006769502
112	0x3c1efe63	0.009704205
113	0xb9dd129d	-0.00042166273
114	0xbb663125	-0.0035124507
115	0x3bb62e45	0.005559715
116	0xbbcf1f60	-0.006320879
117	0xbc116638	-0.0088744685
118	0x3b17dc1b	0.0023171965
119	0x3b98bbc4	0.0046610553
120	0x3c101109	0.008793124
121	0x3a9b6f93	0.0011858813
122	0xbbcf434b	-0.0063251606
123	0x3878b622	5.9297432e-05
124	0xbc615702	-0.013753654
125	0xbbd4e0ed	-0.00649654
126	0xbb8824e3	-0.004154788
127	0x3c52a77b	0.012857313
